apps/classify/mnist/params/CNN_Model_30.pth (torch, 909267 bytes, 32 tensors)

conv1.weight f4 [32, 1, 3, 3]
00000000: 0272 0b3e d310 70be 6c9e 753e 597f e93d
00000010: a1e8 95bd 67b2 683e 22ec a1be fb71 5bbe
00000020: aedb eebe e4b4 8cbe b112 c3bd 737f 6f3e
00000030: 3b40 73be d4d1 0fbe 1c99 183e e6c9 7ebd
00000040: 2a49 52be 9e5b ae3e aeab 863e 3c9e e73d
00000050: ccca ecbd 8a31 23be 41d5 dabd 1908 6b3e
00000060: e998 82be b58f 673d 8748 f63d 7b70 543e
00000070: 18dc 6d3e 4ae7 8e3d 6b31 35be f636 363e
00000080: e860 563e 3979 d0be 778b adbe 7a57 863d
00000090: 7b7d f63d 0058 e43d 39bc ca3d af25 44be
000000a0: e406 883e 3ce2 91be e39f 97be ef99 91be
000000b0: a62b 07be 2e60 16bd 204e 373d e58b b83e
000000c0: 1f08 a2bd 8601 87be 0be0 cc3c 9eb8 32be
000000d0: d34d 1e3c a8fa 85be 82f4 48be 8b2e ba3b
000000e0: 3ac8 5d3e 4f16 1fbe cf04 81be 9c3b 97be
000000f0: c9d3 473e 168e 3c3e 7d4e fdbd a337 4bbe
00000100: bc0f 54be 551d 90bd db2d e0bd 6cb9 5bbd
00000110: 6226 bf3e 848b 32be 07b3 41be 0c51 ea3d
00000120: 270e 85be 30bd 87be 1bae 9cbe ca28 a9bd
00000130: 2beb bc3d 73e5 6f3e 9990 a0bd 2e76 1f3e
00000140: d68e 673d 9fa0 a6be 672c 27bd 25f7 3b3e
00000150: 7cb8 0dbe f183 c13e 8224 36be c059 cfbd
00000160: d87f 2e3e 488f 9ebe dd3c f13d 3b5d bebd
00000170: 7020 a9be b3b6 593e c39f 65bc 6116 1ebe
00000180: 2dbf fc3d 187d 343e f738 ed3c 7551 4cbd
00000190: 19c9 983d c390 d7bd 6a4a 183d e4a9 6c3e
000001a0: 3798 8bbe 4ea3 3e3d 842f a13e f657 d3be
000001b0: b30c 8abe 84ec 2cbe 5142 63be 939c cfbd
000001c0: 1e68 21bd cc00 a13e f9e2 d43e f912 be3d
000001d0: d729 65be 78a6 ab3c 4050 cb3d f58c 233e
000001e0: 7197 e43e 0191 81bb b342 b53d c397 dbbd
000001f0: ef07 153e ea23 c6be 2ae8 243e f6fb 193c
00000200: bb4f 8ebe 2a49 413d cae5 4bbe c2e0 e93d
00000210: 0575 303e 1d70 aebe 8c4a 0cbe 2066 9d3e
00000220: a5f4 f5bc a7ae 3e3e 8c44 863e 4b3b 943d
00000230: 30ec e8bd d0dd a0be f267 b8be 1a16 dabe
00000240: 0805 0bbe 8190 913d 050e f8bc ea39 75be
00000250: d5ad 01bc 2c2d 9d3e 6db2 df3d 42f8 97be
00000260: 8c93 80be 85a6 9f3b 2c2b 903e 7246 063e
00000270: 962c a63e e7e3 a73c f0e9 463d c820 78be
00000280: 837d b8be 1129 6bbd b03b ddbe 3d86 aebd
00000290: d4b0 8abe f242 233d b0c9 9f3e 3796 a53e
000002a0: aba5 023c dd1d 553e cadf c1be e420 a33e
000002b0: bc9a 7c3e 29db b2be 424e 20be 30b0 32be
000002c0: 7d3a 25be 9c37 d2bd c598 4abe 93b8 4f3d
000002d0: 3055 5abe b88e 95bc 395f 16be cf7b 0b3e
000002e0: b93f a2be 8b8f 6fbe 11ee 86be 2ca5 803e
000002f0: d9ab 803e fd99 803e 35e4 393e af25 28bd
00000300: 6f60 42be b178 c5be c801 84be d0d2 31be
00000310: 5e9c c8bc bd7c 8c3e 36d1 e1be a465 8ebd
00000320: b2dd 6f3e 38ab 1fbe 2384 a13d 8676 573e
00000330: 56bf 7a3d 3b1f 023d ce42 a53d 3946 d7be
00000340: af78 84bd 2b4b 803b 07c4 d7bd db71 0f3e
00000350: a6c1 86bb 321c 29be aa16 f2bc 3608 3c3e
00000360: 880d 9f3d 00b9 47be 1af2 86be 7853 683e
00000370: 6195 1d3e e168 903d 3281 48be 35b3 c23d
00000380: 1591 eb3d 19ba 353d 9397 863d 942f 42be
00000390: 6851 473e d2ee cdbe 859f 2a3e 16f6 a6be
000003a0: 122b 2c3e 1f82 5a3c 7009 c7bd 0950 f1bd
000003b0: 3cb6 913e dbdd b9be a468 7abd 05aa cc3d
000003c0: 89fa 8ebe 99b0 21be 3600 50bd 6a63 683b
000003d0: 670c 073e fee4 e13e 3842 83be 4526 0f3e
000003e0: b80f a63c af6d ad3e 3c9d 723e 4ad2 8cbd
000003f0: 1d10 693c 44e9 1ebd 4d0a 9b3e 1834 883c
0.1361771 -0.23443918 0.23986214 0.11401243 -0.07319761 0.22724305 -0.31625468 -0.21430199
-0.46651977 -0.2748176 -0.095250495 0.23388462 -0.2375497 -0.14044887 0.14902157 -0.062204264
-0.20535722 0.34054273 0.26302856 0.11309478 -0.11562118 -0.15936866 -0.10685206 0.22952308
-0.25507286 0.056533534 0.12025552 0.20746033 0.2322849 0.06977709 -0.17694633 0.17794403
0.20935404 -0.40717486 -0.33895466 0.065596536 0.12035652 0.11149597 0.09899182 -0.19155
0.26567757 -0.28492916 -0.2961417 -0.28437755 -0.13200244 -0.036712818 0.04475224 0.3604423
-0.07911705 -0.2636835 0.025009176 -0.17453238 0.009662109 -0.26167798 -0.19624522 0.005681818
0.21658412 -0.15535854 -0.2519898 -0.29537666 0.19514383 0.18413576 -0.12368486 -0.19845442
-0.20709127 -0.07036845 -0.10946246 -0.05364363 0.3733397 -0.17436033 -0.1891595 0.1144124
-0.2598736 -0.26511526 -0.30601582 -0.08259733 0.09224542 0.23427372 -0.0784008 0.15572426
0.056532703 -0.3254442 -0.04081383 0.18355997 -0.13839906 0.37795976 -0.17787364 -0.1012454
0.17040956 -0.3096869 0.11779187 -0.09295126 -0.3303256 0.212611 -0.014015141 -0.15438224
0.123411514 0.17625844 0.028957827 -0.04988237 0.07460231 -0.10525658 0.03718034 0.23111683
-0.27264568 0.04654246 0.31481564 -0.41278046 -0.26962814 -0.16887099 -0.22193266 -0.10137286
-0.039405935 0.3144592 0.41579416 0.092809625 -0.22379242 0.020953402 0.09927416 0.1597174
0.4464679 -0.0039540534 0.088506125 -0.107223056 0.14553808 -0.38699275 0.16104189 0.009398451
-0.27795205 0.047188915 -0.19911876 0.11419822 0.1723214 -0.3406991 -0.13700312 0.30741978
-0.030023882 0.18621312 0.26224172 0.07237872 -0.11373174 -0.3141923 -0.36016804 -0.42594987
-0.13576138 0.0710764 -0.030280123 -0.23947874 -0.00791498 0.30698526 0.10922704 -0.29681593
-0.2511257 0.0048721456 0.28157938 0.1311281 0.3245589 0.020494414 0.048562944 -0.24231255
-0.36033258 -0.05741221 -0.432096 -0.08521698 -0.27088034 0.039858766 0.31208563 0.32341167
0.007974069 0.20812173 -0.3786605 0.3186103 0.24668401 -0.3493283 -0.15654853 -0.17450023
-0.16135593 -0.10264513 -0.1978484 0.050713133 -0.21321559 -0.01825653 -0.14684762 0.13621448
-0.31689242 -0.23394601 -0.26353505 0.25126016 0.2513111 0.25117484 0.1815346 -0.041051563
-0.18982099 -0.38568643 -0.2578261 -0.17365575 -0.024488624 0.27438918 -0.44104928 -0.0695298
0.23424414 -0.15592659 0.07886531 0.21041307 0.06121763 0.031768065 0.080693826 -0.42045763
-0.06468331 0.0039152107 -0.10535436 0.14008276 -0.00411244 -0.16514662 -0.029551823 0.18362507
0.07766253 -0.19504166 -0.26356584 0.22688091 0.15389015 0.07051254 -0.19580534 0.09506837
0.115022816 0.04436693 0.06571879 -0.18963462 0.19464648 -0.40221268 0.16662414 -0.32609624
0.16813305 0.013336687 -0.09718597 -0.117828436 0.28459346 -0.36302075 -0.06113495 0.09993366
-0.27925518 -0.15790023 -0.05078145 0.0035459646 0.13188325 0.4412002 -0.25636458 0.13979442
0.020271167 0.33872744 0.23692793 -0.06876047 0.014225033 -0.03879668 0.30281296 0.016626403

conv1.bias f4 [32]
00000000: dfd3 a63e edb9 47be 81d0 193d 9fb7 7dbb
00000010: 6bb8 33bd e726 093e e6ce 433d 6fbe d13d
00000020: f8c7 69be 74ac bebd 2caa 89be ea10 0e3e
00000030: f5f0 883e 7a54 97be 4da6 573e 4546 143e
00000040: 1645 ab3e 4e47 a6bd c00d 0abe d0f7 43be
00000050: 2dbc a9bd 633a 723d 7141 563e ddd0 f83d
00000060: 4d90 5bbe 5000 1a3d 1110 4dbe e647 16be
00000070: a6b4 e73d f876 5fbe 324c 03be 69f1 1f3e
0.3258352 -0.19504519 0.03755236 -0.0038714183 -0.043877047 0.13393746 0.047804736 0.102414005
-0.22830188 -0.093102366 -0.26887643 0.1387364 0.26746336 -0.29556638 0.21059532 0.1447993
0.33451146 -0.08119069 -0.13481808 -0.19137502 -0.08287845 0.059137713 0.20923401 0.121492125
-0.21441765 0.037597954 -0.2002566 -0.14675865 0.11313753 -0.21822727 -0.12822035 0.15619434

conv2.weight f4 [64, 32, 3, 3]
00000000: 4115 6dbd ac91 cbbb 1b27 083d a967 51be
00000010: 10ef 1fbe 9a05 973c c8f7 acbd 023a 043d
00000020: 226f 8d3d d9e3 b63b 6377 9b3c a2c7 f03c
00000030: cce7 30be 7767 4f3d aaaa eebc d620 9dbc
00000040: 4c17 0fbe 49c9 10be cb6f 77be c69e 68bc
00000050: 213b a83c a718 a7bd 5b1c 273c b339 0dbe
00000060: 1001 2d3c 700a c8bd 1ea2 863d 0fee 86bd
00000070: ca2d a4bd ea33 183d 6823 86be 7b07 94be
00000080: 02b6 03bc adc0 053d 8197 c6bc 75af b93a
00000090: 3a98 62bd bb7d 0abe 31f2 7e3d 7124 7ebd
000000a0: 064e 65be d7d1 563d 5e4e 1cbe d2a4 b73d
000000b0: 4517 cf3c 2b2d 81bd 4696 333d 917d 3c3d
000000c0: aa4c 0ebe ee23 84bd 691b 363d 871f 63bd
000000d0: be8e f4bd 019a 343d f66c 5bbd b1c7 3abd
000000e0: 31c5 dabd dcf9 66bc cf8f 96be c092 9dbd
000000f0: bd7a 783d 804c 23bb d9e2 2cbe 3816 393d
00000100: c453 83bd 3008 d0bc 022d 0fbd ed95 a93d
00000110: f214 04be 5355 a03b fa1a f1bd d63e 0bbd
00000120: e317 bcbc 0315 483d 0d53 543d dd1d 6ebd
00000130: 8cc2 6f3d bc14 80bc 3231 1bbe f670 f0bd
00000140: 1a1b ab3d 12fc 533e 7b33 4c3d c735 b6bd
00000150: b79b 233e c8b3 1b3e 5790 3d3e 7233 10bc
00000160: 4d0b 123d 8c83 9a3a f67d 4bbc 9b7d 35bd
00000170: 1d33 ddbb 7372 d23d 4f25 09be 7d50 76be
00000180: 1ad3 39bd 68d9 1abe e275 f4bd a98d 263d
00000190: d73e d53c b381 82bd 98a9 b4bd 51d8 34be
000001a0: d69e 913d 309e a1bd 31c5 0e3d 48a0 123d
000001b0: c272 ecbb d455 e4bd 40f7 2e3e a76d 3dbc
000001c0: f0de 1d3e 187e de3d fe40 78ba 2ac0 873d
000001d0: 64ab ea3d 2a55 debc c35b 40be 8396 07be
000001e0: 92bc 2abe 6b4a 033c 988d 123e 7507 4e3c
000001f0: baea 883d 2d4d a83d f783 7a3c 21de f9bb
00000200: 5140 5dbe f2aa d33c 21d4 3abe 8521 a3bd
00000210: e51a a4bd cc17 52be 8d6c 083d 4beb f73c
00000220: 02a2 71bd 55b6 44be 8ebf 4dbe 3059 67be
00000230: 1839 eb3d c024 1ebe d109 c83c 2502 003e
00000240: 9291 35be a503 8bbd df6c 1fbc 313c 5ebb
00000250: 4198 d33c 30d5 323b 0781 c83d 97ef 3dbd
00000260: 310b cabd b7b0 68bd ec7e b23d 9a8d cbbd
00000270: 67db 76be 6eb6 a0bd f656 783e 6ca6 adbd
00000280: 18c9 c33d 9ac5 2b3e ffe5 023e 4868 723d
00000290: 5c96 083e 0592 af3d 6648 1d3e 4d71 4e3e
000002a0: eeb1 613c 3759 8e3d e63b 13bc 394b 0fbd
000002b0: 83bd bcbd 033d ecbd 0649 16bd e211 8d3d
000002c0: 6cfa d43d 3aa8 81be bdc1 61bd e681 9c3e
000002d0: 8d50 fabd 82c5 b73d 064b 1c3d 3be5 0bbc
000002e0: 72b2 cd3b 5bdb 533d fb2b 88bd 33f0 41bc
000002f0: d809 5fbc 4c5a 52bd 39c0 c2bc 8475 b93d
00000300: 2bf1 8dbd e882 183e 2e3d 693e 3dac 8dbe
00000310: cfd5 8d3c 9120 bc3e 8c41 573d ec9a ef3b
00000320: 8a50 5a3e 5bfe 0bbd 2e7f ef3d 47c2 f63d
00000330: 01f7 17be ecc2 b1bd 8650 55bd 63a9 563d
00000340: b435 4ebd 1ae6 213b aa14 b2bd d163 97b9
00000350: 705b a1bc f485 6d3c 870a 59bd fe56 37be
00000360: 489d 7cbd 94dd a9bb dfa1 b33d af9f 613c
00000370: 9d92 05bd bc43 c7bc 8ca9 4e3e 2100 003e
00000380: 4206 05be 2661 083d 38ba 403c c621 62be
00000390: c85d bebd dcaf de3d c8a1 c0bd ff22 e8bc
000003a0: 75c3 05bd bd8b fc3d 1bd5 4fbd b572 e3bd
000003b0: 4ee1 143c 2c64 03be d8bb 1ebe c5c0 5bbe
000003c0: b3d6 91bd 1fc2 0bbe 1753 6fbe 89ba c53b
000003d0: 7842 56bd b266 47bc 6ec7 033d 205e e83d
000003e0: 2a79 883c 9992 313c c037 cd3c acf8 c8bd
000003f0: f845 17bd 667b 17bd aa2c c9bd a1d2 c0bd
-0.057881597 -0.006212434 0.03324042 -0.204497 -0.15618539 0.018435288 -0.08445698 0.032281883
0.069059625 0.005581361 0.018977826 0.029392067 -0.17275923 0.05063578 -0.029134113 -0.019180696
-0.13973731 -0.14139284 -0.2416374 -0.014198011 0.020536007 -0.08158999 0.010199632 -0.13791542
0.010559335 -0.09767616 0.0657389 -0.06588375 -0.08016546 0.037158884 -0.26198888 -0.28911957
-0.0080389995 0.032654453 -0.024242165 0.001416667 -0.055320956 -0.13524525 0.06224269 -0.062046472
-0.22393045 0.052446213 -0.1526427 0.08966984 0.02527965 -0.06307443 0.043844484 0.046018187
-0.13896433 -0.064521655 0.044459734 -0.05544999 -0.119412884 0.044092182 -0.05357071 -0.045600597
-0.106821425 -0.014097657 -0.29406592 -0.07694006 0.060663927 -0.0024917424 -0.1688341 0.045187205
-0.064124614 -0.02539453 -0.034955032 0.08280549 -0.12898615 0.004892984 -0.117727235 -0.033995472
-0.022960609 0.048848163 0.051837016 -0.05813395 0.058535144 -0.015634887 -0.15155485 -0.117402956
0.083547786 0.20701626 0.049853783 -0.08896976 0.15977369 0.152053 0.18512093 -0.008801328
0.03565531 0.0011788472 -0.012420168 -0.04430924 -0.006750478 0.10275736 -0.13393138 -0.24054141
-0.045367338 -0.15121996 -0.11936547 0.04066244 0.026030941 -0.063723944 -0.0882141 -0.17660643
0.07110374 -0.078915 0.034856025 0.035797387 -0.0072158286 -0.11149183 0.17086506 -0.011561788
0.15417075 0.10863894 -0.0009470134 0.06628449 0.114584714 -0.027140219 -0.18785004 -0.1324101
-0.16673496 0.008013348 0.14311826 0.01257502 0.066853955 0.08217845 0.015290252 -0.007625357
-0.21606566 0.025838349 -0.18244983 -0.07965378 -0.08012942 -0.2051689 0.033306647 0.030263564
-0.058992393 -0.19210179 -0.20092604 -0.22592616 0.11485499 -0.15443707 0.024418743 0.12500818
-0.17731312 -0.067878045 -0.009730547 -0.0033910389 0.025829436 0.0027287714 0.09790235 -0.04637107
-0.09865416 -0.056809153 0.08715615 -0.09939118 -0.24107133 -0.07847296 0.24251923 -0.08479008
0.0955984 0.16774598 0.12783049 0.05918148 0.13338608 0.08572773 0.15359649 0.20160408
0.013775332 0.0695061 -0.008986449 -0.034983847 -0.09215834 -0.115350746 -0.036690734 0.068881765
0.10399327 -0.2532366 -0.055116404 0.30567855 -0.12222395 0.089732185 0.038157485 -0.0085385395
0.006277376 0.051722866 -0.066490136 -0.011837053 -0.013613187 -0.051355645 -0.0237733 0.090556175
-0.06930765 0.14893687 0.22777244 -0.2767047 0.017313866 0.36743596 0.052552745 0.0073121693
0.21319786 -0.03417812 0.116941795 0.12048774 -0.14840318 -0.086797565 -0.052078746 0.052407634
-0.050344184 0.0024703802 -0.086953476 -0.00028875333 -0.019696921 0.014497269 -0.052988555 -0.17904279
-0.061673433 -0.005183885 0.08771109 0.013770982 -0.032610524 -0.02432429 0.20181865 0.12500049
-0.12990668 0.033295773 0.011763148 -0.22083196 -0.09295231 0.10873386 -0.09405857 -0.028337
-0.032657105 0.123313405 -0.050740343 -0.11105863 0.00908692 -0.12831181 -0.15501344 -0.21460254
-0.07121029 -0.1364827 -0.2337154 0.0060341996 -0.052309483 -0.012170481 0.032172613 0.11346078
0.016659338 0.010838174 0.025050998 -0.098130554 -0.03693196 -0.036982916 -0.09822972 -0.09415174

conv2.bias f4 [64]
00000000: a8d8 0f3d 3aa9 023c b96b acbc ab5f 063d
00000010: a12b 14bb 6b63 a23c 7b88 883c c44f 89bc
00000020: 6519 b8bc 039a 803c c269 543d f1a8 5a3d
00000030: e530 abbc 6458 59bb 9843 93bc 0290 003b
00000040: b2a1 583d 0f68 1ebd e7a2 e4bc cadf 5c3d
00000050: 50c5 3fbd a03a 673d 707a 323d b18a 62bc
00000060: d824 52bd 0154 603d 1678 09bc d043 0fbc
00000070: d8a4 3f3d 41f6 b33c 3fdb 433c 0377 c5bc
00000080: 4585 e83c 3e1f 633c 9336 34bd 10e1 64bb
00000090: 8dc7 b2bc 4b1a 933c 01da 3abd 2dd8 4cbc
000000a0: ceb5 78bc 9ca8 273d 934b 14bc af35 38bb
000000b0: 45dd 53bd 4c93 2d3d da46 f93c 26d5 6a3d
000000c0: 63d7 273d 2821 a73b 01a6 843c 1422 643d
000000d0: 01b3 b83c 0f77 603d c6cf 59bd 32d2 de3c
000000e0: 03f9 bebc e429 44bd 7fff 12bd 8c25 a0bc
000000f0: 966e 413c dd40 1ebd 2243 48bc 0ce2 ebbc
0.03511873 0.007974917 -0.02104746 0.03280608 -0.0022609013 0.019822797 0.016666641 -0.016761668
-0.022473047 0.015698439 0.05185867 0.05338377 -0.020897338 -0.0033164257 -0.017976567 0.0019617085
0.05288858 -0.038673457 -0.02790971 0.05392436 -0.04681903 0.056452394 0.043573797 -0.013827012
-0.05130467 0.054767612 -0.008390447 -0.008744195 0.046788067 0.021968009 0.011954128 -0.0241046
0.02838386 0.013862429 -0.04399736 -0.0034924187 -0.021823669 0.017956873 -0.04561806 -0.012502712
-0.015180064 0.040932283 -0.009051221 -0.002810817 -0.05172469 0.0423768 0.030429292 0.05733218
0.040976893 0.005100388 0.016192438 0.055696562 0.022546293 0.054801043 -0.053176664 0.027199838
-0.023312097 -0.047891513 -0.03588819 -0.019549154 0.011806151 -0.038636077 -0.012223037 -0.028794311

l1.weight f4 [128, 1600]
00000000: ccb6 6c3b 6b07 eebc 1808 aa3b 0776 4dbc
00000010: 5692 993c b0a5 9cbc 6cab d6bc 5037 e53b
00000020: dfb8 04bc c0ef 073b 680a f8bc 8ca9 1dbb
00000030: 8406 febc 605f eb3b 4c9e 623c 4ec2 be3c
00000040: 26e2 233c 3037 f3bc e4ca 2fbc 085d c7bc
00000050: fcc0 a5bb 8246 c73b 82aa ef3c 9dc8 01bc
00000060: c539 403c ba78 0ebd f2a7 8fbc 6d4e 0ebd
00000070: 6a08 8fbc 5410 b23b 9ae5 283c 3cfd 63bc
00000080: 720d 993b 327c 313c 50ac a33b 3428 76bc
00000090: 7456 e9bc 1946 0fbd d946 4c3c 2f8e 5d3c
000000a0: ecba acbc be42 0e3d 92d5 9f3b b095 db3a
000000b0: f09a dfba 30d2 a4bc f014 92bc 3695 fdbc
000000c0: 009f bcb8 c823 a7ba bb66 0dbd 3c63 9dbc
000000d0: 94dc 2fbb d0c9 33ba d433 a0bc 40cf 6d3b
000000e0: fe44 e43c 84dd cebb 48b6 90bc 7ff1 513c
000000f0: 13a1 31bc f07a 5dba c0e9 323c 47b6 97bc
00000100: 6d5a 0fbc c375 193c db71 6a3c 2785 bbbc
00000110: 1a99 aabb 9647 fd3c e0eb 1ebc 3c21 e23c
00000120: 202d 0b3b 3800 e4bb 1779 41bc 9c1c e9bc
00000130: 1c17 94bc e51d 0ebd 5eb3 00bd 0240 913b
00000140: 6c39 0f3c 3943 02bd 3801 333c b4f1 c8bc
00000150: 2c71 963b 0079 5db8 1d1d 87bc 050b 3a3c
00000160: f043 483a d8ed 83bc 20d4 e23a 6b20 adbc
00000170: 7aa0 e7bc 27c6 533c abac 663c 6c04 3d3c
00000180: fc96 91bc be57 e1bc 9655 b0bc b14d 20bc
00000190: 13ea 7fbc fa10 bbbc e4e5 dabc 28c1 f43a
000001a0: 00d6 d238 8c64 92bc 06d6 ecbb ecbc 2a3b
000001b0: c6c2 e63b 292d 9abc 38a0 8abc 38df 13bc
000001c0: 9684 903c ec49 0c3c f20b d4bb bc61 553b
000001d0: 2862 1dbc 1693 e33c 80c1 ab3b 903a efbb
000001e0: 0483 0dbd 987a edbc efdf 8ebc d941 a7bc
000001f0: 1c45 1ebc 3e06 8abc d082 a2bb 0679 06bd
00000200: dae3 4cbc 7611 823c fe71 3dbc 3081 fcbc
00000210: b501 f5bc e2e2 613c 183d c5bc 1c1d 3c3b
00000220: 780b 543b 445e 05bc b06d 9c3a 0325 2abc
00000230: e4c4 153b d87f 99bc 50ec 22bc 28dd c3bc
00000240: 48e7 723b 0498 efbc 5455 ed3b 9b67 6e3c
00000250: bc19 a8bc 2694 823b e229 aebc 1a49 9cbc
00000260: 904b 183c 738f eabc 04d9 16bb 74af 053c
00000270: 5b75 6cbc eb47 c4bc 7212 2ebc 560d 813b
00000280: 7747 08bd e553 273c 5bf8 643c 6945 0fbd
00000290: c986 6f3c fa2a a6bb 389d ae3a 7cf4 47bc
000002a0: 1ca7 ea3b af6a 153c 9a29 50bc 064f 0abd
000002b0: c084 ef3b 1f33 363c 0028 beb7 5465 a03b
000002c0: f3c5 ffbc 4096 d339 e1eb 83bc 5f10 703c
000002d0: 3ef9 e2bb d817 f6bc 5474 713b 0002 8cba
000002e0: a054 fdba f440 dfbb 3fe4 b5bc 38c7 cfbb
000002f0: 7400 eabb b6a4 fe3b bedf e0bc e4a3 4a3b
00000300: b498 a2bc c88d 503c 7f4d 21bc e2e2 49bc
00000310: 000f ecba a87e a2bc 86ea b03b 060c 39bc
00000320: e939 84bc 2a0d 143c c4a6 b6bc f70f 11bc
00000330: 5c75 07bd 8e9d d73b 4842 f13b 9803 80bc
00000340: 8b2c 223c 8099 e63a fda2 a2bc 02dd 093d
00000350: 5bcd 96bc 1967 41bc 0c15 23bc 00ac 04bd
00000360: f6db 1dbc 7051 50ba 4050 f83b 8860 f4bb
00000370: 5070 f1ba 0a7e fcbc 1b3c 633c 4ebd 65bc
00000380: 841e b7bc fd95 043c 7a6d cebc a510 02bd
00000390: e164 403c 5ab7 7ebc 3e30 0c3c 4c6b 21bc
000003a0: 7de5 2a3c 7de5 54bc b0a5 7dbb 3478 c63b
000003b0: d02c f7bc cc89 023c 4080 88bc 2a3e 2dbc
000003c0: 305e b8bc a4db dabb 5095 38ba d6f7 6ebc
000003d0: 10be 183b d812 8cba 084e 42bc d1ae 713c
000003e0: 025a 0abd a476 903b f9b1 b1bc a4db fe3b
000003f0: 8e67 ecbb 3de9 c3bc a373 6dbc fd66 72bc
0.0036119698 -0.029056272 0.005188953 -0.012540347 0.018746536 -0.019121975 -0.026204787 0.006995119
-0.008100717 0.0020742267 -0.0302784 -0.0024057357 -0.031008966 0.0071830004 0.013831686 0.023286011
0.010002648 -0.029689401 -0.010729525 -0.024336353 -0.005058406 0.0060814032 0.02925611 -0.007921365
0.011732523 -0.034783103 -0.017536137 -0.03474276 -0.017460067 0.0054340754 0.0103086475 -0.013915356
0.0046707923 0.010832833 0.0049949065 -0.015024234 -0.028483607 -0.03497896 0.012468063 0.013522669
-0.021085225 0.03473162 0.0048777545 0.0016752984 -0.0017059725 -0.020119756 -0.01783225 -0.030954938
-8.9941546e-05 -0.0012751753 -0.0345218 -0.019212358 -0.0026834356 -0.00068583805 -0.019555964 0.003628686
0.02786493 -0.006313028 -0.017665043 0.012813925 -0.010841626 -0.00084488 0.010919988 -0.018519534
-0.0087495865 0.0093664555 0.014309372 -0.02289064 -0.0052062394 0.030917924 -0.009699792 0.027603738
0.0021236613 -0.006958034 -0.011808655 -0.028456025 -0.018077426 -0.03469648 -0.031421058 0.004432679
0.008741718 -0.03180239 0.010925584 -0.024529316 0.004591128 -5.2803196e-05 -0.016493374 0.011355166
0.0007639518 -0.016104624 0.001730565 -0.021133622 -0.028274763 0.012925661 0.014079253 0.011536699
-0.01777219 -0.027507659 -0.021525186 -0.009784148 -0.0156197725 -0.022835243 -0.026720949 0.0018673288
0.00010053441 -0.01787021 -0.007227662 0.0026052548 0.007042262 -0.018820362 -0.016922101 -0.0090253875
0.017641347 0.008562546 -0.0064711506 0.0032559475 -0.009605922 0.027780097 0.005241573 -0.0073006824
-0.034548774 -0.028989121 -0.017440764 -0.02041714 -0.009660032 -0.01684868 -0.0049594417 -0.03283026
-0.012505496 0.015877467 -0.011562822 -0.03082332 -0.02990804 0.013787003 -0.024076983 0.0028703874
0.0032355469 -0.00814015 0.0011934545 -0.010384801 0.0022852952 -0.018737718 -0.009944037 -0.023909166
0.0037064124 -0.029247291 0.007242838 0.014551069 -0.020520084 0.003984946 -0.021260206 -0.019077826
0.009295359 -0.028632855 -0.0023017535 0.008159507 -0.014432277 -0.023960074 -0.010624515 0.0039383573
-0.03327128 0.010212873 0.013975228 -0.034978304 0.014619538 -0.005071041 0.0013322001 -0.012204286
0.0071610343 0.009119674 -0.012705231 -0.03376677 0.007309526 0.011120587 -2.2668391e-05 0.0048948918
-0.03122232 0.00040357 -0.016103687 0.014652341 -0.0069266846 -0.030040666 0.0036843019 -0.0010681748
-0.0019327588 -0.006813163 -0.022203563 -0.0063408874 -0.0071411673 0.0077711 -0.027450439 0.003092044
-0.019848205 0.012729116 -0.009845137 -0.0123221595 -0.0018009841 -0.019835785 0.005399051 -0.0112943705
-0.016140895 0.009036342 -0.022296317 -0.008853904 -0.033070907 0.0065800613 0.0073626377 -0.015626714
0.009898315 0.0017593354 -0.01985311 0.033658035 -0.018408468 -0.011804366 -0.009953748 -0.032390594
-0.009634962 -0.00079467054 0.007577926 -0.0074577965 -0.0018420313 -0.030821819 0.013869311 -0.014022185
-0.022353418 0.008092401 -0.025198687 -0.031754155 0.011742801 -0.015546644 0.008556424 -0.009852242
0.010430691 -0.012994167 -0.0038703494 0.00605681 -0.030172735 0.007967424 -0.016662717 -0.010573903
-0.02250585 -0.0066790152 -0.0007041292 -0.014585456 0.0023306645 -0.0010686768 -0.011859424 0.014751152
-0.033777244 0.0044086743 -0.02169131 0.007777648 -0.007214493 -0.023914928 -0.014492902 -0.014795062

l1.bias f4 [128]
00000000: f841 883b 28db b7bd f5e2 e3bb baf6 ccbc
00000010: 4c6e ebbd 2f8d b8bd 007e 06bb e37c 96bd
00000020: 3df8 f8bd 4616 99bb a116 97bd f03a 3eba
00000030: a001 b73b 4a42 913b 88a2 d73b 62f7 ddbc
00000040: d049 cdbd 1449 2bbd 5856 43be 70c2 033c
00000050: cbbf 31bb b669 efbd 787a 98bd ff48 0fbe
00000060: 26c5 24bc 946f 2fbe 5149 093b 199d 13be
00000070: 380d 7e3b 6352 7b3c c33a adba 3858 4a3c
00000080: 2002 203a 26c6 c3bd 4acd 303e 8883 15be
00000090: 37ca d8bd b49d d03b ac1f 4bbb 3fc8 0d3c
000000a0: ac7c c2bc b0ea bfba f89a 06bb e51a bdbd
000000b0: c35d 57bd 6800 c33b ba02 833c be76 e6bb
000000c0: a8c7 153c 536a a23d e60c bc3b 84be 833d
000000d0: ad3b 11bc bad7 93bb 705b a8bc 9a2a b9bc
000000e0: 27c6 38be 85ce eebc b4a6 73be 0b2f 66bc
000000f0: c997 aebb 5f0d 603a fdc6 5ebc 0abc 14be
00000100: b35a 44bd 0c84 613b 9a13 80bb 56a0 17be
00000110: 8a5d 3c3c afb6 1abe 0787 ac3c 8a74 1bbe
00000120: d778 e83d 5e29 ccbc 6bd5 3dbc 0f3e 89bd
00000130: 0933 39bc 6dd2 a2be bd5c 2f3d 5c27 8fbd
00000140: ba60 423e 4eed bc3b a4c9 39bd c7c1 bdbd
00000150: b55e 03bc 58ec febc b028 8cbe 88f7 e6bd
00000160: cc09 15bb c755 e43d cd80 06be 42e6 863b
00000170: ce59 0abd 9c34 46bd 6485 58bb 0478 febc
00000180: 8d18 11bc 68f8 ba3c 6863 443d dd2c 09be
00000190: 112b 33be 2073 cbb9 e68b bb3b 5abd 2fbd
000001a0: 9831 4bbc e42f a7bc bf1e 83bd f66a 9ebc
000001b0: 6ee0 dfbd b9c3 c9bc 7074 ebbd fd6e 20be
000001c0: a621 27bd b6fe 07bd 8368 563c 7166 e8bd
000001d0: 41cd 29bd b90b 32be 7ca4 5abe 7990 d0bb
000001e0: 4fda 18bd 89ce 523c 44b0 34bc 8404 cabd
000001f0: 18f1 80bc 161e c1bc 3f20 93bd fc93 76be
0.0041582547 -0.089773476 -0.0069545456 -0.025019992 -0.11495647 -0.09011304 -0.002052188 -0.07348039
-0.12156723 -0.0046718447 -0.07377363 -0.0007256707 0.0055849105 0.004432951 0.0065806545 -0.0270955
-0.10023844 -0.04181774 -0.19075906 0.008041963 -0.0027122374 -0.11690085 -0.07445234 -0.1399269
-0.0100567695 -0.17132407 0.002094824 -0.14415397 0.0038765203 0.015339467 -0.0013216365 0.012350135
0.0006103832 -0.09559278 0.17265812 -0.14600956 -0.105854444 0.006366456 -0.003099422 0.008653699
-0.023741089 -0.0014642086 -0.0020539146 -0.09233645 -0.052579653 0.005950976 0.015992511 -0.007033198
0.00914184 0.07930436 0.0057388423 0.06432822 -0.0088643255 -0.0045118006 -0.020551413 -0.022603322
-0.18044339 -0.02915121 -0.23794061 -0.014049302 -0.005328153 0.00085469143 -0.013597247 -0.14524856
-0.04793806 0.0034410981 -0.0039085867 -0.14807257 0.011496911 -0.15108751 0.02106048 -0.15181175
0.11351173 -0.02492207 -0.011586527 -0.0670129 -0.011303672 -0.31801167 0.04281305 -0.06989929
0.18982211 0.0057655936 -0.045358315 -0.09265476 -0.008018185 -0.031118557 -0.27374792 -0.112776816
-0.0022741435 0.11149173 -0.13135071 0.0041168043 -0.03377705 -0.048390016 -0.0033038491 -0.031063087
-0.008855951 0.022823527 0.047946364 -0.1339602 -0.17496897 -0.00038804952 0.0057234643 -0.04290519
-0.012401961 -0.020408578 -0.06402349 -0.019338112 -0.109314784 -0.02462946 -0.11496818 -0.15667339
-0.040803574 -0.033201896 0.013086441 -0.11347664 -0.04145551 -0.17387284 -0.21351808 -0.0063648787
-0.03731757 0.012866625 -0.011028353 -0.098641425 -0.015739962 -0.023573916 -0.07183885 -0.24079889

l2.weight f4 [10, 128]
00000000: bd32 8abd dfe8 ac3d b0d2 73bb 5bca 08bc
00000010: 8f99 d53d e737 1bbe cbe9 e33c 2a08 26be
00000020: a480 18bd 5396 82bc a280 b5be 33fd 70bb
00000030: 3004 ddbc 5b9f a03d f3a8 453d 24e2 95bd
00000040: aac3 243d 1fe5 a4be 7c50 20be 55d9 653c
00000050: e6a7 86bd 0bd0 aebc 25d1 c6bd 65aa 3d3d
00000060: 7890 4a3d 4bf9 0fbe ffc9 2d3d 6a12 d53d
00000070: 8d81 1a3d e86f 11be 53c0 99bd fced 833c
00000080: a82b 93bb fd2b 75be 5ff1 76be 1fc5 11be
00000090: d8a3 d83d 08b2 643d 6826 90bc 90bb c23c
000000a0: 3894 4fbe 58d6 d2bc 1527 8ebd 3e83 c63d
000000b0: 5d43 d7bd 5daf 003d 2861 2ebe 0288 3cbe
000000c0: e41f a63d b569 c7bc 9651 8d3d 666c 30be
000000d0: e822 78bb fa7a e13c fe65 313d 03ed 753c
000000e0: 559c df3d 4a8e d8bc e9d7 d93c e55d a43d
000000f0: 8718 fd3d a03a 373d 2ca0 35bd 8851 18bd
00000100: 262c 87be aa11 11bd 3ae3 583d 48a3 80be
00000110: 9dd8 86be 6977 a1be d12b 1fbe 3043 ad3d
00000120: 5fe4 a03e 188b 10bd dcb2 443d 75aa fb3d
00000130: 9c5f b3be 6278 4dbe 21ce b2bd a8df 323d
00000140: eaf5 5f3e 323f a73c b94b 043e 857d 20be
00000150: e7b6 a5bd 1140 833d 90b2 26be 791b 483e
00000160: 160b 9b3d 52b7 a43d 5266 1dbe 379c b9be
00000170: ee25 67bd b0d6 55bd 3716 bc3d c3bb fb3c
00000180: aa56 94bd 744a 9abe a068 33be 6216 1f3d
00000190: d8b0 c63d a8f3 3b3d 179b d03d 2860 efbd
000001a0: 0e9d e5bd 2d4f 73bd 6549 09be a470 263d
000001b0: 9550 083d 5a6e 71be 08b3 943d ab89 87bd
000001c0: a355 643d 6be6 973d 946e 013d e4ea 0c3d
000001d0: 8e22 72be c8a5 54be c98c 16be 005c 923d
000001e0: e15f 233d 5447 323d d252 90bd 7169 edbe
000001f0: 72f3 5b3b bb89 8ebd ebf6 69bd e26f 9b3d
00000200: 625d 533d 6086 02bd 76c8 04bd 3a67 babc
00000210: 48d9 03be 4fce 2dbe 46dc 923c 4538 4ebe
00000220: 3970 c8bd a78d 3b3d a6b6 80be 5140 22bd
00000230: 160b cd3d 10f5 373d 69d6 b2bd 5047 f2ba
00000240: 1cd7 e73c 6c35 61ba d8d9 b5bd c108 873d
00000250: d43e 99bd fd94 e3bd 378b 2a3d 9515 88be
00000260: 7945 7f3d cd5a 60be d2cc fe3c b7bd 4c3c
00000270: befd 01bc 27d1 193e 7c87 9e3d 4151 a83c
00000280: 8342 34bd a700 7b3b 0efb da3e d5e7 8dbe
00000290: 9c41 45bd ac8a 56bd 5e23 783d 89bd 11bd
000002a0: c233 0abe 03b1 66bd 19b3 a93c 9e1b a7bd
000002b0: 87df 633d ded5 b7bd 40f1 e13c 3a18 103e
000002c0: f4ff 6e3d a89b 613e 8e53 88bd 2049 e3bd
000002d0: 7545 563d 5c2b 683d 65cc 43bd 6aef 7d3d
000002e0: 8ca6 84be 490d 4abd 6fc2 59bd b0b8 c2bd
000002f0: ccc6 babc b63d 3cbd 75fb 65bd 64a7 3fbe
00000300: ed9c b6be 20d4 2ebe f02b c9bd 6004 89bb
00000310: 6d1f 46bd 8c87 c63c 4ffc 1ebe dc9c 48be
00000320: 034c 193e 72f3 05bd f041 293a 1978 37be
00000330: 66f6 3dbe 47d6 84be 9259 ae3d f625 b7bc
00000340: c053 433e 2ef4 1fbd b0f7 53be 1739 61be
00000350: 6e58 83bd 85e4 a73c 0828 b0be 66ba 1abe
00000360: abc7 9c3d 12e7 303e e44c c43b 5861 903d
00000370: 1494 2dbd 791c 63bd 43dd 053d 1a2c 453c
00000380: 8c6b 19bd 76b2 8cbd a0e4 953e 7ab9 26be
00000390: 24c2 24bd 5c3f 8d3d 9211 23bc a82e b5bd
000003a0: 414c 2d3e 6386 bcbd c507 35bc 148a 693d
000003b0: 8973 7bbe 2892 0f3e f1b6 3fbe 0c0a 96be
000003c0: f091 483b 4e1c 52bc e252 8fbd 22ec 2dbe
000003d0: 42d7 9c3d 677a 65be 746c 34be 6c2a c6bd
000003e0: e67d 4e3d b87b e63b 94d7 723d 564e 55be
000003f0: a4c4 473b f5c0 ee39 6b2c 37be c780 82be
-0.06747959 0.08442854 -0.0037204437 -0.008349027 0.104296796 -0.15158044 0.027821442 -0.16214052
-0.037232056 -0.01594082 -0.35449702 -0.0036772012 -0.026979536 0.07842895 0.048256826 -0.073185235
0.040225662 -0.32206056 -0.15655702 0.014028867 -0.06574993 -0.021339437 -0.0970786 0.04630508
0.049454182 -0.14059941 0.042428967 0.10403903 0.037721206 -0.14202845 -0.07507386 0.01610469
-0.004491288 -0.23942561 -0.24115513 -0.14235352 0.10578126 0.055833846 -0.017596439 0.023771077
-0.20271385 -0.025736973 -0.06941048 0.09693001 -0.105108954 0.03141724 -0.1702925 -0.18411258
0.081115514 -0.024342397 0.06900327 -0.1722885 -0.0037862603 0.02752446 0.043310158 0.015010121
0.1091849 -0.026435036 0.026592212 0.080257215 0.12358194 0.044733644 -0.044342205 -0.03718713
-0.2640087 -0.035417236 0.052951075 -0.25124574 -0.26337138 -0.31536415 -0.15544058 0.084600806
0.31424233 -0.0352889 0.048022136 0.122883715 -0.35033882 -0.20065454 -0.08730722 0.043670326
0.21871153 0.020415876 0.12919511 -0.15672882 -0.080915265 0.06408704 -0.16279054 0.1954173
0.07570474 0.08042778 -0.15371063 -0.36251995 -0.056432657 -0.052206695 0.09183925 0.03072918
-0.07243092 -0.30134928 -0.1752038 0.038839705 0.09701699 0.045886666 0.10185831 -0.11688262
-0.112115964 -0.05940168 -0.13406904 0.040634766 0.033279974 -0.23577252 0.0726071 -0.06618055
0.055745732 0.074169956 0.031599596 0.034403697 -0.23645994 -0.20766366 -0.14702143 0.07146454
0.03988636 0.043525055 -0.07047047 -0.46369508 0.0033561853 -0.06959864 -0.057120245 0.07589699
0.05160273 -0.03186643 -0.032417737 -0.0227543 -0.12875855 -0.16973232 0.0179273 -0.20138653
-0.0978703 0.045789387 -0.2513935 -0.03961212 0.1001188 0.044911444 -0.08732302 -0.0018484388
0.028300814 -0.00085910293 -0.08879441 0.065934666 -0.07482687 -0.11112402 0.041636672 -0.26578966
0.062322114 -0.21909638 0.031103525 0.012496403 -0.007934032 0.15021192 0.07740685 0.020546557
-0.044008743 0.003829995 0.42769665 -0.27715936 -0.048158273 -0.05237834 0.060580604 -0.035581145
-0.13496307 -0.056321155 0.020715283 -0.081595644 0.055633094 -0.08976339 0.027580857 0.14071742
0.058349565 0.22032034 -0.06656562 -0.11097932 0.052312333 0.056681976 -0.047802348 0.0619959
-0.25908315 -0.049329076 -0.053163942 -0.095078826 -0.022799872 -0.04595729 -0.05614801 -0.18716198
-0.356666 -0.17073107 -0.098228335 -0.0041814297 -0.048369814 0.024234556 -0.15525936 -0.19591087
0.14970402 -0.03270287 0.0006456664 -0.17916907 -0.18551025 -0.2594473 0.08513178 -0.022356968
0.19074917 -0.039051227 -0.20699954 -0.21994434 -0.06413351 0.020494709 -0.3440554 -0.15110168
0.07655271 0.17275646 0.0059906114 0.07049817 -0.042377546 -0.055447076 0.032681715 0.01203444
-0.03745608 -0.06869976 0.2927599 -0.16281691 -0.04022421 0.068968505 -0.00995292 -0.088467896
0.1692362 -0.0920532 -0.011049216 0.057016447 -0.24555792 0.14020598 -0.1872213 -0.2930454
0.0030604564 -0.012824131 -0.069982305 -0.16984609 0.07658245 -0.22409974 -0.17619497 -0.0967606
0.050413035 0.0070337914 0.059287623 -0.20830664 0.0030482197 0.00045538662 -0.17888038 -0.25488874

l2.bias f4 [10]
00000000: dfd5 9f3d ad6f 843e 63e4 e23d a940 903e
00000010: 29c1 0c3d 3786 193e 70ad bf3d 6ffb 143e
00000020: bf05 983b 9264 403e
0.078044645 0.25866452 0.110787176 0.28174332 0.0343639 0.14992605 0.093592525 0.1454904
0.004639357 0.18788365

bn1.weight f4 [32]
00000000: a130 7f3f 9461 8e3f 8932 0c3f 07b0 6a3f
00000010: 0fed 8d3f 4676 9e3f 6c27 b43f cbb5 8d3f
00000020: 6aa8 943f 0792 8d3f ed30 863f 3c42 913f
00000030: 66f0 773f 381a d53e ce33 5d3f 0d4c 803f
00000040: 261d 953f 6ecd 623f 2d74 6c3f 7d3c b03f
00000050: f655 663f b9f3 bc3f 0e96 783f 14df 4a3f
00000060: c48c 683f abc3 a73f f64d 823f 38f3 eb3e
00000070: e77e 743f dc37 7a3e 72bc 703f 51ba e33e
0.99683577 1.1123528 0.5476461 0.91674846 1.108797 1.2379844 1.4074531 1.1071104
1.1613896 1.1060189 1.0483681 1.1348338 0.96851194 0.41621566 0.8640717 1.0023209
1.164952 0.8859471 0.9236477 1.376846 0.89974916 1.4761878 0.97103965 0.7924664
0.9083979 1.3106588 1.0180042 0.46084 0.9550614 0.24435371 0.94037545 0.44478086

bn1.bias f4 [32]
00000000: 0aad d6bd 9bd9 a0bd 3f7a 17bf 19f4 efbe
00000010: 1748 7abe b485 30be 5025 253d 196c 72be
00000020: 0c8b 3bbe 4586 c03d 2a8f 72be a4dc fa3c
00000030: 1fb5 813d e171 08bf 3712 71be 21eb 16be
00000040: ec73 43be 2ad5 c7be 9ac1 3ebd 123a 56be
00000050: 2392 10be 419a 13bd e7f4 6cbe 1690 79be
00000060: 62a7 16bf dc56 fdbd c2a6 58bd fb88 14bf
00000070: 354e 18be 607a 14bf 6ab5 01bf 9ba1 34bf
-0.10482223 -0.07854005 -0.5917091 -0.4686592 -0.24441563 -0.17238504 0.040318787 -0.23674048
-0.18314761 0.0940061 -0.23687425 0.030622788 0.06333374 -0.53298765 -0.23542105 -0.14738132
-0.1908719 -0.3902982 -0.04657135 -0.2092059 -0.14118247 -0.03603578 -0.23140298 -0.2437137
-0.58849156 -0.12370083 -0.052893408 -0.58021516 -0.14873584 -0.5799923 -0.5066744 -0.7055909

bn1.running_mean f4 [32]
00000000: 1e8d 393f 872b 7b3b e114 87bd 2c02 0cbd
00000010: 5c67 c33e 4abf cb3e e59d b23e 295b ec3e
00000020: 8f24 ba3d 2ffb 0d3e b413 99be 2649 6f3e
00000030: a673 cd3e 72cc 1ebf dbe4 073f 5324 dd3e
00000040: 7c97 2e3f 1776 40be a896 413d 58b7 3b3e
00000050: 0b3b 9d3e 0c47 a33e 7d95 3b3e 00ac dd3e
00000060: a520 84be 4364 6a3e 6e82 a93e e1a2 54bf
00000070: 123f 0b3f 67dc 96bf ec4b 25be 18b3 a8bd
0.7248095 0.0038325505 -0.06595779 -0.03418176 0.38164794 0.3979438 0.3488609 0.461633
0.09089004 0.1386535 -0.29897845 0.23367748 0.40127295 -0.6203071 0.5308358 0.43191776
0.68199897 -0.18795048 0.047262818 0.18331659 0.3070911 0.31890142 0.18318744 0.43295288
-0.25806156 0.2288981 0.33107322 -0.83061033 0.5439311 -1.1786011 -0.16142243 -0.082372844

bn1.running_var f4 [32]
00000000: 7368 423e 5521 323e 148f 2b3d ef37 0f3e
00000010: e844 403e 3ca4 d03d 6efe b43d 3cc1 253e
00000020: c05d 1f3e f9ef 733d 613b ad3d 43bc 9c3d
00000030: e594 c23d 68f6 1a3e 2f2d fd3d 5c1b 933e
00000040: a783 b93d e040 e93d 32ee b03d 3182 393e
00000050: 8fe4 193e 589e fc3d 3715 073e f0f7 053e
00000060: 3129 083d 681d 3c3d 56ed 8b3e 3e60 a73e
00000070: 2e92 3d3e 78c8 013f f387 773d caa1 813d
0.18985157 0.17395528 0.041884497 0.1398618 0.18776286 0.10187575 0.08837591 0.16186994
0.15563107 0.059555028 0.08458591 0.076530956 0.09501056 0.15133059 0.12362134 0.2873181
0.09058314 0.11389327 0.08639182 0.1811607 0.15028594 0.12334889 0.13191687 0.13082862
0.03324241 0.04592648 0.2732951 0.32690614 0.18512794 0.50696516 0.060432386 0.06329687

bn2.weight f4 [64]
00000000: f490 833f 63f6 813f 722e 9c3f 3831 803f
00000010: 82b7 963f 3aaf 7d3f 2fc2 8e3f f7ea 7c3f
00000020: be86 873f e20c 823f 12ef 883f acfa 863f
00000030: 6270 9a3f 72b1 873f c462 893f 2604 763f
00000040: 42ec 883f 1946 8b3f ba25 8a3f 498d 7a3f
00000050: b8c5 8e3f 499b 7d3f 9e19 783f 2f7e 9d3f
00000060: f876 913f 53fa 8a3f c2ff 823f 9c89 8e3f
00000070: cd40 873f 3764 673f ab7c 8e3f 6bfd 9d3f
00000080: 09c6 803f 58b1 7e3f ac34 633f ee3b 8f3f
00000090: 2b4b 7a3f c5bf 843f c8ba 843f d6e2 5b3f
000000a0: 97f4 833f 4eaa 8d3f be84 7f3f 540c 873f
000000b0: fe3a 893f 46c9 7b3f 45fc 863f 979e 5e3f
000000c0: 236b 883f 8e32 9e3f 1148 533f 70f2 673f
000000d0: 0102 883f 943b 863f cbdd 873f d49f 783f
000000e0: dc91 6f3f f5ae 7d3f 6e9e 773f fdff 823f
000000f0: 707a 6d3f 2eb8 633f c1f8 823f 989a 883f
1.0278611 1.0153316 1.2201674 1.001502 1.1774752 0.990955 1.115301 0.9879603
1.0587995 1.0160182 1.0697958 1.0545249 1.2065547 1.0601027 1.0733266 0.9610008
1.06971 1.0880767 1.0792763 0.97871834 1.1154089 0.9906507 0.9691409 1.2304133
1.1364431 1.0857643 1.0234301 1.1135745 1.0566651 0.9038729 1.1131796 1.2342962
1.0060436 0.99489355 0.88752246 1.1190164 0.9777095 1.0371023 1.0369501 0.85893
1.0309018 1.1067598 0.99811924 1.0550637 1.0721128 0.98353994 1.0545737 0.8696074
1.0657696 1.2359178 0.8253184 0.90604305 1.0625612 1.0486932 1.0614561 0.9711888
0.9358194 0.9909509 0.9672612 1.0234371 0.9276495 0.8895291 1.0232164 1.0672178

bn2.bias f4 [64]
00000000: 4211 dabe dbd7 e5be 93b7 c1be cfba 1ebf
00000010: 1ce4 f4be e50c bebe 2be6 d0be 588c c2be
00000020: f337 d1be c48b 9dbe 13cd e2be 6f91 febe
00000030: e175 dfbe 05b9 0abf 2fba fcbe 6c02 b1be
00000040: 40c5 f4be 2c1a ebbe 694b ecbe 85d6 ebbe
00000050: 5b27 8dbe e723 b1be 62d1 f1be 5f85 d8be
00000060: 439a a9be 4c82 d4be 8f14 c1be bd0a bcbe
00000070: 92b7 45bf 4c6b 09bf fbe9 8ebe 5a7b ebbe
00000080: a1e6 dcbe 9d46 c6be a686 04bf 6210 b5be
00000090: 0448 9dbe 11d8 d9be 111d f1be a0e6 c6be
000000a0: 804d 0bbf 71a7 d4be ef99 cabe 7770 cbbe
000000b0: cd4d adbe 3c61 93be 39f0 87be 751c e6be
000000c0: 8033 c5be 1879 d6be 11d2 f9be d3db ecbe
000000d0: 12a1 01bf 81ba 35bf 4153 f1be 00de fabe
000000e0: 2e7f 02bf d6e3 c3be 518d 99be 2781 ebbe
000000f0: 1775 d9be 7c41 0bbf 95f0 91be 5d77 a1be
-0.42591292 -0.44891247 -0.3783537 -0.620038 -0.47830284 -0.37119213 -0.40800604 -0.379977
-0.40862998 -0.30770695 -0.44297084 -0.49720332 -0.43644622 -0.5418857 -0.49360797 -0.3457216
-0.4780674 -0.45918405 -0.46151283 -0.46062103 -0.27569088 -0.34597704 -0.4723006 -0.42289254
-0.33125505 -0.4150566 -0.37710997 -0.36726943 -0.7723323 -0.5367935 -0.27912888 -0.45992547
-0.43144706 -0.3872575 -0.5176796 -0.35364062 -0.30719006 -0.42547658 -0.47092488 -0.38847828
-0.5441513 -0.41533998 -0.39570567 -0.3973424 -0.3384842 -0.2878512 -0.26550463 -0.44943586
-0.38515854 -0.41889262 -0.4879308 -0.46261463 -0.506364 -0.7098771 -0.4713383 -0.48997498
-0.5097531 -0.38259763 -0.29990628 -0.45996973 -0.42472145 -0.54396796 -0.28503862 -0.3153638

bn2.running_mean f4 [64]
00000000: b216 8cbf d7db 073f 38d3 b2be 123c bdbe
00000010: c091 1a3f f13a bbbf e130 e23f bcc7 b9bd
00000020: 26ef d03f 19c2 82bf 30d2 76bf 3c1b a5bf
00000030: 64f7 d63e eed0 e2bf 041f c3be 926b b2bf
00000040: ad85 133f 6900 0040 7cab 0e40 cf31 82bf
00000050: 4c3d 863f 94e7 ce3e 7b21 d23f 34e8 113d
00000060: f821 0240 0603 903f 318e bbbf 3c87 b33e
00000070: 7abf 05c0 bacf 75c0 1f4a 76c0 6e5e 6a3f
00000080: 1885 07bf c480 f53e 03db 28c0 3445 af3e
00000090: f83c 87be 1df3 873f 8bf3 09bf f610 87be
000000a0: 08e6 2dc0 199c 97bf 03f8 0cbf aa69 4d3e
000000b0: 2d58 dabf 8ad4 713e a163 b6bf cc0f 033f
000000c0: 20d1 2abf d7b1 7e3f e8d6 e5bf acb2 1ebf
000000d0: 6276 3dc0 d0af bcbf 5a1a 113f 0574 0abf
000000e0: 35a7 21c0 bd5b 2f3e b4c1 d0bf 912c edbf
000000f0: 2649 42c0 c821 10c0 fe44 51bf b840 6c3f
-1.0944426 0.53069824 -0.34926772 -0.36959893 0.60378647 -1.4627362 1.7671167 -0.090712994
1.6322982 -1.0215484 -0.9641447 -1.2898936 0.4198562 -1.772001 -0.381096 -1.3939078
0.5762585 2.000025 2.2292166 -1.017145 1.0487456 0.40411055 1.6416467 0.035621837
2.0333233 1.1250923 -1.4652768 0.35064113 -2.0898118 -3.8408036 -3.848274 0.9155034
-0.5293746 0.47949803 -2.6383674 0.34232485 -0.26413703 1.0621067 -0.5388724 -0.26380128
-2.717165 -1.1844512 -0.55065936 0.20059839 -1.7058159 0.23616233 -1.4249154 0.5119598
-0.6672535 0.9949011 -1.7956209 -0.6199138 -2.9603505 -1.4741154 0.56680834 -0.5408328
-2.5258305 0.17124839 -1.6309114 -1.8529226 -3.0357146 -2.2520618 -0.817459 0.9228625

bn2.running_var f4 [64]
00000000: 6d71 ab40 c70d 9640 9b4c ac40 fd1f 5e40
00000010: 3447 a440 9ec0 ea40 3c33 c440 6169 ec40
00000020: ad37 8140 94fd d040 a97d de40 9b04 b040
00000030: dc6b c940 5ad1 8c40 a52f b440 9c3b 0041
00000040: 81e9 c240 fcb8 ae40 8e31 8540 ffdb b040
00000050: e36b 9d40 3cb8 c840 236c 0041 e016 9840
00000060: 0f19 ed40 beff a640 3f5c 0941 2d51 9240
00000070: d123 6340 186d a240 a46a ff40 f432 b840
00000080: d1f4 bc40 97dc 0041 7ab4 e940 8e5a 8840
00000090: 725d c240 9ce5 b140 85b5 fb40 549a 9840
000000a0: 5d6a a240 9843 fc40 107f af40 c0a3 9840
000000b0: f8ee 8040 2720 2641 2baa c340 a2ca bf40
000000c0: 6e34 bf40 27b6 7440 daf7 2a41 7c67 c340
000000d0: 41ae 0241 ec4b 6840 66fc 8740 7643 e440
000000e0: 425a 9e40 197c a940 8232 bb40 4a59 ed40
000000f0: 0641 0541 8889 bb40 3a2f bd40 22e1 e940
5.357596 4.689182 5.3843513 3.4707024 5.133692 7.336013 6.131254 7.3878636
4.0380464 6.5309544 6.9528394 5.500562 6.2944164 4.4005556 5.630816 8.014553
6.091004 5.460081 4.162299 5.526855 4.91942 6.2724895 8.026401 4.7527924
7.409309 5.2187185 8.585021 4.572409 3.549061 5.075817 7.9817677 5.75622
5.904885 8.053855 7.303281 4.261054 6.073907 5.5592785 7.865908 4.768839
5.075484 7.883251 5.4842606 4.769989 4.029171 10.38285 6.1145225 5.9934855
5.97515 3.8236177 10.685511 6.1063824 8.167542 3.629634 4.2495604 7.133235
4.948518 5.2963986 5.8499155 7.4171495 8.328375 5.8605385 5.912015 7.308732

features.0.weight f4 [32, 1, 3, 3]
00000000: 0272 0b3e d310 70be 6c9e 753e 597f e93d
00000010: a1e8 95bd 67b2 683e 22ec a1be fb71 5bbe
00000020: aedb eebe e4b4 8cbe b112 c3bd 737f 6f3e
00000030: 3b40 73be d4d1 0fbe 1c99 183e e6c9 7ebd
00000040: 2a49 52be 9e5b ae3e aeab 863e 3c9e e73d
00000050: ccca ecbd 8a31 23be 41d5 dabd 1908 6b3e
00000060: e998 82be b58f 673d 8748 f63d 7b70 543e
00000070: 18dc 6d3e 4ae7 8e3d 6b31 35be f636 363e
00000080: e860 563e 3979 d0be 778b adbe 7a57 863d
00000090: 7b7d f63d 0058 e43d 39bc ca3d af25 44be
000000a0: e406 883e 3ce2 91be e39f 97be ef99 91be
000000b0: a62b 07be 2e60 16bd 204e 373d e58b b83e
000000c0: 1f08 a2bd 8601 87be 0be0 cc3c 9eb8 32be
000000d0: d34d 1e3c a8fa 85be 82f4 48be 8b2e ba3b
000000e0: 3ac8 5d3e 4f16 1fbe cf04 81be 9c3b 97be
000000f0: c9d3 473e 168e 3c3e 7d4e fdbd a337 4bbe
00000100: bc0f 54be 551d 90bd db2d e0bd 6cb9 5bbd
00000110: 6226 bf3e 848b 32be 07b3 41be 0c51 ea3d
00000120: 270e 85be 30bd 87be 1bae 9cbe ca28 a9bd
00000130: 2beb bc3d 73e5 6f3e 9990 a0bd 2e76 1f3e
00000140: d68e 673d 9fa0 a6be 672c 27bd 25f7 3b3e
00000150: 7cb8 0dbe f183 c13e 8224 36be c059 cfbd
00000160: d87f 2e3e 488f 9ebe dd3c f13d 3b5d bebd
00000170: 7020 a9be b3b6 593e c39f 65bc 6116 1ebe
00000180: 2dbf fc3d 187d 343e f738 ed3c 7551 4cbd
00000190: 19c9 983d c390 d7bd 6a4a 183d e4a9 6c3e
000001a0: 3798 8bbe 4ea3 3e3d 842f a13e f657 d3be
000001b0: b30c 8abe 84ec 2cbe 5142 63be 939c cfbd
000001c0: 1e68 21bd cc00 a13e f9e2 d43e f912 be3d
000001d0: d729 65be 78a6 ab3c 4050 cb3d f58c 233e
000001e0: 7197 e43e 0191 81bb b342 b53d c397 dbbd
000001f0: ef07 153e ea23 c6be 2ae8 243e f6fb 193c
00000200: bb4f 8ebe 2a49 413d cae5 4bbe c2e0 e93d
00000210: 0575 303e 1d70 aebe 8c4a 0cbe 2066 9d3e
00000220: a5f4 f5bc a7ae 3e3e 8c44 863e 4b3b 943d
00000230: 30ec e8bd d0dd a0be f267 b8be 1a16 dabe
00000240: 0805 0bbe 8190 913d 050e f8bc ea39 75be
00000250: d5ad 01bc 2c2d 9d3e 6db2 df3d 42f8 97be
00000260: 8c93 80be 85a6 9f3b 2c2b 903e 7246 063e
00000270: 962c a63e e7e3 a73c f0e9 463d c820 78be
00000280: 837d b8be 1129 6bbd b03b ddbe 3d86 aebd
00000290: d4b0 8abe f242 233d b0c9 9f3e 3796 a53e
000002a0: aba5 023c dd1d 553e cadf c1be e420 a33e
000002b0: bc9a 7c3e 29db b2be 424e 20be 30b0 32be
000002c0: 7d3a 25be 9c37 d2bd c598 4abe 93b8 4f3d
000002d0: 3055 5abe b88e 95bc 395f 16be cf7b 0b3e
000002e0: b93f a2be 8b8f 6fbe 11ee 86be 2ca5 803e
000002f0: d9ab 803e fd99 803e 35e4 393e af25 28bd
00000300: 6f60 42be b178 c5be c801 84be d0d2 31be
00000310: 5e9c c8bc bd7c 8c3e 36d1 e1be a465 8ebd
00000320: b2dd 6f3e 38ab 1fbe 2384 a13d 8676 573e
00000330: 56bf 7a3d 3b1f 023d ce42 a53d 3946 d7be
00000340: af78 84bd 2b4b 803b 07c4 d7bd db71 0f3e
00000350: a6c1 86bb 321c 29be aa16 f2bc 3608 3c3e
00000360: 880d 9f3d 00b9 47be 1af2 86be 7853 683e
00000370: 6195 1d3e e168 903d 3281 48be 35b3 c23d
00000380: 1591 eb3d 19ba 353d 9397 863d 942f 42be
00000390: 6851 473e d2ee cdbe 859f 2a3e 16f6 a6be
000003a0: 122b 2c3e 1f82 5a3c 7009 c7bd 0950 f1bd
000003b0: 3cb6 913e dbdd b9be a468 7abd 05aa cc3d
000003c0: 89fa 8ebe 99b0 21be 3600 50bd 6a63 683b
000003d0: 670c 073e fee4 e13e 3842 83be 4526 0f3e
000003e0: b80f a63c af6d ad3e 3c9d 723e 4ad2 8cbd
000003f0: 1d10 693c 44e9 1ebd 4d0a 9b3e 1834 883c
0.1361771 -0.23443918 0.23986214 0.11401243 -0.07319761 0.22724305 -0.31625468 -0.21430199
-0.46651977 -0.2748176 -0.095250495 0.23388462 -0.2375497 -0.14044887 0.14902157 -0.062204264
-0.20535722 0.34054273 0.26302856 0.11309478 -0.11562118 -0.15936866 -0.10685206 0.22952308
-0.25507286 0.056533534 0.12025552 0.20746033 0.2322849 0.06977709 -0.17694633 0.17794403
0.20935404 -0.40717486 -0.33895466 0.065596536 0.12035652 0.11149597 0.09899182 -0.19155
0.26567757 -0.28492916 -0.2961417 -0.28437755 -0.13200244 -0.036712818 0.04475224 0.3604423
-0.07911705 -0.2636835 0.025009176 -0.17453238 0.009662109 -0.26167798 -0.19624522 0.005681818
0.21658412 -0.15535854 -0.2519898 -0.29537666 0.19514383 0.18413576 -0.12368486 -0.19845442
-0.20709127 -0.07036845 -0.10946246 -0.05364363 0.3733397 -0.17436033 -0.1891595 0.1144124
-0.2598736 -0.26511526 -0.30601582 -0.08259733 0.09224542 0.23427372 -0.0784008 0.15572426
0.056532703 -0.3254442 -0.04081383 0.18355997 -0.13839906 0.37795976 -0.17787364 -0.1012454
0.17040956 -0.3096869 0.11779187 -0.09295126 -0.3303256 0.212611 -0.014015141 -0.15438224
0.123411514 0.17625844 0.028957827 -0.04988237 0.07460231 -0.10525658 0.03718034 0.23111683
-0.27264568 0.04654246 0.31481564 -0.41278046 -0.26962814 -0.16887099 -0.22193266 -0.10137286
-0.039405935 0.3144592 0.41579416 0.092809625 -0.22379242 0.020953402 0.09927416 0.1597174
0.4464679 -0.0039540534 0.088506125 -0.107223056 0.14553808 -0.38699275 0.16104189 0.009398451
-0.27795205 0.047188915 -0.19911876 0.11419822 0.1723214 -0.3406991 -0.13700312 0.30741978
-0.030023882 0.18621312 0.26224172 0.07237872 -0.11373174 -0.3141923 -0.36016804 -0.42594987
-0.13576138 0.0710764 -0.030280123 -0.23947874 -0.00791498 0.30698526 0.10922704 -0.29681593
-0.2511257 0.0048721456 0.28157938 0.1311281 0.3245589 0.020494414 0.048562944 -0.24231255
-0.36033258 -0.05741221 -0.432096 -0.08521698 -0.27088034 0.039858766 0.31208563 0.32341167
0.007974069 0.20812173 -0.3786605 0.3186103 0.24668401 -0.3493283 -0.15654853 -0.17450023
-0.16135593 -0.10264513 -0.1978484 0.050713133 -0.21321559 -0.01825653 -0.14684762 0.13621448
-0.31689242 -0.23394601 -0.26353505 0.25126016 0.2513111 0.25117484 0.1815346 -0.041051563
-0.18982099 -0.38568643 -0.2578261 -0.17365575 -0.024488624 0.27438918 -0.44104928 -0.0695298
0.23424414 -0.15592659 0.07886531 0.21041307 0.06121763 0.031768065 0.080693826 -0.42045763
-0.06468331 0.0039152107 -0.10535436 0.14008276 -0.00411244 -0.16514662 -0.029551823 0.18362507
0.07766253 -0.19504166 -0.26356584 0.22688091 0.15389015 0.07051254 -0.19580534 0.09506837
0.115022816 0.04436693 0.06571879 -0.18963462 0.19464648 -0.40221268 0.16662414 -0.32609624
0.16813305 0.013336687 -0.09718597 -0.117828436 0.28459346 -0.36302075 -0.06113495 0.09993366
-0.27925518 -0.15790023 -0.05078145 0.0035459646 0.13188325 0.4412002 -0.25636458 0.13979442
0.020271167 0.33872744 0.23692793 -0.06876047 0.014225033 -0.03879668 0.30281296 0.016626403

features.0.bias f4 [32]
00000000: dfd3 a63e edb9 47be 81d0 193d 9fb7 7dbb
00000010: 6bb8 33bd e726 093e e6ce 433d 6fbe d13d
00000020: f8c7 69be 74ac bebd 2caa 89be ea10 0e3e
00000030: f5f0 883e 7a54 97be 4da6 573e 4546 143e
00000040: 1645 ab3e 4e47 a6bd c00d 0abe d0f7 43be
00000050: 2dbc a9bd 633a 723d 7141 563e ddd0 f83d
00000060: 4d90 5bbe 5000 1a3d 1110 4dbe e647 16be
00000070: a6b4 e73d f876 5fbe 324c 03be 69f1 1f3e
0.3258352 -0.19504519 0.03755236 -0.0038714183 -0.043877047 0.13393746 0.047804736 0.102414005
-0.22830188 -0.093102366 -0.26887643 0.1387364 0.26746336 -0.29556638 0.21059532 0.1447993
0.33451146 -0.08119069 -0.13481808 -0.19137502 -0.08287845 0.059137713 0.20923401 0.121492125
-0.21441765 0.037597954 -0.2002566 -0.14675865 0.11313753 -0.21822727 -0.12822035 0.15619434

features.1.weight f4 [32]
00000000: a130 7f3f 9461 8e3f 8932 0c3f 07b0 6a3f
00000010: 0fed 8d3f 4676 9e3f 6c27 b43f cbb5 8d3f
00000020: 6aa8 943f 0792 8d3f ed30 863f 3c42 913f
00000030: 66f0 773f 381a d53e ce33 5d3f 0d4c 803f
00000040: 261d 953f 6ecd 623f 2d74 6c3f 7d3c b03f
00000050: f655 663f b9f3 bc3f 0e96 783f 14df 4a3f
00000060: c48c 683f abc3 a73f f64d 823f 38f3 eb3e
00000070: e77e 743f dc37 7a3e 72bc 703f 51ba e33e
0.99683577 1.1123528 0.5476461 0.91674846 1.108797 1.2379844 1.4074531 1.1071104
1.1613896 1.1060189 1.0483681 1.1348338 0.96851194 0.41621566 0.8640717 1.0023209
1.164952 0.8859471 0.9236477 1.376846 0.89974916 1.4761878 0.97103965 0.7924664
0.9083979 1.3106588 1.0180042 0.46084 0.9550614 0.24435371 0.94037545 0.44478086

features.1.bias f4 [32]
00000000: 0aad d6bd 9bd9 a0bd 3f7a 17bf 19f4 efbe
00000010: 1748 7abe b485 30be 5025 253d 196c 72be
00000020: 0c8b 3bbe 4586 c03d 2a8f 72be a4dc fa3c
00000030: 1fb5 813d e171 08bf 3712 71be 21eb 16be
00000040: ec73 43be 2ad5 c7be 9ac1 3ebd 123a 56be
00000050: 2392 10be 419a 13bd e7f4 6cbe 1690 79be
00000060: 62a7 16bf dc56 fdbd c2a6 58bd fb88 14bf
00000070: 354e 18be 607a 14bf 6ab5 01bf 9ba1 34bf
-0.10482223 -0.07854005 -0.5917091 -0.4686592 -0.24441563 -0.17238504 0.040318787 -0.23674048
-0.18314761 0.0940061 -0.23687425 0.030622788 0.06333374 -0.53298765 -0.23542105 -0.14738132
-0.1908719 -0.3902982 -0.04657135 -0.2092059 -0.14118247 -0.03603578 -0.23140298 -0.2437137
-0.58849156 -0.12370083 -0.052893408 -0.58021516 -0.14873584 -0.5799923 -0.5066744 -0.7055909

features.1.running_mean f4 [32]
00000000: 1e8d 393f 872b 7b3b e114 87bd 2c02 0cbd
00000010: 5c67 c33e 4abf cb3e e59d b23e 295b ec3e
00000020: 8f24 ba3d 2ffb 0d3e b413 99be 2649 6f3e
00000030: a673 cd3e 72cc 1ebf dbe4 073f 5324 dd3e
00000040: 7c97 2e3f 1776 40be a896 413d 58b7 3b3e
00000050: 0b3b 9d3e 0c47 a33e 7d95 3b3e 00ac dd3e
00000060: a520 84be 4364 6a3e 6e82 a93e e1a2 54bf
00000070: 123f 0b3f 67dc 96bf ec4b 25be 18b3 a8bd
0.7248095 0.0038325505 -0.06595779 -0.03418176 0.38164794 0.3979438 0.3488609 0.461633
0.09089004 0.1386535 -0.29897845 0.23367748 0.40127295 -0.6203071 0.5308358 0.43191776
0.68199897 -0.18795048 0.047262818 0.18331659 0.3070911 0.31890142 0.18318744 0.43295288
-0.25806156 0.2288981 0.33107322 -0.83061033 0.5439311 -1.1786011 -0.16142243 -0.082372844

features.1.running_var f4 [32]
00000000: 7368 423e 5521 323e 148f 2b3d ef37 0f3e
00000010: e844 403e 3ca4 d03d 6efe b43d 3cc1 253e
00000020: c05d 1f3e f9ef 733d 613b ad3d 43bc 9c3d
00000030: e594 c23d 68f6 1a3e 2f2d fd3d 5c1b 933e
00000040: a783 b93d e040 e93d 32ee b03d 3182 393e
00000050: 8fe4 193e 589e fc3d 3715 073e f0f7 053e
00000060: 3129 083d 681d 3c3d 56ed 8b3e 3e60 a73e
00000070: 2e92 3d3e 78c8 013f f387 773d caa1 813d
0.18985157 0.17395528 0.041884497 0.1398618 0.18776286 0.10187575 0.08837591 0.16186994
0.15563107 0.059555028 0.08458591 0.076530956 0.09501056 0.15133059 0.12362134 0.2873181
0.09058314 0.11389327 0.08639182 0.1811607 0.15028594 0.12334889 0.13191687 0.13082862
0.03324241 0.04592648 0.2732951 0.32690614 0.18512794 0.50696516 0.060432386 0.06329687
