apps/classify/mnist/params/CNN_Model_37.pth (torch, 909267 bytes, 32 tensors)

conv1.weight f4 [32, 1, 3, 3]
0	0x3e81f9b7	0.2538583
1	0x3ea29390	0.31753206
2	0x3e0b8599	0.13625182
3	0xbda02c70	-0.07820976
4	0x3e16daad	0.14731856
5	0x3e416fdc	0.18890327
6	0x3ea6c6fd	0.3257369
7	0x3e8cc5f7	0.27494785
8	0x3df0f60d	0.117656805
9	0x3d147f9f	0.03625452
10	0xbe24ed7a	-0.16106215
11	0x3dea8493	0.11451068
12	0xbcf68b72	-0.03009579
13	0xbea32923	-0.31867322
14	0xbe0a5292	-0.1350806
15	0x3e8ea141	0.27857402
16	0x3df90a31	0.12160147
17	0x3d9d81e5	0.07690791
18	0xbea66d06	-0.32505053
19	0x3e165510	0.14680886
20	0x3d200cd7	0.039074745
21	0x3e7ef7f9	0.24899282
22	0xbee6b25e	-0.45057958
23	0xbd14e017	-0.03634652
24	0xbd057135	-0.032578666
25	0x3e6cc9d6	0.2312387
26	0xbe57e3ae	-0.21082947
27	0xbeac9a7a	-0.33711606
28	0x3dc99800	0.09843445
29	0x3e8e63ba	0.2781046
30	0x3e835ae0	0.2565527
31	0x3dd60989	0.104510374
32	0xbe16ef0d	-0.14739628
33	0x3df3cd7d	0.11904428
34	0xbe8a05e2	-0.26957613
35	0xbd08a66d	-0.03336184
36	0xbe03dad0	-0.12876439
37	0xbe51371e	-0.20431182
38	0x3eabd401	0.33560184
39	0xbe9c41fd	-0.30519095
40	0x3db86b61	0.09004856
41	0x3e2375f3	0.15962963
42	0xbc360ee5	-0.01111195
43	0x3d686429	0.056736145
44	0x3cde5b3b	0.027143111
45	0xbc1d3467	-0.009595013
46	0xbd42725b	-0.04747234
47	0x3e38bf34	0.18041688
48	0x3e461034	0.19342119
49	0x3e9a3de7	0.30125353
50	0xbe7c98a2	-0.246676
51	0xbe89f727	-0.26946375
52	0x3e83b80d	0.25726357
53	0x3c6296c9	0.013829895
54	0x3e796c46	0.2435771
55	0x3dc55635	0.09635583
56	0x3ddbabec	0.10726151
57	0xbe9d3703	-0.30706033
58	0x3e66e3a2	0.22547773
59	0xbe571358	-0.21003473
60	0xbddb5c4a	-0.10710962
61	0xbeed0ca1	-0.46298698
62	0xbe678e40	-0.22612858
63	0xbe460fc4	-0.19341952
64	0x3e7617a4	0.24032456
65	0xbdc25287	-0.09488397
66	0x3e16b670	0.14718032
67	0x3e418d45	0.18901546
68	0xbe9ff9d5	-0.31245294
69	0x3db36f1b	0.08761426
70	0x3e1d0110	0.15332437
71	0xbebdd499	-0.37076262
72	0xbe24a342	-0.16077903
73	0xbd80e005	-0.06292728
74	0x3e9b72cb	0.30361018
75	0xbeb68c54	-0.35653937
76	0x3e1a98c6	0.15097341
77	0x3e58f6f9	0.21187963
78	0xbeba1d7d	-0.36350623
79	0xbec08304	-0.37599957
80	0xbd6428ad	-0.055702854
81	0xbd90ff6e	-0.07079969
82	0xbe55bc90	-0.20872712
83	0x3e8314e1	0.25601867
84	0xbe650262	-0.2236419
85	0x3e89a6f6	0.26885194
86	0xbc3b1ec4	-0.011420909
87	0x3e5ff4bc	0.21870703
88	0x3d4e02d7	0.050295677
89	0xbe900462	-0.28128344
90	0xbe899acd	-0.26875916
91	0xbe9c7c46	-0.30563563
92	0xbe9061ae	-0.28199524
93	0xbe8fa1d2	-0.28053147
94	0x3dc52b41	0.09627391
95	0x3d8bdb86	0.0682898
96	0x3e336b04	0.17521292
97	0x3e350d6d	0.17680903
98	0x3e04adf4	0.12956983
99	0x3de9ca48	0.11415535
100	0x3e8713c5	0.2638227
101	0x3c522a48	0.012827463
102	0x3daf5a2a	0.08562119
103	0xbe4b000b	-0.19824235
104	0xbe76c19a	-0.2409729
105	0xbebea3d3	-0.37234363
106	0xbe88103b	-0.26574883
107	0x3de66ea7	0.11251574
108	0x3e817f85	0.25292602
109	0xbea83b32	-0.32857662
110	0xbdb0f08e	-0.08639632
111	0x3d68f569	0.056874666
112	0xbe9182a1	-0.28419974
113	0x3e9e9fbb	0.3098124
114	0xbcf6eea1	-0.030143084
115	0xbe3938b6	-0.1808804
116	0xbd7f8e4f	-0.062391575
117	0xbd5d410c	-0.05401711
118	0x3d1ed6b8	0.03877899
119	0xbc849007	-0.016181959
120	0x3e51cc2c	0.20488042
121	0x3e364a17	0.178017
122	0xbceecba8	-0.029149845
123	0xbe87cc4c	-0.26523054
124	0xbe47aa4d	-0.19498558
125	0xbe8830ea	-0.26599818
126	0xbd4ca260	-0.04995954
127	0x3e00ac9e	0.12565848
128	0x3e4a0b75	0.19730933
129	0xbe86a788	-0.2629969
130	0xbe96094d	-0.2930397
131	0xbdd534cd	-0.104104616
132	0x3e3a26ab	0.18178813
133	0x3d5e1833	0.054222297
134	0xbdaeb3e7	-0.085304074
135	0x3d97c1df	0.07410025
136	0x3d9d7e09	0.07690055
137	0x3df23137	0.11825793
138	0xbdba33cd	-0.090919115
139	0x3e3d4125	0.18481882
140	0xbecc519a	-0.39906007
141	0xbe0135c2	-0.12618163
142	0x3e2f9543	0.17146783
143	0x3d8f104d	0.06985531
144	0x3e5f2faa	0.21795526
145	0xbd1d2a06	-0.038370155
146	0x3e66f3d1	0.22553946
147	0x3e0dde73	0.13854389
148	0xbc3ebe05	-0.011641984
149	0xbe9a4261	-0.30128768
150	0xbeaaf2e8	-0.33388448
151	0xbecec76d	-0.40386525
152	0xbb7c6175	-0.0038510237
153	0x3e3f6521	0.18690921
154	0x3e216b0d	0.15763493
155	0x3d04a020	0.03237927
156	0xbdf60caf	-0.12014138
157	0x3e861f2b	0.26195654
158	0x3e93d74d	0.288752
159	0xbe96dac2	-0.29463774
160	0xbebb1aa6	-0.3654377
161	0x3d27ef38	0.04099962
162	0x3e86d7e7	0.26336595
163	0xbea79fe3	-0.3273917
164	0xbe2416c7	-0.16024314
165	0xbca84d1c	-0.020544581
166	0x3ecaac8d	0.3958477
167	0x3e35b770	0.17745757
168	0xbce136de	-0.027491983
169	0xbe669d2a	-0.22520891
170	0x3d98afef	0.07455432
171	0x3da743da	0.081672385
172	0xbe8fea42	-0.28108412
173	0xbec063a9	-0.37576035
174	0x3d94d111	0.07266439
175	0x3dd7d3ba	0.105384305
176	0x3e8d5010	0.27600145
177	0x3e0bf49c	0.1366753
178	0x3e333d9e	0.17503974
179	0xbdde82a0	-0.108647585
180	0x3def52ed	0.11685739
181	0x3dcb20cb	0.09918364
182	0xbe2a7583	-0.1664639
183	0xbdfcfb1b	-0.12352582
184	0xbeb28561	-0.34867385
185	0xbe48d580	-0.19612694
186	0xbead4ce3	-0.33847722
187	0x3cb2d6e9	0.021830993
188	0x3ea1bcd2	0.3158937
189	0xbe871c94	-0.2638899
190	0x3e982004	0.29711926
191	0xbd32692f	-0.043557342
192	0xbe3b00f5	-0.18262084
193	0xbe8d0400	-0.27542114
194	0xbe3fcb4e	-0.18729898
195	0x3c81f32d	0.015863026
196	0x3bd7e51d	0.0065885917
197	0xbce04e3b	-0.027381053
198	0xbe8b9626	-0.27262992
199	0xbe90465c	-0.2817868
200	0xbda0bb91	-0.078482755
201	0xbe81da4d	-0.25361863
202	0x3e7b8f10	0.24566293
203	0x3e424e5a	0.18975201
204	0xbee38b78	-0.44442344
205	0x3dccae5d	0.09994195
206	0x3d8a8eaf	0.06765496
207	0x3c21229e	0.009834914
208	0x3e28a0d0	0.16467595
209	0x3d105b32	0.03524322
210	0x3d63f0cf	0.055649575
211	0x3e4b847f	0.19874762
212	0xbe6aa0aa	-0.22912851
213	0xbec2cd60	-0.38047314
214	0xbdd5ddf8	-0.10442728
215	0x3e906788	0.28203988
216	0xbe3ab5e0	-0.18233442
217	0xbe3ca95e	-0.18423983
218	0xbedeb4a4	-0.43497193
219	0xbe307668	-0.17232668
220	0xbdcc1955	-0.09965769
221	0x3e528212	0.2055743
222	0xbd090d37	-0.03345987
223	0x3bac6e9b	0.0052622086
224	0x3e5f5f4b	0.21813695
225	0x3e266ab9	0.16251649
226	0x3e70d070	0.23517013
227	0xbe6364e3	-0.22206454
228	0xbe78c91c	-0.24295467
229	0xbe9ebaa5	-0.31001773
230	0xbe9e53c4	-0.30923283
231	0xbc02a2bf	-0.007973372
232	0x3c4d791e	0.012541084
233	0x3e750c46	0.23930463
234	0x3dc57d12	0.09642996
235	0x3edf1248	0.43568635
236	0x3d9f4a77	0.07777875
237	0x3e17cd18	0.14824331
238	0x3d23e4ce	0.040013127
239	0x3e88cb37	0.2671754
240	0x3dd2f28d	0.10300169
241	0x3e3889e2	0.18021348
242	0x3dc742d5	0.09729544
243	0x3ea7b31a	0.3275383
244	0x3d772b86	0.06034424
245	0xbd829f1d	-0.06378005
246	0xbe04455a	-0.1291708
247	0x3d242a86	0.040079616
248	0xbe1d75ab	-0.15376918
249	0x3e856e10	0.26060534
250	0x3dde14cb	0.1084381
251	0xbeeb9b62	-0.46016985
252	0xbe279795	-0.16366418
253	0x3e6d735f	0.23188542
254	0x3eaf2d32	0.3421417
255	0xbe9e4e7f	-0.30919263

conv1.bias f4 [32]
0	0x3d86786f	0.0656594
1	0xbda66830	-0.08125341
2	0xbe7d06a4	-0.24709564
3	0xbd134b9a	-0.03596077
4	0x3c4f89fa	0.0126671735
5	0xbe2d6636	-0.16933522
6	0x3d9616a7	0.07328539
7	0xbe6272b9	-0.22114076
8	0x3e430ccd	0.19047852
9	0xbe2b6940	-0.16739368
10	0x3e0f609e	0.140017
11	0x3e413b27	0.18870221
12	0xbd6e9fa7	-0.058257725
13	0x3d86b00e	0.065765485
14	0xbe50c423	-0.2038732
15	0x3e9973bd	0.29971114
16	0xbcf4ed0f	-0.029898195
17	0xbc7944a3	-0.015214118
18	0x3e65e2e2	0.2244983
19	0xbdad97aa	-0.08476193
20	0x3daf3eba	0.08556886
21	0xbd2c20df	-0.042023536
22	0x3e9b6c83	0.30356225
23	0xbea76197	-0.32691643
24	0x3e6135ae	0.21993133
25	0x3e7b0b76	0.24516091
26	0xbdfc8c46	-0.123314425
27	0xbd27eae0	-0.04099548
28	0xbe747058	-0.2387098
29	0x3e93b9c1	0.28852656
30	0xbe883494	-0.26602614
31	0xbe4a6d86	-0.19768342

conv2.weight f4 [64, 32, 3, 3]
0	0x3b9d3613	0.004797706
1	0x3b8a71b6	0.004224981
2	0x3aaabe23	0.0013026636
3	0x3a29bea7	0.0006475248
4	0xbd25a4c5	-0.04044034
5	0xbdfad91c	-0.122484416
6	0x3c095b3a	0.0083835665
7	0xbd9d3467	-0.076760106
8	0xbd252ffc	-0.040328965
9	0xbcf0adb7	-0.029379709
10	0x3c89f978	0.016842589
11	0xbd2a29a9	-0.041543636
12	0xbd610967	-0.054940607
13	0xbe15ff01	-0.14648058
14	0xbe30aa80	-0.1725254
15	0xbc1711db	-0.009220566
16	0xbd8964cb	-0.06708678
17	0xbce5a660	-0.028033435
18	0xbbeff2ad	-0.0073226304
19	0xbe199d0b	-0.15001313
20	0xbd463cd1	-0.048397843
21	0xbd91643e	-0.07099198
22	0x3e003d9e	0.12523505
23	0xbe1dc1a8	-0.15405905
24	0x3d7c1f26	0.061553143
25	0xbca2849c	-0.019838624
26	0xbda395d5	-0.079875626
27	0xbe0b330a	-0.13593689
28	0xbddd5326	-0.10806875
29	0x3e1af5bd	0.15132804
30	0xbe014bc8	-0.12626565
31	0x3c309c61	0.010779471
32	0xbd833911	-0.06407369
33	0xbd2bc81b	-0.041938882
34	0xbcb00712	-0.021487746
35	0x3a3752f7	0.0006993259
36	0xbdaa1118	-0.083040416
37	0xbd53865d	-0.05164181
38	0xbc2a1de2	-0.010383101
39	0x3d567d2c	0.052365467
40	0xbd94c945	-0.072649516
41	0xbd279be4	-0.040920153
42	0xbb4d6380	-0.0031339824
43	0x3cf1523f	0.029458163
44	0xbb97f5d8	-0.004637461
45	0x3dfb306c	0.12265095
46	0xbd83dd6d	-0.06438718
47	0xbdfaeaf4	-0.12251845
48	0x3d2f874e	0.042853646
49	0xbba3e5a2	-0.0050017396
50	0xbd75a796	-0.059974276
51	0xbd05f588	-0.03270486
52	0x3cbb9255	0.022896925
53	0xbd8656ba	-0.065595105
54	0x3e3f33ab	0.18672054
55	0x3eb27996	0.34858388
56	0x3e87ba7e	0.2650947
57	0xbd75a39b	-0.05997048
58	0x3dcf5bb9	0.101249166
59	0x3e26bbb0	0.16282535
60	0xbd4806e9	-0.048834715
61	0xbd9b8c7d	-0.075951554
62	0xbd46af3e	-0.048506968
63	0xbd7dad78	-0.06193301
64	0xbe127051	-0.14300658
65	0x3c7b0666	0.01532135
66	0xbc8add51	-0.016951235
67	0xbda388b1	-0.07985056
68	0x3cf93f05	0.030425558
69	0x3e0d85f9	0.13820638
70	0x3d6bd984	0.057580486
71	0xbda0b47d	-0.078469254
72	0x3e69c4a1	0.22828914
73	0x3e07bd30	0.13255763
74	0x3d66a3aa	0.056308426
75	0x3d85665d	0.06513665
76	0x3aba1dcd	0.0014199555
77	0xbe85e38a	-0.2615016
78	0xbdc0eb0b	-0.09419831
79	0xbc91d2ba	-0.017800678
80	0xbce5e646	-0.028063904
81	0xbe19e45c	-0.15028518
82	0xbe093df8	-0.13402545
83	0x3cb55d6d	0.022139275
84	0xbde59e52	-0.11211838
85	0xbd039f6a	-0.03213445
86	0x3c3de954	0.011591274
87	0x3df86d4a	0.1213022
88	0xbd9a71dd	-0.07541249
89	0xbdad35c0	-0.084575176
90	0xbe5d58b0	-0.21615863
91	0xbd5f9f79	-0.054595444
92	0xbe30147f	-0.17195319
93	0xbceedae4	-0.02915711
94	0xbcb45006	-0.022010814
95	0x3dc28b71	0.094992526
96	0x3dde1810	0.10844433
97	0x3d317821	0.043327454
98	0xbd5d79c1	-0.05407119
99	0x3db8131b	0.08988019
100	0x3cf96cab	0.030447325
101	0x3eaaaefd	0.3333663
102	0xbe202847	-0.15640365
103	0x3b80ad6c	0.0039269235
104	0x3d814afa	0.06313129
105	0xbdcc9420	-0.0998919
106	0xbdbd2a4e	-0.092365846
107	0xbdf4b2a8	-0.119481385
108	0xbdd879f7	-0.10570138
109	0xbe3836e4	-0.17989689
110	0xbcfcd168	-0.030861571
111	0xbde8965c	-0.11356804
112	0xbe827239	-0.2547777
113	0xbdf0e274	-0.117619425
114	0xbdd2d468	-0.102944195
115	0x3da3323a	0.07968564
116	0xbdb86a31	-0.090046294
117	0xbe2e6912	-0.17032269
118	0x3e57d9ac	0.21079129
119	0x3e65d631	0.22444989
120	0xbdd302e8	-0.10303289
121	0x3ddb88c1	0.10719443
122	0x3e6330db	0.22186606
123	0xbb0ad159	-0.002118191
124	0xbd573910	-0.052544653
125	0xbd26d41d	-0.04072963
126	0x3e704ce1	0.23466827
127	0x3e58ff31	0.21191098
128	0x3e3783ad	0.17921324
129	0x3cfc80fe	0.030823227
130	0x3e161624	0.14656883
131	0xbe2db7c9	-0.1696464
132	0x3d278e89	0.040907416
133	0xbe37033a	-0.17872325
134	0xbe41e541	-0.1893511
135	0x3b30652a	0.0026915767
136	0x3d39ac5e	0.045330398
137	0x3e61febd	0.22069831
138	0x3ca953ef	0.020669905
139	0xbae90921	-0.001777921
140	0xbda216e7	-0.079145245
141	0x3b72e481	0.0037062468
142	0xbdfabc01	-0.1224289
143	0xbe10774f	-0.14108013
144	0xbd13123e	-0.03590607
145	0x3dc6ff03	0.097166084
146	0x3eab0da1	0.33408836
147	0xbdf20e57	-0.11819141
148	0xbd704803	-0.058662426
149	0xb9c53ad9	-0.00037618613
150	0xbc8a4485	-0.016878376
151	0xbc862aaf	-0.016377775
152	0xbe23a49e	-0.15980765
153	0x3e69b3fa	0.22822562
154	0x3ddccf5a	0.10781737
155	0x3d324d92	0.043531008
156	0xbda1f791	-0.07908548
157	0xbe0dddcd	-0.13854142
158	0xbde1caf2	-0.11025037
159	0xbe275e66	-0.16344604
160	0xbe0dc964	-0.13846356
161	0xbd0e55fd	-0.034749974
162	0x3de29bec	0.11064896
163	0xbc8162ce	-0.015794184
164	0xbd4ae812	-0.049537726
165	0xbe118c7a	-0.14213744
166	0x3c9f64d5	0.01945726
167	0xbdc3f942	-0.095690265
168	0xbdf94811	-0.12171949
169	0xbe0355e2	-0.1282573
170	0xbde08fc3	-0.1096492
171	0xbe0888a3	-0.13333373
172	0xbd90e1cc	-0.07074317
173	0xbd187b59	-0.03722701
174	0xbd5268dc	-0.051369533
175	0x3cc0fea4	0.023558922
176	0xb9521d09	-0.00020037977
177	0x3c84de2c	0.016219221
178	0xbd9f42ae	-0.0777639
179	0xbe1c741d	-0.15278669
180	0xbe0eecbb	-0.13957493
181	0x3cf1c0ec	0.029510938
182	0x3d7de3f8	0.061984986
183	0xbc9eb561	-0.019373598
184	0x3e031330	0.12800288
185	0x3ddc6c86	0.10762887
186	0x3d99d9ce	0.07512246
187	0x3dff20e0	0.12457442
188	0x3da00f63	0.07815435
189	0x3e73f73b	0.2382478
190	0xbbc74d94	-0.006082246
191	0x3d25168e	0.040304713
192	0x3d94064b	0.07227763
193	0x3ec99145	0.39368644
194	0x3c2dd0c7	0.010608858
195	0xbccf0440	-0.025270581
196	0x3d1444b9	0.03619835
197	0x3be02883	0.006840767
198	0xbdf18724	-0.11793354
199	0xbd05b247	-0.03264072
200	0xbe7b2878	-0.24527156
201	0x3d3985d0	0.04529363
202	0x3e394d1e	0.18095824
203	0x3e2ef14f	0.1708424
204	0x3df0c9a5	0.11757211
205	0x3e576c3e	0.21037385
206	0x3d06df9f	0.032928105
207	0x3cbc4f34	0.022986986
208	0x3de6f2ba	0.11276765
209	0x3d70cc26	0.05878844
210	0xbddc05eb	-0.10743316
211	0xbe2e7416	-0.17036471
212	0xbe5e8e3a	-0.21733943
213	0xbe14c1a4	-0.14526993
214	0xbe1076e8	-0.14107859
215	0xbe57332e	-0.21015617
216	0xbe57df1a	-0.210812
217	0xbd864b33	-0.06557312
218	0xbe68dafc	-0.22739786
219	0x3ceae401	0.028673174
220	0x3dff2a52	0.12459244
221	0x3dbf7060	0.09347606
222	0x3dbb2b82	0.09139158
223	0x3c9d6cc0	0.019216895
224	0x3c6e8331	0.014557646
225	0xbde280b0	-0.110597014
226	0x3e284f94	0.16436607
227	0x3e10b2f6	0.14130768
228	0xbe2a5a42	-0.16635993
229	0xbdc0a26c	-0.094059795
230	0x3e2f9f61	0.17150642
231	0xbce08091	-0.027405055
232	0xbd81d474	-0.0633935
233	0xbe2da0e8	-0.16955912
234	0x3d1c98ac	0.038231537
235	0x3c26adc0	0.010173261
236	0xbce03b08	-0.027371898
237	0xbbd859ca	-0.0066025006
238	0x3ad0711c	0.001590285
239	0xbd0e8b90	-0.034801066
240	0xbce22797	-0.027606769
241	0xbd262bea	-0.040569223
242	0xbc62a05d	-0.013832179
243	0x3dc970a8	0.098359406
244	0x3d58be28	0.052915722
245	0x3df470dc	0.11935589
246	0xbe096012	-0.13415554
247	0xbc54ac3a	-0.012980515
248	0x3d65912a	0.056046642
249	0x3c60409f	0.013687282
250	0xbd4bfdcc	-0.049802586
251	0x3bdc9b44	0.0067323763
252	0x3e8dc87a	0.27692014
253	0x3e9dcae8	0.30818868
254	0x3e64b882	0.22336009
255	0x3dca7502	0.09885599

conv2.bias f4 [64]
0	0x3bc851bc	0.006113259
1	0x3bdda359	0.0067638573
2	0xbbde95e5	-0.006792771
3	0x3d41242a	0.04715363
4	0x3d240f59	0.0400537
5	0x3cd96e4b	0.02654185
6	0xbd1a7c2b	-0.037716072
7	0x3c537fb5	0.012908866
8	0x3d689326	0.056780957
9	0x3d4b432d	0.04962461
10	0x3c5ab1ea	0.013348082
11	0xbc9efbea	-0.019407231
12	0x3c91de3d	0.017806167
13	0xbc9d0482	-0.019167189
14	0xbc8c8f3b	-0.017158141
15	0xbc7e725c	-0.015530195
16	0x3c255d8f	0.010093107
17	0x3b82a17f	0.003986537
18	0x3cb857ed	0.022502864
19	0xbc8a126b	-0.016854485
20	0xbcae34d9	-0.021265434
21	0xbc28ee6c	-0.01031075
22	0xbd6bd708	-0.057578117
23	0xbcb6f32c	-0.02233275
24	0xbcae92c1	-0.021310212
25	0x3d1d607d	0.038422097
26	0xbcfdf839	-0.03100215
27	0x3c70c37c	0.014695045
28	0xbd257c28	-0.040401608
29	0xbd561dde	-0.052274577
30	0xbcc722d8	-0.024308607
31	0xbd013100	-0.03154087
32	0xbd335847	-0.04378536
33	0xbced08a7	-0.02893479
34	0x3cf9fcc0	0.030516028
35	0xbd3510b5	-0.044205386
36	0xbcc5a4d5	-0.02412645
37	0x3c00cc31	0.007861183
38	0xbd56d785	-0.05245163
39	0xb9e08790	-0.0004282561
40	0x3d2c3cda	0.04205022
41	0x3a0eb11d	0.0005443262
42	0xbd43580c	-0.04769139
43	0xbcb74405	-0.022371301
44	0x3d5c1328	0.053729206
45	0xbc4fcca7	-0.01268307
46	0xbbe2c2d1	-0.0069201966
47	0x3cff7c74	0.031187274
48	0xbc0f3578	-0.008740775
49	0xbd01d3be	-0.031696074
50	0x3cac9dd2	0.021071348
51	0xbc0e6952	-0.0086921025
52	0x3c85a112	0.016312156
53	0xbd35acd6	-0.044354282
54	0xbc8d2f68	-0.01723452
55	0xbd5523d5	-0.052036125
56	0x3d5a4274	0.05328603
57	0x3a98cd7f	0.0011657922
58	0x3c8b6ae2	0.01701874
59	0xbcd42f19	-0.025901364
60	0xbc662cab	-0.014048736
61	0x3d1bf206	0.03807261
62	0x3d044fa4	0.032302514
63	0xbc2c9099	-0.010532522

l1.weight f4 [128, 1600]
0	0xbc657e9a	-0.014007235
1	0xbc39a883	-0.01133168
2	0x3d001cb6	0.03127738
3	0x3b8f72ba	0.00437769
4	0x3cd13623	0.02553851
5	0xbb10d110	-0.0022097267
6	0x3c0b10bd	0.008487877
7	0xbd0800fa	-0.033204056
8	0xbc3c0f28	-0.011478223
9	0x3b1c3b0c	0.0023838906
10	0xbc48f1a0	-0.012264639
11	0xbc95ace2	-0.018270914
12	0xbc48942e	-0.01224236
13	0xbbe9019e	-0.0071107885
14	0x3c601ae1	0.013678283
15	0xbc917d80	-0.017760038
16	0x3c6c3828	0.014417686
17	0xbc33efed	-0.010982496
18	0x3cd1d67a	0.025614966
19	0xbcc50614	-0.02405075
20	0x3ca2e548	0.01988472
21	0x3c24cd54	0.01005872
22	0xb9b10fe0	-0.000337719
23	0xbc364f4c	-0.011127304
24	0xbb8c50f6	-0.0042821122
25	0xbc536924	-0.012903485
26	0x3b32cfae	0.0027284431
27	0xbc2b235c	-0.010445442
28	0xbccc8d35	-0.024969677
29	0xbc43904f	-0.011936261
30	0xbca8d518	-0.020609424
31	0x3c35f004	0.011104587
32	0x3bc4e41c	0.006008638
33	0x3be0dc84	0.006862225
34	0x3c42a5b3	0.011880326
35	0xbcb929ea	-0.022602994
36	0xbcf0f818	-0.029415175
37	0xbbab743a	-0.005232361
38	0x3adc7d40	0.0016821995
39	0xbcc81830	-0.024425596
40	0xbcd511c0	-0.02600944
41	0xbcb07d2a	-0.021544058
42	0x3cafdb79	0.021466957
43	0xbc2ab029	-0.010417976
44	0xbc08c718	-0.008348249
45	0x394ee920	0.00019732537
46	0xbcf3fb7c	-0.029783003
47	0xbd049139	-0.032365058
48	0xbc26abb7	-0.010172776
49	0xbd10eddc	-0.03538309
50	0x3d0910ef	0.033463415
51	0xbc18e111	-0.009331004
52	0xbc95851a	-0.018251944
53	0x3b44e84c	0.0030045686
54	0xbbec48ce	-0.0072108274
55	0xbc290eca	-0.010318467
56	0xbc77e306	-0.01512981
57	0xbcb65f6a	-0.022262294
58	0xbbeea656	-0.0072830124
59	0x3cf71b18	0.030164286
60	0x3ab9ae70	0.0014166366
61	0x3c26285c	0.010141458
62	0xbd0d0e5a	-0.034437515
63	0xbbee9dc8	-0.0072819926
64	0x3bb9c6e2	0.0056694606
65	0xbc0293dc	-0.007969823
66	0xbc1f6a37	-0.009729913
67	0xbce9f656	-0.028559845
68	0xbd0aab09	-0.033854518
69	0xbcb06915	-0.021534482
70	0x3c711f23	0.014716896
71	0x3b48bd58	0.0030630436
72	0xbad202f0	-0.0016022604
73	0xbcfccc64	-0.03085918
74	0xbc4fae5a	-0.012675846
75	0xbc671d90	-0.014106169
76	0xbb477b94	-0.0030438649
77	0xbcbc1417	-0.022958798
78	0xbc88eaa4	-0.016713448
79	0xbcb81531	-0.022471042
80	0xbd092b34	-0.033488467
81	0xbca86e18	-0.02056031
82	0x3d067f89	0.03283647
83	0x3bd4bc8a	0.006492202
84	0xbcc4b44c	-0.024011753
85	0xbb7b52c4	-0.0038348893
86	0xbc4e96fb	-0.012609239
87	0xbcce7202	-0.025200848
88	0xbcbdc8f2	-0.023167107
89	0x3ccc2c7f	0.024923561
90	0xbc50ab13	-0.0127361
91	0x3ba97000	0.005170822
92	0xbc24b2d9	-0.010052406
93	0xbcd9fde8	-0.02661033
94	0x3c35b3e5	0.0110902535
95	0xbbe61e98	-0.00702269
96	0x3c27ecce	0.01024933
97	0x3c2caea7	0.010539687
98	0x3c56d4f8	0.013112299
99	0xbbeac88e	-0.0071650213
100	0xbd004ccd	-0.031323243
101	0xbc87623a	-0.01652633
102	0xbcc71c68	-0.024305537
103	0x3c77d55b	0.0151265515
104	0x3d0b5bfa	0.034023263
105	0x3c68d76b	0.014211516
106	0xbba8bb20	-0.00514926
107	0x3c490b97	0.01227083
108	0xbcde3e3c	-0.027129285
109	0x3cb84069	0.02249165
110	0x3bd92ad6	0.006627421
111	0xbccb1b52	-0.0247933
112	0x3b94122a	0.004518767
113	0x3c263c35	0.01014619
114	0xbbcfacb4	-0.0063377265
115	0xbcecd10e	-0.028908279
116	0x3c46e506	0.012139564
117	0x3bcd5904	0.006266715
118	0x3d0a0908	0.03370002
119	0xbbe4c4a4	-0.006981449
120	0x3ba4e9f0	0.0050327703
121	0x3bf20068	0.0073853023
122	0xbc134348	-0.008988209
123	0xbccbdd8e	-0.024885919
124	0xbc3f6636	-0.011682084
125	0xbc71bccb	-0.014754484
126	0xbc0e3cc7	-0.008681483
127	0x3af7e108	0.0018911669
128	0x3c1e9114	0.009678144
129	0xbbc403ee	-0.005981914
130	0xbb8f0b04	-0.004365327
131	0xbd0a1d46	-0.033719324
132	0xbc374ea7	-0.011188186
133	0x3b166fb8	0.0022954773
134	0xbce23e56	-0.027617615
135	0xbcdd2a40	-0.026997685
136	0xbd09e0c0	-0.033661604
137	0x3ceba98a	0.028767366
138	0x3c1e0870	0.009645566
139	0xbae3ea68	-0.0017388584
140	0xbc60f08d	-0.013729227
141	0xbbe90d8a	-0.0071122097
142	0xbcc4f4c2	-0.02404249
143	0xbd0d17d0	-0.034446537
144	0x3c0871c2	0.008327903
145	0x3cb99021	0.022651734
146	0xbc54d7fa	-0.012990946
147	0xbc13c57a	-0.00901925
148	0x3cb11ec3	0.021621114
149	0x3d01fbab	0.03173415
150	0xbc87dc75	-0.016584614
151	0xbcfc0386	-0.030763399
152	0xbc9a0db2	-0.018805359
153	0x3c29e2e3	0.010369035
154	0x3bbefe36	0.005828644
155	0xbc46460d	-0.012101662
156	0xbc8bf6ee	-0.017085519
157	0xba6dee30	-0.0009076325
158	0xbc2ba297	-0.010475776
159	0xbc8e1e01	-0.017348291
160	0xbd0cdc93	-0.034390043
161	0x3c9da506	0.019243728
162	0xbc036675	-0.008020033
163	0xbb77ae1c	-0.0037792986
164	0x3cacaa10	0.021077186
165	0xbd0ae04d	-0.033905316
166	0xbb618830	-0.003441345
167	0x3a6b1d30	0.0008968888
168	0x3cf6bc46	0.030119073
169	0xbcdebe26	-0.02719028
170	0xbc00cffe	-0.007862089
171	0xbc7f7206	-0.01559115
172	0xbc7f8f64	-0.015598152
173	0x3c8cebd2	0.017202292
174	0xbcaf1b45	-0.021375308
175	0x3d0bec78	0.03416106
176	0x3bfd13f8	0.0077233277
177	0x3ce48422	0.027895037
178	0x3bc9215a	0.006138009
179	0xbab6ba00	-0.001394093
180	0xbbd83db0	-0.0065991506
181	0xbc05e402	-0.008172037
182	0x3b9b9438	0.0047478937
183	0xbce30c1e	-0.027715739
184	0x3cca1606	0.024668705
185	0xbc97d681	-0.0185349
186	0x3c7b548b	0.015339981
187	0x3c3728cb	0.011179159
188	0xbc7bdcbe	-0.015372453
189	0xbcfb5726	-0.030681204
190	0x3ccc7742	0.02495921
191	0xbb23e90c	-0.0025010733
192	0xbc289acf	-0.0102908155
193	0xbcfea66c	-0.031085216
194	0x3c21b08c	0.009868752
195	0x3b962524	0.004582064
196	0x3c534f27	0.012897289
197	0xbcf294e2	-0.029612008
198	0xbb4f0b3c	-0.003159239
199	0x3c98d6fe	0.018657204
200	0xbaed1ff8	-0.0018091192
201	0xbc3ed467	-0.01164732
202	0x3c1c272d	0.009530825
203	0x3bb0672e	0.0053833937
204	0x3d0b45b9	0.03400204
205	0xbb228d7c	-0.002480357
206	0xbd0076f3	-0.03136344
207	0x3b264070	0.0025367998
208	0xbc8d961d	-0.017283494
209	0xbc40e10d	-0.011772406
210	0x3ca5a760	0.020221412
211	0x3c6e40cb	0.014541815
212	0x3b9c0302	0.0047611007
213	0xbd1c695f	-0.038186427
214	0xbaabaca0	-0.0013097711
215	0x3c3284d6	0.010895928
216	0xbc9eb810	-0.019374877
217	0xbcaa6594	-0.02080039
218	0x3b995e3c	0.004680423
219	0x3c5ad8c1	0.013357342
220	0x3c058fab	0.008151929
221	0xbc0e159c	-0.008672144
222	0xbad05018	-0.001589301
223	0xbcea871e	-0.028628882
224	0x3cfc97ef	0.030834166
225	0x3cef4fca	0.029212851
226	0x3c443598	0.011975668
227	0xbc8a331e	-0.016870078
228	0xbced1532	-0.02894077
229	0xbbda7eac	-0.0066679325
230	0x3988ca00	0.00026090443
231	0xbb6c8340	-0.0036088973
232	0xbca70a0b	-0.020390531
233	0x3b1c5b50	0.0023858137
234	0x3bf7099a	0.0075389864
235	0x3c628839	0.013826423
236	0xbcc87703	-0.024470812
237	0x3c1b0186	0.009460812
238	0x3c0a5e20	0.008445293
239	0xbcc26ec8	-0.023734465
240	0x3b40cdcc	0.002941954
241	0xbc140ed5	-0.009036739
242	0xbceed272	-0.029153083
243	0xbcea0ca1	-0.028570475
244	0xbc7a8399	-0.015290164
245	0x3c03179b	0.008001233
246	0xbb720f50	-0.0036935396
247	0xbcbc67fe	-0.022998806
248	0xbcbcd620	-0.023051322
249	0x3c8912dc	0.016732626
250	0x3d087bfb	0.033321362
251	0xbd07a886	-0.0331197
252	0x3c3e274c	0.011606049
253	0xbc83533e	-0.016030904
254	0x3cdde42c	0.02708634
255	0x3b93fd82	0.0045163045

l1.bias f4 [128]
0	0xbb9255e0	-0.0044658035
1	0x398f105b	0.0002728727
2	0xbd0f865f	-0.035040256
3	0xbeace8f2	-0.33771473
4	0xbde98209	-0.11401755
5	0xbdd4718e	-0.10373221
6	0xbdc011ee	-0.0937842
7	0xbd7ecab1	-0.06220502
8	0xbcb89ed0	-0.022536665
9	0x3e0dc622	0.13845113
10	0xbcd9c1bc	-0.026581638
11	0xbc4a0d3a	-0.012332255
12	0x3b7bcd8a	0.0038422071
13	0xbcee59b2	-0.029095504
14	0xbd286cb4	-0.041119292
15	0x3bafa971	0.005360775
16	0xbd1fb1d0	-0.038987935
17	0xbd89c31f	-0.067266695
18	0xbe8ab591	-0.2709165
19	0x3c4386eb	0.011934022
20	0x3d129945	0.0357907
21	0xbb99b670	-0.0046909377
22	0xbd219c6e	-0.039455824
23	0xbcf859fe	-0.03031635
24	0xbb1fd79c	-0.0024389988
25	0x3dd5c001	0.104370125
26	0xbc2fffdc	-0.010742154
27	0xbe1e3e44	-0.1545344
28	0xbcad2599	-0.021136092
29	0xbb88d862	-0.0041761855
30	0xbe21b236	-0.15790638
31	0xbb746948	-0.0037294198
32	0xbce1efe4	-0.02758021
33	0xbd04751f	-0.032338258
34	0xbd0be327	-0.034152176
35	0xbc42dbd6	-0.011893233
36	0xbbc6a266	-0.00606184
37	0xbcffcbfe	-0.0312252
38	0xbe3b59c2	-0.18295959
39	0x3ca123f0	0.019670457
40	0xbd0bf4f8	-0.034169167
41	0xbcf9acca	-0.0304779
42	0xbe124050	-0.14282346
43	0xbe8607eb	-0.26177916
44	0xbdbe97d0	-0.093063
45	0xbd69ba53	-0.05706246
46	0x3dfca77f	0.12336635
47	0x3b2c4e20	0.0026291683
48	0xbd8e6bbc	-0.069541425
49	0x3c1df523	0.009640965
50	0x3e055456	0.13020453
51	0x3c10301b	0.008800532
52	0xbdfe3727	-0.12412863
53	0x3b8d037e	0.004303395
54	0xbe5615d2	-0.20906761
55	0xbdac560d	-0.084148504
56	0xbe1a4df8	-0.15068805
57	0xbd05f1db	-0.032701354
58	0xba35d1b0	-0.0006935848
59	0xbca9b900	-0.020718098
60	0x3c233f01	0.009963752
61	0xbe98f59b	-0.29874882
62	0x3e6826eb	0.22671096
63	0xbe15b949	-0.14621462
64	0x3c71875a	0.014741743
65	0xbdac7c41	-0.08422137
66	0x3dcb1618	0.099163234
67	0xbdeba088	-0.11505228
68	0xbb8e89ac	-0.004349908
69	0xbbb97310	-0.0056594685
70	0x3e8da640	0.276659
71	0xbe9170f3	-0.28406486
72	0x3c7144d3	0.014725882
73	0xbd01a6a6	-0.03165307
74	0xbe9c9bad	-0.3058752
75	0xbe127329	-0.14301743
76	0xbd46569d	-0.048422445
77	0xbcea6166	-0.028610896
78	0x3c1d9759	0.009618604
79	0x3baa8d78	0.0052048527
80	0xbe186220	-0.14881182
81	0xbdd54a01	-0.10414506
82	0xbc626d20	-0.013819963
83	0xbdb4a054	-0.08819643
84	0xbe9a6ba6	-0.30160254
85	0xbd717384	-0.058948055
86	0x3c0d902c	0.00864033
87	0xbd267a50	-0.04064399
88	0xbb114a02	-0.0022169356
89	0xbd3ffedd	-0.046873916
90	0xbd0421f0	-0.032258928
91	0xbccfc24e	-0.025361206
92	0x3c0b5195	0.008503337
93	0x3d297cac	0.041378662
94	0xbba2c37e	-0.004967152
95	0xbd0f9918	-0.03505811
96	0xbcc0b074	-0.02352164
97	0xbd10af5d	-0.03532349
98	0xbd1a6d22	-0.037701733
99	0x3c3f556d	0.011678082
100	0xbc2d7f55	-0.01058944
101	0xbe81e319	-0.25368574
102	0x3db86161	0.090029486
103	0xbcbfd096	-0.023414891
104	0xbe5d39e9	-0.21604122
105	0xbcdc4b32	-0.026891325
106	0xbe67396c	-0.22580498
107	0xbe1886bc	-0.14895147
108	0xbd289bae	-0.041164093
109	0xbe9628a0	-0.2932787
110	0xbdbefffe	-0.093261704
111	0x3bea1b9f	0.007144406
112	0xbd67965c	-0.05653988
113	0x3c22f89f	0.009946971
114	0xbd45d4a5	-0.048298497
115	0xbe12fbed	-0.14353915
116	0x3be63eba	0.0070265206
117	0xbd45a30a	-0.04825119
118	0x3d18b62b	0.037283104
119	0xbda82247	-0.08209663
120	0xbbc38017	-0.0059661972
121	0x3e7f5b18	0.24937093
122	0x3e19dfa0	0.15026712
123	0xbd61858f	-0.055059012
124	0xbcd879ee	-0.026425328
125	0xbc5973b6	-0.013272217
126	0x3d248d6e	0.04017394
127	0xbc8348a2	-0.016025845

l2.weight f4 [10, 128]
0	0xbcfe79e5	-0.031063983
1	0xbe9d4ca8	-0.30722547
2	0x3e3776e4	0.17916447
3	0xbe37d4b2	-0.1795223
4	0xbdb73be2	-0.089469686
5	0xbe8bb95f	-0.27289864
6	0x3deb3fcd	0.114867784
7	0xbe770bd6	-0.24125609
8	0xbd2fa9bb	-0.042886477
9	0xbe8f2636	-0.2795884
10	0xbd0b352e	-0.033986263
11	0xbd9a1113	-0.07522788
12	0xbd41e096	-0.047333322
13	0xbd1592e1	-0.036517028
14	0xbd5d8102	-0.05407811
15	0xbd6d8565	-0.057988543
16	0xbdfd1760	-0.12357974
17	0x3d602730	0.054724872
18	0xbebe05e2	-0.37113863
19	0xbe318a45	-0.17337902
20	0x3e5d4afb	0.21610634
21	0xbea30915	-0.31842867
22	0xbd5633bc	-0.05229543
23	0xbdafe509	-0.08588607
24	0x3ac14788	0.001474605
25	0x3e8dcde7	0.27696154
26	0xbd98fac2	-0.07469703
27	0xbdf9c100	-0.12195015
28	0xbd90acc1	-0.070642
29	0x3c8860da	0.016647745
30	0xbcdef9d9	-0.027218746
31	0x3c636627	0.0138793355
32	0xbea48148	-0.32129884
33	0x3d468b93	0.048472952
34	0xbd97a3b8	-0.07404274
35	0xbd591d74	-0.053006604
36	0x3d312ee8	0.043257624
37	0xbc7c8959	-0.015413606
38	0x3d472283	0.048616897
39	0x3e486f49	0.19573702
40	0x3d11c479	0.03558776
41	0xbda6c16a	-0.081423596
42	0xbe80ac46	-0.25131434
43	0xbdd3fe62	-0.10351254
44	0x3d167129	0.03672901
45	0xbe51f782	-0.20504573
46	0x3e17d791	0.14828326
47	0x3daa86dc	0.08326504
48	0xbe7a3b38	-0.24436653
49	0xbd8ee047	-0.06976371
50	0xbe567188	-0.20941746
51	0x3d918a0d	0.07106409
52	0x3e1676d1	0.14693762
53	0xbd34c766	-0.044135474
54	0xbc5142e5	-0.012772297
55	0xbdb00895	-0.08595387
56	0xbe852694	-0.26005995
57	0xbda7b2c5	-0.081883945
58	0x3c85f0be	0.016350146
59	0x3d88bca9	0.06676609
60	0xbbf7e09a	-0.0075646164
61	0xbd937f08	-0.07201964
62	0xbdc1ca07	-0.09462362
63	0xbda77bef	-0.08177935
64	0x3d8cc444	0.06873372
65	0xbe26ea02	-0.16300204
66	0xbe58fd43	-0.21190362
67	0xbe39ae22	-0.18132833
68	0x3d1a527a	0.037676312
69	0xbd91de27	-0.0712245
70	0xbe56e7fa	-0.2098693
71	0xbd9bf9a1	-0.07615972
72	0xbd5e6ae6	-0.054301165
73	0x3d096fa8	0.03355375
74	0xbe49e602	-0.19716647
75	0xbe70754c	-0.23482245
76	0x3cb39b1f	0.021924553
77	0xbe98a9dc	-0.29817092
78	0x3d5056e0	0.0508641
79	0x3c3e8173	0.011627543
80	0xbe0b9eae	-0.1363475
81	0x3ce55777	0.027995808
82	0x3c44b33b	0.0120056225
83	0x3dbc8c02	0.09206392
84	0xbe266730	-0.162503
85	0x3d3d1691	0.0461641
86	0xbe77e86c	-0.24209756
87	0x3d5a582a	0.053306736
88	0x3ca0c46b	0.01962491
89	0x3e010220	0.12598467
90	0xbd5e1330	-0.054217517
91	0x3db06d0b	0.08614548
92	0xbd5016f5	-0.050803144
93	0x3e122bf4	0.1427458
94	0xbdcf6e48	-0.10128456
95	0x3c3464a0	0.011010319
96	0xbceb45cb	-0.028719803
97	0x3d04f00f	0.0324555
98	0x3d9b0589	0.07569415
99	0x3d43cab8	0.04780075
100	0x3c644fbc	0.013935026
101	0xbeb088a9	-0.34479263
102	0x3e74911b	0.23883478
103	0xbcb01066	-0.021492194
104	0xbea6512d	-0.32483807
105	0x3d054ccf	0.032543954
106	0xbed1a625	-0.4094707
107	0xbda51371	-0.08060349
108	0xbe317d18	-0.17332876
109	0x3d053a1a	0.032526113
110	0x3c954b60	0.018224418
111	0xbd580fcc	-0.05274944
112	0xbd281dc1	-0.041044
113	0x3ccea45a	0.025224853
114	0xbef17d21	-0.47165778
115	0xbdc96c1a	-0.09835072
116	0xbc4202c1	-0.011841477
117	0xbe38b17d	-0.18036456
118	0xbdb016ba	-0.08598085
119	0x3e3e7f8a	0.1860334
120	0x3d2ffca4	0.042965546
121	0xbe62e4d6	-0.22157606
122	0x3e51407c	0.20434755
123	0x3ca282bf	0.019837735
124	0x3d8adbc1	0.06780196
125	0xbd1bd2ba	-0.03804276
126	0x3ca695c3	0.020335084
127	0xbd80a0d7	-0.06280678
128	0xbdafaa97	-0.08577459
129	0x3bbe11c4	0.0058004577
130	0xbeb5a073	-0.35473976
131	0xbe8ec3a6	-0.27883643
132	0xbdc45c01	-0.09587861
133	0xbe9383d7	-0.28811523
134	0xbe0edde0	-0.13951826
135	0xbd861fa7	-0.06549006
136	0xbd95f078	-0.073212564
137	0x3e2b093f	0.16702746
138	0x3ce70d2a	0.02820452
139	0xbc935064	-0.01798267
140	0xbd14daa6	-0.036341332
141	0xbda88634	-0.08228722
142	0xbd03f43d	-0.032215346
143	0x3e00cc81	0.12578012
144	0xbcb3fc87	-0.021971
145	0xbe828ee6	-0.25499648
146	0xbdbff9ac	-0.09373793
147	0x3e73b97e	0.23801228
148	0xbe43c88b	-0.1911947
149	0x3dfecbb9	0.12441201
150	0xbc2d605b	-0.010582055
151	0xbdfa1eec	-0.12212929
152	0xbcf90e8d	-0.030402446
153	0x3e2cf124	0.16888863
154	0xbd2f6fb9	-0.042831156
155	0xbe257463	-0.1615768
156	0x3bee2669	0.0072677624
157	0x3d01eacf	0.03171807
158	0xbec76763	-0.38946065
159	0xbc91f57c	-0.017817251
160	0x3cabb9d0	0.020962626
161	0x3d28c72e	0.041205578
162	0x3c9e0950	0.01929155
163	0xbce91463	-0.028452104
164	0xbb372d48	-0.0027950574
165	0x3d2acc52	0.04169876
166	0xbe856a93	-0.26057872
167	0x3d06faf6	0.03295418
168	0x3d804485	0.06263069
169	0xbc80657c	-0.015673392
170	0xbe9ece73	-0.31016883
171	0xbe667f3f	-0.22509478
172	0x3cf4827a	0.029847372
173	0x3d4faedc	0.05070387
174	0x3e3d0e16	0.18462405
175	0x3b4f54c1	0.003163621
176	0x3d2a816d	0.041627336
177	0xbbcef2b6	-0.0063155545
178	0x3e088bd3	0.13334589
179	0xbd2054d5	-0.039143402
180	0x3cc90a2f	0.024540989
181	0xbbd584ad	-0.0065160603
182	0xbe4d19eb	-0.20029418
183	0xbe47d9ff	-0.19516753
184	0xbe1d43fb	-0.15357964
185	0xbd386b10	-0.045023978
186	0xbb0bfc94	-0.0021360265
187	0xbcef2854	-0.029194035
188	0xbc975293	-0.018471992
189	0xbdbed739	-0.09318394
190	0x3e78721e	0.24262282
191	0xba811bd7	-0.0009850216
192	0x3a4ad33f	0.00077371666
193	0xbe01ccdc	-0.12675804
194	0xbc955ea0	-0.018233597
195	0xbdbafc52	-0.091301575
196	0x3bc726d4	0.0060776267
197	0x3d349344	0.044085756
198	0x3ebe8378	0.37209678
199	0xbdf0dad3	-0.117604874
200	0x3d3a3270	0.045458257
201	0xbd7dd7b6	-0.061973296
202	0xbe7abfe3	-0.24487261
203	0xbe45f6f5	-0.19332488
204	0xbea0363c	-0.31291378
205	0xbe3243e9	-0.17408718
206	0x3d8431d1	0.06454814
207	0x3d71f75e	0.0590738
208	0xbeaa8f45	-0.3331243
209	0xbe4a0042	-0.19726661
210	0x3da4a8c2	0.080400005
211	0xbdaf079e	-0.08546375
212	0xbe74c052	-0.2390149
213	0x3d918bc8	0.07106739
214	0x3db601ab	0.08887037
215	0xbcdca695	-0.026934901
216	0xbd047655	-0.032339413
217	0x3db288f5	0.08717529
218	0x3d6639a5	0.056207318
219	0xbcb7bfa2	-0.022430245
220	0x3bf02b4e	0.007329381
221	0xbcab0487	-0.020876182
222	0xbd2c7a8c	-0.042109057
223	0xbcefe883	-0.029285675
224	0x3cabd3b2	0.020974968
225	0x3d0dd170	0.034623563
226	0x3d1934fa	0.037404038
227	0xbd377deb	-0.04479782
228	0x3e585f3d	0.2113008
229	0xbe79ea37	-0.24405752
230	0x3dfd3a76	0.12364666
231	0x3ddbc5a7	0.107310586
232	0xbe055810	-0.13021874
233	0xbc238fdd	-0.00998303
234	0xbd2277c9	-0.039665017
235	0xbe58f6db	-0.21187918
236	0x3e19b5a5	0.15010698
237	0xbe730454	-0.2373212
238	0xbde60414	-0.112312466
239	0xbb88b3e5	-0.0041718357
240	0xbe852eb7	-0.26012203
241	0x3d48178e	0.04885059
242	0xbdd37b4d	-0.10326252
243	0xbe19a390	-0.150038
244	0x3b41b6d4	0.0029558437
245	0xbe6a82f4	-0.22901517
246	0x3dedf04e	0.116181
247	0xbe23a600	-0.15981293
248	0x3c296177	0.010338179
249	0x3ee657de	0.44988912
250	0xbd89e19d	-0.067324854
251	0xbe89f140	-0.26941872
252	0xbd4294bc	-0.047505125
253	0x3d0b643b	0.034031134
254	0x3db318db	0.08744975
255	0xbd545d8c	-0.051847026

l2.bias f4 [10]
0	0x3e51828d	0.20459957
1	0x3eb48f3f	0.35265538
2	0x3e1a1eeb	0.15050857
3	0x3e1321e1	0.14368393
4	0x3e58676f	0.21133207
5	0x3d9df174	0.07712069
6	0x3dbcc166	0.09216575
7	0x3e10bedc	0.14135307
8	0x3e04e751	0.12978865
9	0x3db96446	0.09052329

bn1.weight f4 [32]
0	0x3f0069f6	0.50161684
1	0x3f89b5fc	1.0758662
2	0x3f97ac81	1.1849519
3	0x3f64c3e3	0.893614
4	0x3f8446c6	1.0334098
5	0x3e8265b1	0.2546821
6	0x3f81cb2c	1.0140128
7	0x3f8b9bc9	1.0906917
8	0x3f9d2810	1.2277851
9	0x3f459d20	0.7719288
10	0x3f900036	1.1250064
11	0x3f7f9137	0.99830955
12	0x3fb24b37	1.3929204
13	0x3f80a42c	1.0050101
14	0x3f99aab7	1.2005223
15	0x3f1472aa	0.57987463
16	0x3f53d36b	0.82744473
17	0x3f84f372	1.0386794
18	0x3f221a4f	0.63321394
19	0x3f5e7618	0.86898947
20	0x3fbc2702	1.4699404
21	0x3f476ae8	0.778975
22	0x3fa94a1b	1.322574
23	0x3f54c6d4	0.8311589
24	0x3f8213f3	1.0162338
25	0x3fb2507b	1.3930811
26	0x3ec00b82	0.3750878
27	0x3f1f17e7	0.6214585
28	0x3f95e626	1.1710861
29	0x3f833fcc	1.0253844
30	0x3f910d16	1.1332119
31	0x3f9f4fee	1.2446268

bn1.bias f4 [32]
0	0xbec88c9b	-0.39169773
1	0xbe7ee85f	-0.2489333
2	0xbe02b1d4	-0.12763149
3	0xbf1016be	-0.562847
4	0xbe7024f5	-0.23451598
5	0xbf1a8ffb	-0.60375947
6	0xbb87f46a	-0.0041490095
7	0x3d1db573	0.03850312
8	0xbe0eafc1	-0.13934232
9	0xbf222fc6	-0.63354146
10	0xbddf5a74	-0.109059244
11	0x3e1adc1b	0.15123026
12	0xbe0bd093	-0.13653784
13	0xbe09a7e9	-0.13442959
14	0xbc8f2e46	-0.01747812
15	0xbf05d315	-0.5227521
16	0x3e4a768f	0.19771789
17	0xbefbfea5	-0.49217716
18	0xbf3e54c2	-0.7434808
19	0xbee4a152	-0.44654328
20	0xbdcc8d74	-0.099879175
21	0xbe99f47b	-0.30069336
22	0xbe0a1698	-0.13485181
23	0xbecb20f9	-0.39673594
24	0xbe84a03c	-0.259035
25	0xbd294c65	-0.04133262
26	0xbf17b775	-0.5926431
27	0xbec2ec93	-0.38071117
28	0xbe9de952	-0.30842072
29	0xbe2f70a5	-0.17132814
30	0xbe969b89	-0.2941554
31	0xbe0f62ef	-0.14002584

bn1.running_mean f4 [32]
0	0xbf8d8194	-1.1055169
1	0xbd7c680c	-0.061622664
2	0x3cf5240e	0.029924419
3	0xbda10ee5	-0.07864169
4	0xbb39e176	-0.0028363145
5	0xbeddd0ea	-0.4332345
6	0x3f04bed1	0.5185366
7	0xbdfe975a	-0.12431212
8	0x3f3026e8	0.68809366
9	0xbe31c15b	-0.17358916
10	0x3efbebb3	0.49203262
11	0x3f02d317	0.5110335
12	0x3e3dbf51	0.18530013
13	0x3eb0ace2	0.345069
14	0xbcff17fe	-0.03113937
15	0x3e8385bf	0.25687978
16	0x3ea616d3	0.32439288
17	0xbe07f052	-0.13275269
18	0x3df89ac4	0.12138894
19	0xbe0d19ba	-0.13779345
20	0x3f08a28e	0.5337304
21	0x3ed244c7	0.41068098
22	0x3f4ff7db	0.8123757
23	0xbebadd4b	-0.36496958
24	0x3f332a36	0.69986284
25	0x3f1071de	0.5642375
26	0xbf9097b9	-1.1296302
27	0xbd26b232	-0.040697284
28	0x3ecef293	0.40419444
29	0x3f6db0f5	0.9284814
30	0x3e950887	0.29108068
31	0x3dd50b7d	0.10402582

bn1.running_var f4 [32]
0	0x3f4e01ea	0.8047167
1	0x3d1956b1	0.03743619
2	0x3d6dacd5	0.058026154
3	0x3d19b7ca	0.03752879
4	0x3dbb8056	0.091553375
5	0x3d897ddb	0.06713458
6	0x3e797500	0.24361038
7	0x3db6f1a0	0.08932805
8	0x3e9d5639	0.30729845
9	0x3cff9bf0	0.031202286
10	0x3e68811b	0.227055
11	0x3e28673a	0.16445628
12	0x3d9f7081	0.0778513
13	0x3db1a336	0.08673708
14	0x3d39be69	0.045347605
15	0x3c8a938b	0.016916057
16	0x3e542c20	0.20719957
17	0x3de48e2f	0.11159932
18	0x3cf5cfaa	0.030006249
19	0x3d90e494	0.07074848
20	0x3e517e8b	0.20458429
21	0x3e0d8d96	0.13823542
22	0x3e8ba843	0.2727681
23	0x3d1c9d7a	0.03823612
24	0x3e7cebd4	0.24699336
25	0x3e03bbd3	0.12864618
26	0x3f1d008d	0.61328965
27	0x3dfc62c9	0.12323529
28	0x3eb687db	0.35650524
29	0x3ec1ae89	0.37828472
30	0x3e5dd2d8	0.21662462
31	0x3dac9177	0.08426183

bn2.weight f4 [64]
0	0x3f55ab0c	0.8346412
1	0x3f74cb35	0.9562257
2	0x3f743f5b	0.9540917
3	0x3f861c8e	1.0477464
4	0x3f80b94a	1.0056546
5	0x3f8342cd	1.0254761
6	0x3f8b53e9	1.0884982
7	0x3f84083a	1.031501
8	0x3f99e5c7	1.2023247
9	0x3f88e70f	1.0695513
10	0x3f7546b1	0.9581099
11	0x3f5194ea	0.8186785
12	0x3fa302db	1.2735246
13	0x3f8d69e0	1.1047935
14	0x3f8989f7	1.0745229
15	0x3f630e54	0.8869374
16	0x3f891caf	1.0711879
17	0x3f826b10	1.0188923
18	0x3f8666dd	1.0500141
19	0x3f64b3c6	0.8933681
20	0x3f5c7a22	0.8612386
21	0x3f8921da	1.0713456
22	0x3f50a14b	0.81496114
23	0x3f815ed7	1.0107068
24	0x3f7283ca	0.94732344
25	0x3f5d3804	0.864136
26	0x3f66ea88	0.90201616
27	0x3f823d1a	1.0174897
28	0x3f943244	1.157784
29	0x3f8c5a46	1.0965049
30	0x3f81a508	1.0128489
31	0x3f868301	1.0508729
32	0x3f75c376	0.96001375
33	0x3f6f21b2	0.9341079
34	0x3f76f4ed	0.9646748
35	0x3f76e3b8	0.9644122
36	0x3f8dda81	1.1082307
37	0x3f907d96	1.1288326
38	0x3f8de670	1.1085949
39	0x3f9697cf	1.1765078
40	0x3f978328	1.1836901
41	0x3f8b5e7a	1.0888207
42	0x3f784f6f	0.96996206
43	0x3f808909	1.004182
44	0x3f8ae0c5	1.0849844
45	0x3f8502c7	1.0391473
46	0x3f670508	0.9024205
47	0x3f69bcc2	0.91303647
48	0x3f836a5f	1.0266837
49	0x3f80ccd6	1.0062511
50	0x3f60feab	0.8788859
51	0x3f8f0fb8	1.1176672
52	0x3f991e0a	1.1962292
53	0x3f790fd0	0.9728975
54	0x3f8c90ba	1.0981667
55	0x3f61c184	0.88185906
56	0x3f81316d	1.0093209
57	0x3f714b56	0.9425558
58	0x3f84411d	1.0332371
59	0x3f813f2b	1.0097402
60	0x3f9346bc	1.1505961
61	0x3f77a475	0.96735317
62	0x3f812832	1.0090392
63	0x3f6d3d88	0.92672014

bn2.bias f4 [64]
0	0xbf10a1c6	-0.56496847
1	0xbeff7586	-0.4989435
2	0xbf08e134	-0.5346863
3	0xbece905e	-0.40344518
4	0xbef924f8	-0.48661017
5	0xbf0865d3	-0.5328037
6	0xbecf4fc0	-0.40490532
7	0xbef5de4c	-0.48021162
8	0xbf1c717e	-0.61110675
9	0xbf01356a	-0.5047213
10	0xbf1d1c25	-0.6137107
11	0xbede06b9	-0.43364504
12	0xbeb96a5b	-0.36213955
13	0xbecc8a6b	-0.39949355
14	0xbf1c6f64	-0.6110747
15	0xbf06decd	-0.52683717
16	0xbed09f0d	-0.40746346
17	0xbee8a738	-0.45440078
18	0xbf021215	-0.5080884
19	0xbf0254bc	-0.50910544
20	0xbf30c8c6	-0.69056356
21	0xbf037d4b	-0.51363057
22	0xbf196d05	-0.59931976
23	0xbf037fde	-0.51366985
24	0xbedfbc5b	-0.4369839
25	0xbf0ac57c	-0.5420759
26	0xbf173463	-0.5906431
27	0xbf0120f5	-0.50440913
28	0xbf0fb17e	-0.56130207
29	0xbefbd57b	-0.4918631
30	0xbec3a4c9	-0.3821166
31	0xbecc5511	-0.3990865
32	0xbf289d93	-0.6586544
33	0xbed1333c	-0.408594
34	0xbec523f8	-0.38504004
35	0xbec3bd14	-0.38230193
36	0xbe8ba6bf	-0.27275655
37	0xbeec4086	-0.46142977
38	0xbef582ab	-0.47951254
39	0xbeb5b410	-0.3548894
40	0xbed6fece	-0.41991276
41	0xbed5b4d8	-0.41739535
42	0xbed8f09e	-0.42371076
43	0xbeee3cab	-0.4653066
44	0xbed94e27	-0.42442438
45	0xbeba107c	-0.36340702
46	0xbec38a71	-0.3819156
47	0xbed58439	-0.4170244
48	0xbec8f28d	-0.39247552
49	0xbefff112	-0.4998861
50	0xbeee0bee	-0.46493477
51	0xbef83ea7	-0.484853
52	0xbedaef46	-0.42760676
53	0xbede1d9d	-0.43381968
54	0xbeb9e8be	-0.3631038
55	0xbf38280d	-0.7193611
56	0xbee567fd	-0.448059
57	0xbee71ca7	-0.45139048
58	0xbf1458fe	-0.5794829
59	0xbf0cde28	-0.55026484
60	0xbf094a00	-0.5362854
61	0xbee08462	-0.43851
62	0xbebb18ce	-0.36542362
63	0xbeceb2d2	-0.40370804

bn2.running_mean f4 [64]
0	0xbf8dfefe	-1.1093442
1	0x3fb34825	1.4006392
2	0xbf9df576	-1.2340534
3	0x3ee1fbeb	0.4413751
4	0xc0539921	-3.3062212
5	0xbe7a8121	-0.24463321
6	0xbf2c5328	-0.67314386
7	0xc03857d4	-2.8803606
8	0xbfc07abc	-1.5037456
9	0xc0142496	-2.314733
10	0xbfc6d81a	-1.5534699
11	0x3c48659a	0.012231255
12	0x3fdf5566	1.7447937
13	0x3eedb876	0.46429795
14	0xc07f2de7	-3.9871767
15	0xbfb7e995	-1.4368159
16	0xc023904f	-2.555683
17	0xbf8a7295	-1.0816218
18	0xbf52bf60	-0.82323265
19	0xbf9f91f4	-1.2466416
20	0x3db14005	0.08654789
21	0xbff3497a	-1.9006798
22	0x3fa74958	1.3069258
23	0xbfeb3616	-1.8375881
24	0xbfcf5e09	-1.6200572
25	0x3ec8affd	0.39196768
26	0x3ef1f947	0.47260496
27	0x400c04eb	2.1878002
28	0xbd30f45d	-0.043201793
29	0x4045ca3e	3.090469
30	0x3cecb44c	0.028894566
31	0xc024037d	-2.562713
32	0x3f764036	0.9619173
33	0xbfc4ac50	-1.5365086
34	0xc0337026	-2.80372
35	0xbec49584	-0.3839532
36	0xbf5693e8	-0.8381944
37	0xc03520c3	-2.8301246
38	0xbf2cb3aa	-0.67461646
39	0xbeffe4cf	-0.49979255
40	0x3f7f2eff	0.99681085
41	0x3e96e0d3	0.29468402
42	0xbf9ca9aa	-1.2239277
43	0xbfa889f1	-1.3167096
44	0xbee992e8	-0.45619893
45	0xbe6f98b2	-0.23398092
46	0xbf6b35e8	-0.9187913
47	0xbe339b06	-0.17539605
48	0xbfe56605	-1.7921759
49	0xbf9d97e5	-1.231198
50	0xbff94874	-1.9475236
51	0x3fa475a7	1.2848405
52	0x3fdfe77c	1.7492518
53	0xbf851e41	-1.0399858
54	0xbf82bfa3	-1.0214733
55	0xbf85b1b5	-1.0444857
56	0x3e9b8fde	0.303832
57	0xbf8a060f	-1.0783099
58	0x40073528	2.1126194
59	0x3ee1776e	0.4403643
60	0xbfeb37a1	-1.8376352
61	0x3f8ebad6	1.1150768
62	0xbf40ae7d	-0.7526625
63	0xbfcd6a45	-1.6048056

bn2.running_var f4 [64]
0	0x410b8927	8.720984
1	0x409ad14a	4.838048
2	0x40d08f97	6.517528
3	0x40c92f02	6.2869883
4	0x40c82211	6.2541585
5	0x40a82847	5.2549167
6	0x40f367bc	7.606413
7	0x410842e9	8.5163355
8	0x40b7d09b	5.7442145
9	0x40c22678	6.067196
10	0x40b5c4f4	5.680292
11	0x41082703	8.509524
12	0x40ae8f1c	5.4549694
13	0x40e70ba5	7.2201715
14	0x40bb8561	5.8600316
15	0x411276d5	9.154012
16	0x40f60a2d	7.688742
17	0x40a85609	5.2605023
18	0x40cf788e	6.483466
19	0x40efad9f	7.489944
20	0x40ad35f0	5.412834
21	0x40b7ab7b	5.7396827
22	0x40b42e52	5.6306543
23	0x4087ea9b	4.2473884
24	0x40cabd8d	6.3356385
25	0x40934bbc	4.602995
26	0x409cafac	4.8964443
27	0x40c32e7a	6.0994234
28	0x40864ff7	4.1972613
29	0x4081dc0e	4.058112
30	0x4087ecfc	4.2476788
31	0x409c3dbb	4.8825355
32	0x407617ea	3.8452096
33	0x40e3ae85	7.1150537
34	0x40b13535	5.537745
35	0x40c89188	6.267765
36	0x40b27e86	5.5779448
37	0x40a05af7	5.011104
38	0x40ab749d	5.357985
39	0x40bd0f58	5.908123
40	0x409f71e2	4.9826517
41	0x40c17edf	6.046737
42	0x40eb3159	7.349774
43	0x40aceeb9	5.404141
44	0x40a2408f	5.0703807
45	0x412af985	10.685918
46	0x41160cbe	9.378111
47	0x410811f0	8.504379
48	0x40f478bd	7.6397386
49	0x40939db4	4.613001
50	0x4103943d	8.223691
51	0x409997b6	4.7997694
52	0x40aaa7a1	5.3329625
53	0x40bdb4c9	5.9283185
54	0x40bdbc7e	5.9292593
55	0x409d763f	4.9206843
56	0x40cd6600	6.418701
57	0x411874aa	9.528482
58	0x4094b277	4.6467853
59	0x40e80fd6	7.251933
60	0x40a4c4a1	5.1490026
61	0x40fa777e	7.8270864
62	0x40c97264	6.2952137
63	0x40e0d9df	7.0265956

features.0.weight f4 [32, 1, 3, 3]
0	0x3e81f9b7	0.2538583
1	0x3ea29390	0.31753206
2	0x3e0b8599	0.13625182
3	0xbda02c70	-0.07820976
4	0x3e16daad	0.14731856
5	0x3e416fdc	0.18890327
6	0x3ea6c6fd	0.3257369
7	0x3e8cc5f7	0.27494785
8	0x3df0f60d	0.117656805
9	0x3d147f9f	0.03625452
10	0xbe24ed7a	-0.16106215
11	0x3dea8493	0.11451068
12	0xbcf68b72	-0.03009579
13	0xbea32923	-0.31867322
14	0xbe0a5292	-0.1350806
15	0x3e8ea141	0.27857402
16	0x3df90a31	0.12160147
17	0x3d9d81e5	0.07690791
18	0xbea66d06	-0.32505053
19	0x3e165510	0.14680886
20	0x3d200cd7	0.039074745
21	0x3e7ef7f9	0.24899282
22	0xbee6b25e	-0.45057958
23	0xbd14e017	-0.03634652
24	0xbd057135	-0.032578666
25	0x3e6cc9d6	0.2312387
26	0xbe57e3ae	-0.21082947
27	0xbeac9a7a	-0.33711606
28	0x3dc99800	0.09843445
29	0x3e8e63ba	0.2781046
30	0x3e835ae0	0.2565527
31	0x3dd60989	0.104510374
32	0xbe16ef0d	-0.14739628
33	0x3df3cd7d	0.11904428
34	0xbe8a05e2	-0.26957613
35	0xbd08a66d	-0.03336184
36	0xbe03dad0	-0.12876439
37	0xbe51371e	-0.20431182
38	0x3eabd401	0.33560184
39	0xbe9c41fd	-0.30519095
40	0x3db86b61	0.09004856
41	0x3e2375f3	0.15962963
42	0xbc360ee5	-0.01111195
43	0x3d686429	0.056736145
44	0x3cde5b3b	0.027143111
45	0xbc1d3467	-0.009595013
46	0xbd42725b	-0.04747234
47	0x3e38bf34	0.18041688
48	0x3e461034	0.19342119
49	0x3e9a3de7	0.30125353
50	0xbe7c98a2	-0.246676
51	0xbe89f727	-0.26946375
52	0x3e83b80d	0.25726357
53	0x3c6296c9	0.013829895
54	0x3e796c46	0.2435771
55	0x3dc55635	0.09635583
56	0x3ddbabec	0.10726151
57	0xbe9d3703	-0.30706033
58	0x3e66e3a2	0.22547773
59	0xbe571358	-0.21003473
60	0xbddb5c4a	-0.10710962
61	0xbeed0ca1	-0.46298698
62	0xbe678e40	-0.22612858
63	0xbe460fc4	-0.19341952
64	0x3e7617a4	0.24032456
65	0xbdc25287	-0.09488397
66	0x3e16b670	0.14718032
67	0x3e418d45	0.18901546
68	0xbe9ff9d5	-0.31245294
69	0x3db36f1b	0.08761426
70	0x3e1d0110	0.15332437
71	0xbebdd499	-0.37076262
72	0xbe24a342	-0.16077903
73	0xbd80e005	-0.06292728
74	0x3e9b72cb	0.30361018
75	0xbeb68c54	-0.35653937
76	0x3e1a98c6	0.15097341
77	0x3e58f6f9	0.21187963
78	0xbeba1d7d	-0.36350623
79	0xbec08304	-0.37599957
80	0xbd6428ad	-0.055702854
81	0xbd90ff6e	-0.07079969
82	0xbe55bc90	-0.20872712
83	0x3e8314e1	0.25601867
84	0xbe650262	-0.2236419
85	0x3e89a6f6	0.26885194
86	0xbc3b1ec4	-0.011420909
87	0x3e5ff4bc	0.21870703
88	0x3d4e02d7	0.050295677
89	0xbe900462	-0.28128344
90	0xbe899acd	-0.26875916
91	0xbe9c7c46	-0.30563563
92	0xbe9061ae	-0.28199524
93	0xbe8fa1d2	-0.28053147
94	0x3dc52b41	0.09627391
95	0x3d8bdb86	0.0682898
96	0x3e336b04	0.17521292
97	0x3e350d6d	0.17680903
98	0x3e04adf4	0.12956983
99	0x3de9ca48	0.11415535
100	0x3e8713c5	0.2638227
101	0x3c522a48	0.012827463
102	0x3daf5a2a	0.08562119
103	0xbe4b000b	-0.19824235
104	0xbe76c19a	-0.2409729
105	0xbebea3d3	-0.37234363
106	0xbe88103b	-0.26574883
107	0x3de66ea7	0.11251574
108	0x3e817f85	0.25292602
109	0xbea83b32	-0.32857662
110	0xbdb0f08e	-0.08639632
111	0x3d68f569	0.056874666
112	0xbe9182a1	-0.28419974
113	0x3e9e9fbb	0.3098124
114	0xbcf6eea1	-0.030143084
115	0xbe3938b6	-0.1808804
116	0xbd7f8e4f	-0.062391575
117	0xbd5d410c	-0.05401711
118	0x3d1ed6b8	0.03877899
119	0xbc849007	-0.016181959
120	0x3e51cc2c	0.20488042
121	0x3e364a17	0.178017
122	0xbceecba8	-0.029149845
123	0xbe87cc4c	-0.26523054
124	0xbe47aa4d	-0.19498558
125	0xbe8830ea	-0.26599818
126	0xbd4ca260	-0.04995954
127	0x3e00ac9e	0.12565848
128	0x3e4a0b75	0.19730933
129	0xbe86a788	-0.2629969
130	0xbe96094d	-0.2930397
131	0xbdd534cd	-0.104104616
132	0x3e3a26ab	0.18178813
133	0x3d5e1833	0.054222297
134	0xbdaeb3e7	-0.085304074
135	0x3d97c1df	0.07410025
136	0x3d9d7e09	0.07690055
137	0x3df23137	0.11825793
138	0xbdba33cd	-0.090919115
139	0x3e3d4125	0.18481882
140	0xbecc519a	-0.39906007
141	0xbe0135c2	-0.12618163
142	0x3e2f9543	0.17146783
143	0x3d8f104d	0.06985531
144	0x3e5f2faa	0.21795526
145	0xbd1d2a06	-0.038370155
146	0x3e66f3d1	0.22553946
147	0x3e0dde73	0.13854389
148	0xbc3ebe05	-0.011641984
149	0xbe9a4261	-0.30128768
150	0xbeaaf2e8	-0.33388448
151	0xbecec76d	-0.40386525
152	0xbb7c6175	-0.0038510237
153	0x3e3f6521	0.18690921
154	0x3e216b0d	0.15763493
155	0x3d04a020	0.03237927
156	0xbdf60caf	-0.12014138
157	0x3e861f2b	0.26195654
158	0x3e93d74d	0.288752
159	0xbe96dac2	-0.29463774
160	0xbebb1aa6	-0.3654377
161	0x3d27ef38	0.04099962
162	0x3e86d7e7	0.26336595
163	0xbea79fe3	-0.3273917
164	0xbe2416c7	-0.16024314
165	0xbca84d1c	-0.020544581
166	0x3ecaac8d	0.3958477
167	0x3e35b770	0.17745757
168	0xbce136de	-0.027491983
169	0xbe669d2a	-0.22520891
170	0x3d98afef	0.07455432
171	0x3da743da	0.081672385
172	0xbe8fea42	-0.28108412
173	0xbec063a9	-0.37576035
174	0x3d94d111	0.07266439
175	0x3dd7d3ba	0.105384305
176	0x3e8d5010	0.27600145
177	0x3e0bf49c	0.1366753
178	0x3e333d9e	0.17503974
179	0xbdde82a0	-0.108647585
180	0x3def52ed	0.11685739
181	0x3dcb20cb	0.09918364
182	0xbe2a7583	-0.1664639
183	0xbdfcfb1b	-0.12352582
184	0xbeb28561	-0.34867385
185	0xbe48d580	-0.19612694
186	0xbead4ce3	-0.33847722
187	0x3cb2d6e9	0.021830993
188	0x3ea1bcd2	0.3158937
189	0xbe871c94	-0.2638899
190	0x3e982004	0.29711926
191	0xbd32692f	-0.043557342
192	0xbe3b00f5	-0.18262084
193	0xbe8d0400	-0.27542114
194	0xbe3fcb4e	-0.18729898
195	0x3c81f32d	0.015863026
196	0x3bd7e51d	0.0065885917
197	0xbce04e3b	-0.027381053
198	0xbe8b9626	-0.27262992
199	0xbe90465c	-0.2817868
200	0xbda0bb91	-0.078482755
201	0xbe81da4d	-0.25361863
202	0x3e7b8f10	0.24566293
203	0x3e424e5a	0.18975201
204	0xbee38b78	-0.44442344
205	0x3dccae5d	0.09994195
206	0x3d8a8eaf	0.06765496
207	0x3c21229e	0.009834914
208	0x3e28a0d0	0.16467595
209	0x3d105b32	0.03524322
210	0x3d63f0cf	0.055649575
211	0x3e4b847f	0.19874762
212	0xbe6aa0aa	-0.22912851
213	0xbec2cd60	-0.38047314
214	0xbdd5ddf8	-0.10442728
215	0x3e906788	0.28203988
216	0xbe3ab5e0	-0.18233442
217	0xbe3ca95e	-0.18423983
218	0xbedeb4a4	-0.43497193
219	0xbe307668	-0.17232668
220	0xbdcc1955	-0.09965769
221	0x3e528212	0.2055743
222	0xbd090d37	-0.03345987
223	0x3bac6e9b	0.0052622086
224	0x3e5f5f4b	0.21813695
225	0x3e266ab9	0.16251649
226	0x3e70d070	0.23517013
227	0xbe6364e3	-0.22206454
228	0xbe78c91c	-0.24295467
229	0xbe9ebaa5	-0.31001773
230	0xbe9e53c4	-0.30923283
231	0xbc02a2bf	-0.007973372
232	0x3c4d791e	0.012541084
233	0x3e750c46	0.23930463
234	0x3dc57d12	0.09642996
235	0x3edf1248	0.43568635
236	0x3d9f4a77	0.07777875
237	0x3e17cd18	0.14824331
238	0x3d23e4ce	0.040013127
239	0x3e88cb37	0.2671754
240	0x3dd2f28d	0.10300169
241	0x3e3889e2	0.18021348
242	0x3dc742d5	0.09729544
243	0x3ea7b31a	0.3275383
244	0x3d772b86	0.06034424
245	0xbd829f1d	-0.06378005
246	0xbe04455a	-0.1291708
247	0x3d242a86	0.040079616
248	0xbe1d75ab	-0.15376918
249	0x3e856e10	0.26060534
250	0x3dde14cb	0.1084381
251	0xbeeb9b62	-0.46016985
252	0xbe279795	-0.16366418
253	0x3e6d735f	0.23188542
254	0x3eaf2d32	0.3421417
255	0xbe9e4e7f	-0.30919263
