apps/classify/mnist/params/CNN_Model_44.pth (torch, 909267 bytes, 32 tensors)

conv1.weight f4 [32, 1, 3, 3]
000000 89 75 eb 3d 1b 71 82 be 18 65 68 3e 25 d4 ac 3d
       0.114970274 -0.25476918 0.22694814 0.08438901
000010 5a fb e8 bc 6b ef 80 3e e1 22 b7 be aa a9 84 be
       -0.028440166 0.2518266 -0.35768798 -0.25910693
000020 dd a7 f7 be 90 72 9e be d0 92 e3 bd 64 7a 67 3e
       -0.48370257 -0.3094678 -0.11111987 0.22605282
000030 1c ae 83 be fa 6b 15 be 66 14 1c 3e 0e 9b d2 bd
       -0.25718772 -0.14591971 0.15242156 -0.102834806
000040 3a fb 70 be 21 6b a6 3e eb 66 88 3e b3 32 0f 3e
       -0.23533335 0.32503608 0.2664102 0.13984184
000050 c7 36 02 be 63 da 35 be dc ba a7 bd 0d 49 72 3e
       -0.12716208 -0.17759089 -0.081899375 0.23660679
000060 d2 c5 75 be 04 a0 ad 3d 04 4f 1f 3e 9b f8 67 3e
       -0.24001244 0.08477786 0.15557486 0.22653429
000070 71 4a 7e 3e 4d 5e 03 3d 20 0d 25 be eb c9 5f 3e
       0.24833085 0.032072354 -0.16118288 0.2185437
000080 ac 20 5e 3e a0 12 d1 be ae 13 b1 be 0a f2 6e 3d
       0.21692151 -0.40834522 -0.34585327 0.058336295
000090 78 55 ac 3d ae b0 04 3e 1f fe f2 3d 29 8b 5d be
       0.08414739 0.12958023 0.11864876 -0.21635117
0000a0 e7 51 8a 3e 24 3e 93 be ee a0 95 be 8d 8a 9f be
       0.27015612 -0.28758347 -0.29224342 -0.31160393
0000b0 64 27 0f be 61 c2 fd bc cf e7 59 3d 53 ee b1 3e
       -0.1397987 -0.030976476 0.053199586 0.3475214
0000c0 27 11 d4 bd 7c f6 a8 be 2a b2 84 bc 4a f5 1a be
       -0.10354834 -0.33000553 -0.016198236 -0.15132633
0000d0 26 93 77 bd 46 6e 94 be 8d 72 6c be e3 3b a4 3c
       -0.060443066 -0.28990382 -0.23090573 0.020048087
0000e0 9c ed 59 3e bb 9f 23 be 3f f9 8c be 84 26 97 be
       0.21282047 -0.15978901 -0.2753391 -0.29521573
0000f0 51 41 51 3e d1 67 39 3e 76 b1 fd bd 83 46 64 be
       0.20435072 0.18106009 -0.123873636 -0.22292523
000100 0a d3 51 be c1 2e be bd cd 8a 14 be f9 41 93 bd
       -0.20490661 -0.09286261 -0.14506073 -0.07190318
000110 4e ff bb 3e 59 ae 68 be 1e 5d 60 be 2e 15 ab 3d
       0.3671822 -0.22722758 -0.21910521 0.08353649
000120 76 c9 8a be 03 c9 85 be 8c 6c 9a be d6 d9 6b bd
       -0.27106827 -0.26129922 -0.3016094 -0.05758079
000130 49 f1 e9 3d ab 7f 76 3e 47 85 c4 bd 7f d9 3d 3e
       0.114229746 0.24072139 -0.09595733 0.1854
000140 3b 52 9a 3d b4 8c bf be 60 0f 2d bd ab 64 32 3e
       0.075352155 -0.37412035 -0.04225099 0.17421214
000150 ed d8 13 be 36 45 ce 3e f9 fb 10 be e8 54 a0 bd
       -0.1443822 0.4028718 -0.1415862 -0.078286946
000160 f1 5f 33 3e d1 c5 9a be 02 5e ea 3d 21 b6 f5 bd
       0.17517067 -0.30229047 0.11443712 -0.11997629
000170 02 3f af be c2 50 4a 3e a5 4f 8a bd 8d 42 44 be
       -0.3422776 0.19757369 -0.06753472 -0.19166012
000180 40 9d dc 3d 32 c4 3e 3e 9c 66 f9 3c d7 2b 5b bd
       0.107721806 0.1862953 0.030444436 -0.053508606
000190 a5 64 8c 3d c2 34 d6 bd c4 03 28 3c e4 eb 70 3e
       0.06855134 -0.104592815 0.010254804 0.23527485
0001a0 d6 ac 88 be 89 f2 06 3d a7 a8 a2 3e ab f4 e8 be
       -0.26694363 0.032946143 0.31769297 -0.45499167
0001b0 61 db 97 be 1c 50 5c be 50 d6 55 be 6a 19 f2 bd
       -0.2965956 -0.21514934 -0.20882535 -0.118212536
0001c0 ad cb 1f bd e8 ef 9a 3e ed 43 d1 3e 4c 22 a7 3d
       -0.0390126 0.3026116 0.40872136 0.081608385
0001d0 0c 7b 87 be 6b 4c 2c bd 0d 01 54 3d bd b8 1c 3e
       -0.26461065 -0.042065065 0.051758815 0.15304847
0001e0 15 a9 f7 3e 61 2c 5a bd e6 64 87 3d 76 5c b7 bd
       0.48371187 -0.05326498 0.06611042 -0.089531824
0001f0 7d cf d5 3d 0a 18 da be e8 dc 32 3e 56 73 58 bd
       0.10439966 -0.42596465 0.17467082 -0.052844368
000200 30 55 a1 be 78 e3 70 3d 11 4e 5f be fd 43 5f 3d
       -0.31510305 0.05881068 -0.21807124 0.054508198
000210 c3 81 3f 3e 89 3b 9e be ce 3c 1c be a3 9b a2 3e
       0.18701844 -0.30904797 -0.1525757 0.31759366
000220 6f 2f 04 bc ba c0 1d 3e 88 d3 88 3e 6b c1 93 3d
       -0.00806795 0.1540555 0.26723886 0.07214626
000230 28 fb 22 be d5 d4 9a be 12 26 bd be f0 e2 f1 be
       -0.15916121 -0.30240503 -0.36943108 -0.47243452
000240 1f 26 1d be d5 50 8b 3d eb c0 54 bd 82 68 70 be
       -0.15346573 0.06802527 -0.051941793 -0.23477367
000250 9b 87 a3 bb 5c 64 9f 3e 6e bb 07 3e bc 0f a2 be
       -0.0049905307 0.31131256 0.13255093 -0.3165263
000260 ef a6 72 be 57 3f e3 bc fe b3 80 3e b9 d6 12 3e
       -0.23696493 -0.027740164 0.25137323 0.14339723
000270 44 50 b1 3e 78 99 9f ba 9d 9e b1 3d 51 14 6e be
       0.3463155 -0.0012176475 0.08672831 -0.23249938
000280 a8 7b c9 be 2c 4c d9 bc e4 a3 cb be 41 35 98 bd
       -0.39352155 -0.02652558 -0.39773476 -0.074320324
000290 e8 8d 8c be 3a 4b 18 3d ad 9c b9 3e 3b 1e a3 3e
       -0.27452016 0.037181117 0.36252347 0.31859002
0002a0 52 02 d0 bb ca f0 63 3e b6 be d3 be dd e9 9a 3e
       -0.006347933 0.22259822 -0.41356438 0.3025655
0002b0 aa 2a 7a 3e 9f 27 b5 be d3 be 0e be e5 7c 58 be
       0.24430338 -0.3538179 -0.13939981 -0.21141393
0002c0 e3 14 74 be 96 93 c4 bd dd 4e 44 be 80 ff 56 3b
       -0.23836093 -0.09598462 -0.19170709 0.0032806098
0002d0 f0 b5 51 be de a1 7e bb 12 73 0e be 8a c3 80 3e
       -0.2047956 -0.0038853805 -0.13911083 0.25149184
0002e0 47 23 5a be ec e4 70 be 0a ea 73 be fa 4d 91 3e
       -0.2130252 -0.23524827 -0.23819748 0.28379804
0002f0 61 8c 90 3e 34 9c 79 3e bd 9e 3e 3e f6 b9 6c bd
       0.282321 0.24375993 0.18615241 -0.057794534
000300 6f 29 3d be 2a 51 ca be 99 18 98 be c2 3c 21 be
       -0.18472837 -0.39515048 -0.29706267 -0.15745834
000310 56 f1 9e 3b 86 9a 89 3e 72 38 e0 be 18 8d 9c bd
       0.004850547 0.26875705 -0.43793064 -0.07644099
000320 85 a1 84 3e 60 71 1a be 76 cd a9 3d 20 d1 84 3e
       0.2590448 -0.15082312 0.08291142 0.259408
000330 d2 26 fa 3c 6b 8a a3 3d 10 d4 b6 3d 21 03 d1 be
       0.03053609 0.079853855 0.089271665 -0.408227
000340 3c aa 20 ba 76 4e b8 3c dc 16 e4 bd 5c 11 49 3e
       -0.00061288825 0.02249835 -0.111371726 0.19635528
000350 8b e3 58 3b 03 f0 47 be de 43 98 bb 93 60 46 3e
       0.003309461 -0.19525151 -0.0046467623 0.19372778
000360 77 cf 33 3d f4 c5 3e be e7 22 8f be f6 91 63 3e
       0.043899026 -0.186302 -0.27956316 0.22223648
000370 b9 d0 3e 3e 8e 92 d1 3c ff 99 5f be 19 da f9 3d
       0.18634309 0.025582578 -0.21836089 0.12199802
000380 8f 97 0d 3e 12 ee 5a 3d 0e b9 94 3d 8a ca 44 be
       0.13827346 0.053449698 0.07261859 -0.19217888
000390 64 a8 62 3e 87 7d c4 be b5 73 29 3e 37 e2 b0 be
       0.22134548 -0.3837702 0.16548045 -0.34547588
0003a0 86 72 3e 3e eb 37 94 3c 89 0d 17 be fe 69 25 be
       0.18598375 0.01809307 -0.14751257 -0.16153714
0003b0 58 c3 84 3e 24 3d c0 be b9 c8 25 bd cf cd c4 3d
       0.25930285 -0.37546647 -0.040474627 0.096095674
0003c0 9f 16 9a be ea e1 4f be 13 4c 5b bd cb 71 07 3d
       -0.30095384 -0.20301023 -0.053539347 0.033067506
0003d0 68 d7 15 3e 5a 80 c9 3e 2d 22 63 be 2b ee 18 3e
       0.14632952 0.39355737 -0.22181006 0.14934604
0003e0 3a eb 8d bd 5f f0 ca 3e 61 4f 91 3e d2 e3 ca bd
       -0.069296315 0.39636514 0.28380874 -0.099067345
0003f0 73 8d 17 3c fc c0 d1 3b 1b 82 ac 3e c5 76 92 3b
       0.009250033 0.0064011794 0.33693013 0.004469725

conv1.bias f4 [32]
000000 b8 74 a9 3e 36 81 40 be bb 57 06 3d 42 be 4c ba
       0.33096862 -0.1879929 0.03279851 -0.0007810333
000010 7c 9d 15 bd ef 6f 17 3e c9 7d 88 3d 14 78 cd 3d
       -0.036527142 0.14788793 0.066646166 0.10032669
000020 64 42 67 be 2d cb be bd 7e 27 86 be 4f 5f 09 3e
       -0.2258392 -0.093160965 -0.26202005 0.13415264
000030 37 fa 8a 3e 3d 5e 96 be 56 15 5a 3e fa 15 14 3e
       0.27144024 -0.29368773 0.21297202 0.14461508
000040 aa 87 ac 3e 0d 64 b8 bd 68 e4 16 be 1b 85 48 be
       0.33697253 -0.09003458 -0.14735568 -0.19582026
000050 f6 ee b2 bd 23 2d 60 3d 12 ac 4d 3e b1 31 f8 3d
       -0.087369844 0.054730546 0.20085171 0.12118853
000060 94 cb 59 be 76 72 34 3d 06 3f 4e be f3 07 16 be
       -0.21269065 0.04405447 -0.20141229 -0.1465147
000070 d9 02 df 3d 3d 68 5f be b3 d7 03 be c7 ee 20 3e
       0.10889215 -0.21817107 -0.12875251 0.15716086

conv2.weight f4 [64, 32, 3, 3]
000000 44 0a 8a bd 17 1a af bb d8 2d 75 3a 59 00 39 be
       -0.06740239 -0.0053436863 0.00093528396 -0.18066539
000010 2d da 2c be 7c d3 97 3c df 5f 93 bd 32 ce 78 3d
       -0.16880102 0.01853346 -0.0719602 0.06074352
000020 38 39 99 3d 1e e3 76 3c 6a ee fd bc d0 4b 73 3a
       0.07481617 0.015068797 -0.030997474 0.00092810113
000030 94 df 30 be 07 67 6b 3b 27 80 02 be 9a 6d 1a bd
       -0.17272788 0.0035919563 -0.12744199 -0.03770218
000040 34 b4 3d be 36 94 6e be 88 02 67 be 6d 28 88 bd
       -0.18525773 -0.23298725 -0.2255956 -0.066483356
000050 30 f0 39 bd 79 41 6f bd c9 77 65 bc 66 3d 4c be
       -0.045395076 -0.05841205 -0.01400561 -0.19945297
000060 9b ba 11 bd 61 63 d6 bd d4 23 80 3d 86 d4 65 bb
       -0.03557835 -0.10468174 0.06256834 -0.00350693
000070 8f cb cc bd 9d 2e b3 bb 7f 3d 96 be 87 da 93 be
       -0.09999763 -0.005468203 -0.29343793 -0.2887766
000080 36 5f 45 3c 5f 41 e4 3c 41 60 50 bd 16 89 2f bb
       0.012046626 0.027863203 -0.050873045 -0.002678459
000090 1e e1 d5 bd 94 5e cf bd bb 8e 90 3d 68 47 cc bd
       -0.10443328 -0.10125461 0.07058474 -0.09974557
0000a0 a2 8d 82 be 48 1c ae 3d 34 d4 14 be 18 25 ca 3d
       -0.25498682 0.08501488 -0.14534074 0.09870356
0000b0 a0 6b b2 3d f6 c8 9e bd fe 0f 7f 3d 2c 3c 5f 3d
       0.08711934 -0.07753174 0.06227111 0.054500744
0000c0 5b 1e 16 be c2 f7 ab bd 8c 8c 01 3c 08 57 f3 bc
       -0.14660017 -0.083968654 0.007907044 -0.029704586
0000d0 82 0e 78 bd 6f da 0c 3e ef 60 47 bd 1d 22 cf bd
       -0.06056071 0.13755201 -0.048676427 -0.101139285
0000e0 5e 46 33 be 08 58 1f bd 14 95 aa be 7f ac 9a bd
       -0.17507312 -0.038902313 -0.33316863 -0.07552432
0000f0 e4 2a 00 3e ce e9 a9 3c c2 18 1a be fe bc 2d 3d
       0.12516361 0.02074137 -0.15048507 0.042416565
000100 e3 7b 25 be 7e cb f1 bd 70 0c b4 bc 64 96 79 3d
       -0.1616054 -0.11806391 -0.021978587 0.06093444
000110 a7 15 3b be 98 35 98 3b 80 3f 0d be af 67 ab bd
       -0.18269978 0.0046450607 -0.13793755 -0.083693855
000120 f8 59 89 bd 4b 76 e4 bc 04 c8 db bb 82 23 1a bd
       -0.06706613 -0.027888438 -0.0067071933 -0.03763152
000130 6b d1 d8 3d 5a 2e bc bc 2c dc 4e be ac 25 3f be
       0.10586818 -0.02297132 -0.20201176 -0.18666714
000140 21 e1 2f 3d 4e 7f 82 3e b8 b3 a5 3c 1f 9a f4 bd
       0.04293931 0.2548775 0.020227298 -0.11943459
000150 68 b2 49 3e 09 49 2b 3e 33 a1 26 3e 27 61 81 3d
       0.19696963 0.1672708 0.1627243 0.063173585
000160 82 8f 84 3d 89 ef b4 3c 6c d1 38 bc de e0 83 bc
       0.064726844 0.022086876 -0.011280399 -0.016098436
000170 14 1c 42 bd 57 a4 c8 3d 4e 18 41 be e0 de ae be
       -0.04739006 0.0979697 -0.18856928 -0.34154415
000180 48 a1 74 bd 5e 5c 18 be dc 39 00 be 52 9c a5 3d
       -0.059724122 -0.14878985 -0.12522072 0.08086456
000190 8e 49 01 3c 21 16 aa bd 4c 0d a8 bd 0c 85 1f be
       0.007891072 -0.08305002 -0.08205661 -0.15578097
0001a0 00 34 ad 3d ac ad 51 bd 57 7c 40 3c 74 84 39 3d
       0.08457184 -0.051191017 0.011748395 0.045292333
0001b0 42 32 53 bc 6f 22 24 be ca 0b 06 3e 56 aa 3e bd
       -0.0128904 -0.1602876 0.13090435 -0.046549164
0001c0 6d c9 3a 3e d8 e1 e6 3d 5a 45 ef bc e8 7a 8f bc
       0.182409 0.11273545 -0.029207874 -0.017514661
0001d0 9f 90 dc 3d 4c 01 9b bd 2e 71 87 be a4 8a 48 be
       0.10769772 -0.07568607 -0.26453537 -0.19584137
0001e0 00 00 4a be c8 0e c9 bc 89 e7 51 3e 46 36 09 3d
       -0.19726562 -0.024543181 0.2049848 0.033499025
0001f0 4e 11 f5 3c 35 bf 8d 3d 3b 23 82 bc ec 93 42 3d
       0.029915478 0.069212355 -0.01588594 0.04750435
000200 c9 9d 88 be c8 19 db bc 58 67 4d be 6a bd 14 be
       -0.2668288 -0.026745692 -0.20058954 -0.1452538
000210 5a c4 cb bd 02 27 5f be 77 73 9c 3d a2 84 94 3c
       -0.099495605 -0.21792224 0.07639211 0.01812965
000220 3c 61 5b bd 45 ee 8f be 8b 4c 72 be c8 d3 7e be
       -0.053559527 -0.28111473 -0.23662011 -0.24885476
000230 81 cc 19 3e ae d8 28 be 1e 6f 27 3c 04 e7 34 3e
       0.15019418 -0.16488907 0.0102193635 0.1766625
000240 93 d5 4f be 94 73 dc bd 76 53 7a bd 36 5b 48 bc
       -0.20296316 -0.10764232 -0.06111475 -0.012228778
000250 5f d1 05 3d 77 a4 09 3d 83 60 f7 3d 28 9b 9c bd
       0.032670375 0.03360411 0.12078955 -0.07646781
000260 c6 02 bc bd 12 68 39 bd 86 e4 19 3d 36 06 59 be
       -0.091802165 -0.045265265 0.037571453 -0.21193776
000270 75 4c 93 be 36 a8 92 bd 91 bd a2 3e 75 bf e2 bd
       -0.2876927 -0.0716099 0.31785253 -0.11071674
000280 8f 1f ec 3d da 91 39 3e 53 fe 12 3e 07 43 db bb
       0.11529457 0.18122044 0.1435483 -0.00669134
000290 b6 36 9a 3d bd 03 e6 3d 6a 24 57 3e 04 83 5c 3e
       0.075299665 0.11231182 0.21009985 0.21534353
0002a0 1c 26 f8 bb ff f9 1b 3d 23 87 1c bd 83 e5 e7 bc
       -0.0075729024 0.03808021 -0.038214814 -0.028307682
0002b0 f1 08 a5 bd 4a a6 18 be a6 ea cd bd 9a 83 ae 3d
       -0.08058346 -0.14907184 -0.10054521 0.08521195
0002c0 b3 10 b7 3d 97 42 28 be 7b 56 74 bd 1b 7e d1 3e
       0.08938732 -0.16431652 -0.059652787 0.40916523
0002d0 af 14 26 be 1b 0c c5 3d b0 eb da 3c 9c 92 b4 bc
       -0.16218828 0.096214496 0.026723713 -0.022042565
0002e0 f8 44 31 3d 2e 89 49 3d 6b 68 05 be a4 4f 04 be
       0.043278664 0.04920309 -0.13028114 -0.12921005
0002f0 de ad 2e bd f5 73 41 bd e1 a2 bb bc ce 09 e4 3d
       -0.04264628 -0.047229726 -0.022904815 0.111346826
000300 ea cc d3 bd 2f 8e fe 3d 9c 5b 61 3e e2 00 8c be
       -0.10341819 0.12429463 0.22007602 -0.27344424
000310 fb 45 8a 3c da e7 e5 3e 26 db 3a 3d c2 1f 61 bd
       0.016879072 0.4490345 0.045619152 -0.054961927
000320 4f 38 49 3e a7 d2 a9 3a 3d 73 ba 3d 06 2c e7 3d
       0.19650386 0.0012956456 0.09104011 0.11287694
000330 58 ac 27 be 45 25 f8 bd 00 52 42 be 8c 69 a0 3d
       -0.16374338 -0.121164836 -0.18976593 0.078326315
000340 a5 7d d1 bd 80 c7 31 3c 54 09 28 bd 7e f0 0c bb
       -0.10229043 0.010850787 -0.04102452 -0.002150565
000350 7e 99 96 bc 14 20 dd 3c 64 4a 01 be d4 69 6f be
       -0.018383738 0.026992835 -0.12626034 -0.23380214
000360 f8 6a 03 be f8 40 eb 3b 9f e8 eb 3c 8c 31 e6 3b
       -0.12833774 0.0071793757 0.028797446 0.0070249494
000370 68 88 be bc 82 28 33 bd fd d5 07 3e d8 1d 7f 3d
       -0.023258403 -0.043739803 0.13265224 0.06228432
000380 7a 8c 1f be 46 71 e5 3b c2 5a 73 bd 65 eb 98 be
       -0.15580931 0.0070020286 -0.059412725 -0.29867092
000390 3e c5 cd bd 81 ac 13 3e 63 45 fd bd f7 33 24 bd
       -0.100473866 0.14421274 -0.1236675 -0.04008862
0003a0 38 d7 a9 bb ab 3f 05 3e b8 e4 17 3c e2 f1 12 be
       -0.005183127 0.13012569 0.009270839 -0.14350083
0003b0 d1 8f 91 bd 33 d8 06 be a0 2b 80 be f2 2f 99 be
       -0.07107509 -0.13168411 -0.25033283 -0.29919392
0003c0 a2 9e 8e bd 96 74 23 be a7 1a 80 be c4 a6 f1 3b
       -0.069638506 -0.15962443 -0.25020334 0.0073746163
0003d0 96 21 2c bd e0 f3 9c 3b e0 e0 3a 3d e8 98 da 3d
       -0.042024218 0.0047898144 0.045624614 0.10673696
0003e0 6c b5 4f 3c 86 f8 30 ba 5c d1 8a bb 8c fb 0b be
       0.012677532 -0.00067509 -0.0042363834 -0.13670176
0003f0 b6 0e ed bd b4 f5 a5 bc 04 94 1e be eb 74 df bd
       -0.115750715 -0.020258762 -0.15486151 -0.10910972

conv2.bias f4 [64]
000000 0c 82 12 3d de ea 0a 3c 0a d4 a6 bc b3 d9 02 3d
       0.035768554 0.008478848 -0.02036478 0.031945895
000010 44 57 3e bb 32 8e 91 3c f8 35 91 3c 83 c7 91 bc
       -0.0029043714 0.017768 0.01772593 -0.01779533
000020 ee aa b4 bc a9 6a 78 3c 7d d8 5a 3d 87 a1 59 3d
       -0.022054162 0.0151621485 0.053429116 0.05313256
000030 1c af be bc e3 19 7f bb b1 a2 84 bc ea 23 d1 3a
       -0.023276858 -0.0038925342 -0.016190859 0.0015956138
000040 7f ae 5c 3d a8 72 1a bd 37 c3 dc bc b7 eb 60 3d
       0.05387735 -0.037707 -0.026948554 0.054912295
000050 df 8e 3e bd 1b 4c 69 3d 2a 8b 32 3d a2 81 44 bc
       -0.04652297 0.056957345 0.04358975 -0.0119937975
000060 a5 5d 54 bd 1d 2e 5d 3d ef 5c 07 bc 93 e3 16 bc
       -0.05184712 0.053999055 -0.008261903 -0.009209531
000070 48 52 3e 3d ec 80 af 3c 47 ba 35 3c 05 b6 c1 bc
       0.04646519 0.02142378 0.011091775 -0.023646364
000080 64 dc eb 3c 8a 67 5f 3c 9b 82 33 bd 49 97 30 bb
       0.028791614 0.0136355255 -0.043825727 -0.0026945642
000090 32 e8 a1 bc 63 94 99 3c 60 f6 3f bd 58 42 47 bc
       -0.01976404 0.018747514 -0.04686582 -0.012161814
0000a0 82 b8 80 bc 68 e8 25 3d fd 2e 12 bc fe 2a 80 bb
       -0.01571298 0.040504843 -0.008922336 -0.003911375
0000b0 cc e3 55 bd 53 54 2c 3d bd 8f f1 3c 72 59 6e 3d
       -0.052219197 0.042072605 0.029487485 0.05819077
0000c0 da 5c 21 3d 1a c2 0a 3b d2 d2 8d 3c e4 7e 6a 3d
       0.03939519 0.0021172822 0.017312441 0.05724992
0000d0 4a 03 b2 3c 24 be 62 3d 28 21 59 bd 12 18 df 3c
       0.021730084 0.055357113 -0.053010136 0.027233157
0000e0 c2 53 b6 bc eb 7e 46 bd 28 5c 12 bd 03 2d ae bc
       -0.022256736 -0.048460882 -0.03573242 -0.021261698
0000f0 c2 8d 3d 3c fe 93 15 bd c1 c2 43 bc 77 6b ee bc
       0.011569442 -0.03651809 -0.011948288 -0.029103978

l1.weight f4 [128, 1600]
000000 cc b6 6c 3b 6b 07 ee bc 18 08 aa 3b 07 76 4d bc
       0.0036119698 -0.029056272 0.005188953 -0.012540347
000010 56 92 99 3c b0 a5 9c bc 6c ab d6 bc 50 37 e5 3b
       0.018746536 -0.019121975 -0.026204787 0.006995119
000020 df b8 04 bc c0 ef 07 3b 68 0a f8 bc 8c a9 1d bb
       -0.008100717 0.0020742267 -0.0302784 -0.0024057357
000030 84 06 fe bc 60 5f eb 3b 4c 9e 62 3c 4e c2 be 3c
       -0.031008966 0.0071830004 0.013831686 0.023286011
000040 26 e2 23 3c 30 37 f3 bc e4 ca 2f bc 08 5d c7 bc
       0.010002648 -0.029689401 -0.010729525 -0.024336353
000050 fc c0 a5 bb 82 46 c7 3b 82 aa ef 3c 9d c8 01 bc
       -0.005058406 0.0060814032 0.02925611 -0.007921365
000060 c5 39 40 3c ba 78 0e bd f2 a7 8f bc 6d 4e 0e bd
       0.011732523 -0.034783103 -0.017536137 -0.03474276
000070 6a 08 8f bc 54 10 b2 3b 9a e5 28 3c 3c fd 63 bc
       -0.017460067 0.0054340754 0.0103086475 -0.013915356
000080 72 0d 99 3b 32 7c 31 3c 50 ac a3 3b 34 28 76 bc
       0.0046707923 0.010832833 0.0049949065 -0.015024234
000090 74 56 e9 bc 19 46 0f bd d9 46 4c 3c 2f 8e 5d 3c
       -0.028483607 -0.03497896 0.012468063 0.013522669
0000a0 ec ba ac bc be 42 0e 3d 92 d5 9f 3b b0 95 db 3a
       -0.021085225 0.03473162 0.0048777545 0.0016752984
0000b0 f0 9a df ba 30 d2 a4 bc f0 14 92 bc 36 95 fd bc
       -0.0017059725 -0.020119756 -0.01783225 -0.030954938
0000c0 00 9f bc b8 c8 23 a7 ba bb 66 0d bd 3c 63 9d bc
       -8.9941546e-05 -0.0012751753 -0.0345218 -0.019212358
0000d0 94 dc 2f bb d0 c9 33 ba d4 33 a0 bc 40 cf 6d 3b
       -0.0026834356 -0.00068583805 -0.019555964 0.003628686
0000e0 fe 44 e4 3c 84 dd ce bb 48 b6 90 bc 7f f1 51 3c
       0.02786493 -0.006313028 -0.017665043 0.012813925
0000f0 13 a1 31 bc f0 7a 5d ba c0 e9 32 3c 47 b6 97 bc
       -0.010841626 -0.00084488 0.010919988 -0.018519534
000100 6d 5a 0f bc c3 75 19 3c db 71 6a 3c 27 85 bb bc
       -0.0087495865 0.0093664555 0.014309372 -0.02289064
000110 1a 99 aa bb 96 47 fd 3c e0 eb 1e bc 3c 21 e2 3c
       -0.0052062394 0.030917924 -0.009699792 0.027603738
000120 20 2d 0b 3b 38 00 e4 bb 17 79 41 bc 9c 1c e9 bc
       0.0021236613 -0.006958034 -0.011808655 -0.028456025
000130 1c 17 94 bc e5 1d 0e bd 5e b3 00 bd 02 40 91 3b
       -0.018077426 -0.03469648 -0.031421058 0.004432679
000140 6c 39 0f 3c 39 43 02 bd 38 01 33 3c b4 f1 c8 bc
       0.008741718 -0.03180239 0.010925584 -0.024529316
000150 2c 71 96 3b 00 79 5d b8 1d 1d 87 bc 05 0b 3a 3c
       0.004591128 -5.2803196e-05 -0.016493374 0.011355166
000160 f0 43 48 3a d8 ed 83 bc 20 d4 e2 3a 6b 20 ad bc
       0.0007639518 -0.016104624 0.001730565 -0.021133622
000170 7a a0 e7 bc 27 c6 53 3c ab ac 66 3c 6c 04 3d 3c
       -0.028274763 0.012925661 0.014079253 0.011536699
000180 fc 96 91 bc be 57 e1 bc 96 55 b0 bc b1 4d 20 bc
       -0.01777219 -0.027507659 -0.021525186 -0.009784148
000190 13 ea 7f bc fa 10 bb bc e4 e5 da bc 28 c1 f4 3a
       -0.0156197725 -0.022835243 -0.026720949 0.0018673288
0001a0 00 d6 d2 38 8c 64 92 bc 06 d6 ec bb ec bc 2a 3b
       0.00010053441 -0.01787021 -0.007227662 0.0026052548
0001b0 c6 c2 e6 3b 29 2d 9a bc 38 a0 8a bc 38 df 13 bc
       0.007042262 -0.018820362 -0.016922101 -0.0090253875
0001c0 96 84 90 3c ec 49 0c 3c f2 0b d4 bb bc 61 55 3b
       0.017641347 0.008562546 -0.0064711506 0.0032559475
0001d0 28 62 1d bc 16 93 e3 3c 80 c1 ab 3b 90 3a ef bb
       -0.009605922 0.027780097 0.005241573 -0.0073006824
0001e0 04 83 0d bd 98 7a ed bc ef df 8e bc d9 41 a7 bc
       -0.034548774 -0.028989121 -0.017440764 -0.02041714
0001f0 1c 45 1e bc 3e 06 8a bc d0 82 a2 bb 06 79 06 bd
       -0.009660032 -0.01684868 -0.0049594417 -0.03283026
000200 da e3 4c bc 76 11 82 3c fe 71 3d bc 30 81 fc bc
       -0.012505496 0.015877467 -0.011562822 -0.03082332
000210 b5 01 f5 bc e2 e2 61 3c 18 3d c5 bc 1c 1d 3c 3b
       -0.02990804 0.013787003 -0.024076983 0.0028703874
000220 78 0b 54 3b 44 5e 05 bc b0 6d 9c 3a 03 25 2a bc
       0.0032355469 -0.00814015 0.0011934545 -0.010384801
000230 e4 c4 15 3b d8 7f 99 bc 50 ec 22 bc 28 dd c3 bc
       0.0022852952 -0.018737718 -0.009944037 -0.023909166
000240 48 e7 72 3b 04 98 ef bc 54 55 ed 3b 9b 67 6e 3c
       0.0037064124 -0.029247291 0.007242838 0.014551069
000250 bc 19 a8 bc 26 94 82 3b e2 29 ae bc 1a 49 9c bc
       -0.020520084 0.003984946 -0.021260206 -0.019077826
000260 90 4b 18 3c 73 8f ea bc 04 d9 16 bb 74 af 05 3c
       0.009295359 -0.028632855 -0.0023017535 0.008159507
000270 5b 75 6c bc eb 47 c4 bc 72 12 2e bc 56 0d 81 3b
       -0.014432277 -0.023960074 -0.010624515 0.0039383573
000280 77 47 08 bd e5 53 27 3c 5b f8 64 3c 69 45 0f bd
       -0.03327128 0.010212873 0.013975228 -0.034978304
000290 c9 86 6f 3c fa 2a a6 bb 38 9d ae 3a 7c f4 47 bc
       0.014619538 -0.005071041 0.0013322001 -0.012204286
0002a0 1c a7 ea 3b af 6a 15 3c 9a 29 50 bc 06 4f 0a bd
       0.0071610343 0.009119674 -0.012705231 -0.03376677
0002b0 c0 84 ef 3b 1f 33 36 3c 00 28 be b7 54 65 a0 3b
       0.007309526 0.011120587 -2.2668391e-05 0.0048948918
0002c0 f3 c5 ff bc 40 96 d3 39 e1 eb 83 bc 5f 10 70 3c
       -0.03122232 0.00040357 -0.016103687 0.014652341
0002d0 3e f9 e2 bb d8 17 f6 bc 54 74 71 3b 00 02 8c ba
       -0.0069266846 -0.030040666 0.0036843019 -0.0010681748
0002e0 a0 54 fd ba f4 40 df bb 3f e4 b5 bc 38 c7 cf bb
       -0.0019327588 -0.006813163 -0.022203563 -0.0063408874
0002f0 74 00 ea bb b6 a4 fe 3b be df e0 bc e4 a3 4a 3b
       -0.0071411673 0.0077711 -0.027450439 0.003092044
000300 b4 98 a2 bc c8 8d 50 3c 7f 4d 21 bc e2 e2 49 bc
       -0.019848205 0.012729116 -0.009845137 -0.0123221595
000310 00 0f ec ba a8 7e a2 bc 86 ea b0 3b 06 0c 39 bc
       -0.0018009841 -0.019835785 0.005399051 -0.0112943705
000320 e9 39 84 bc 2a 0d 14 3c c4 a6 b6 bc f7 0f 11 bc
       -0.016140895 0.009036342 -0.022296317 -0.008853904
000330 5c 75 07 bd 8e 9d d7 3b 48 42 f1 3b 98 03 80 bc
       -0.033070907 0.0065800613 0.0073626377 -0.015626714
000340 8b 2c 22 3c 80 99 e6 3a fd a2 a2 bc 02 dd 09 3d
       0.009898315 0.0017593354 -0.01985311 0.033658035
000350 5b cd 96 bc 19 67 41 bc 0c 15 23 bc 00 ac 04 bd
       -0.018408468 -0.011804366 -0.009953748 -0.032390594
000360 f6 db 1d bc 70 51 50 ba 40 50 f8 3b 88 60 f4 bb
       -0.009634962 -0.00079467054 0.007577926 -0.0074577965
000370 50 70 f1 ba 0a 7e fc bc 1b 3c 63 3c 4e bd 65 bc
       -0.0018420313 -0.030821819 0.013869311 -0.014022185
000380 84 1e b7 bc fd 95 04 3c 7a 6d ce bc a5 10 02 bd
       -0.022353418 0.008092401 -0.025198687 -0.031754155
000390 e1 64 40 3c 5a b7 7e bc 3e 30 0c 3c 4c 6b 21 bc
       0.011742801 -0.015546644 0.008556424 -0.009852242
0003a0 7d e5 2a 3c 7d e5 54 bc b0 a5 7d bb 34 78 c6 3b
       0.010430691 -0.012994167 -0.0038703494 0.00605681
0003b0 d0 2c f7 bc cc 89 02 3c 40 80 88 bc 2a 3e 2d bc
       -0.030172735 0.007967424 -0.016662717 -0.010573903
0003c0 30 5e b8 bc a4 db da bb 50 95 38 ba d6 f7 6e bc
       -0.02250585 -0.0066790152 -0.0007041292 -0.014585456
0003d0 10 be 18 3b d8 12 8c ba 08 4e 42 bc d1 ae 71 3c
       0.0023306645 -0.0010686768 -0.011859424 0.014751152
0003e0 02 5a 0a bd a4 76 90 3b f9 b1 b1 bc a4 db fe 3b
       -0.033777244 0.0044086743 -0.02169131 0.007777648
0003f0 8e 67 ec bb 3d e9 c3 bc a3 73 6d bc fd 66 72 bc
       -0.007214493 -0.023914928 -0.014492902 -0.014795062

l1.bias f4 [128]
000000 f8 41 88 3b 7a e0 22 be f5 e2 e3 bb ba f6 cc bc
       0.0041582547 -0.15905944 -0.0069545456 -0.025019992
000010 f7 16 47 be 28 a7 14 be 00 7e 06 bb 6c c3 00 be
       -0.19442354 -0.1451689 -0.002052188 -0.12574548
000020 8a 7d 09 be 9b 04 02 bd 8f 98 d1 bd f0 3a 3e ba
       -0.13426796 -0.031742673 -0.10234176 -0.0007256707
000030 20 eb db bc 4a 42 91 3b 88 a2 d7 3b 62 f7 dd bc
       -0.026845515 0.004432951 0.0065806545 -0.0270955
000040 71 1f 06 be ab 68 9a bd 02 6f 62 be 70 c2 03 3c
       -0.13097931 -0.07539495 -0.22112659 0.008041963
000050 cb bf 31 bb c9 09 32 be d6 4c ee bd ab 46 45 be
       -0.0027122374 -0.17386545 -0.11635749 -0.19265239
000060 0c 7a 8c bc e4 51 6f be 51 49 09 3b 3d 90 37 be
       -0.01714804 -0.23371083 0.002094824 -0.17926116
000070 38 0d 7e 3b 24 27 a1 3c c7 3a ad ba 38 58 4a 3c
       0.0038765203 0.019671984 -0.001321637 0.012350135
000080 20 02 20 3a c5 4f f2 bd 6d 72 57 3e 70 5c 2b be
       0.0006103832 -0.11831621 0.21039744 -0.16734481
000090 ea d0 09 be b4 9d d0 3b ac 1f 4b bb 3f c8 0d 3c
       -0.134586 0.006366456 -0.003099422 0.008653699
0000a0 10 0e d6 bc b0 ea bf ba f8 9a 06 bb fe cd e0 bd
       -0.026129752 -0.0014642086 -0.0020539146 -0.1097679
0000b0 d0 42 ba bd 68 00 c3 3b 0d 03 2b 3c 15 e6 28 bc
       -0.09094775 0.005950976 0.010437739 -0.010308762
0000c0 a8 c7 15 3c b1 73 02 3e e6 0c bc 3b c4 a2 34 3d
       0.00914184 0.12739445 0.0057388423 0.044100538
0000d0 ad 3b 11 bc ba d7 93 bb 70 5b a8 bc 9a 2a b9 bc
       -0.0088643255 -0.0045118006 -0.020551413 -0.022603322
0000e0 5c e9 81 be 85 ce ee bc 4f b7 94 be 3f 5c 0f bd
       -0.25373352 -0.02915121 -0.29046103 -0.035000082
0000f0 c1 d0 64 bd 91 0c 60 3a 9d d3 5e bc c7 4f 33 be
       -0.055863146 0.00085467944 -0.013600257 -0.17510901
000100 60 98 4c bd 69 b9 35 3c 9a 13 80 bb 33 27 61 be
       -0.049950004 0.0110915685 -0.0039085867 -0.2198761
000110 c0 c5 fb 3c c6 59 60 be 8d aa 9a 3c 9a 97 5a be
       0.030733943 -0.21909246 0.018880153 -0.21346894
000120 c6 18 e0 3d 5e 29 cc bc 6b d5 3d bc f2 08 c7 bd
       0.10942225 -0.02492207 -0.011586527 -0.09718503
000130 85 3e db bc d7 dc d1 be 4e 41 4f 3b 64 33 db bd
       -0.02676321 -0.409888 0.0031624618 -0.10703161
000140 26 53 86 3e 4e ed bc 3b 2c 91 cb bd 1e 6e 22 be
       0.26235312 0.0057655936 -0.09939799 -0.15862319
000150 b5 5e 03 bc 58 ec fe bc 7f 51 bb be 78 a9 1d be
       -0.008018185 -0.031118557 -0.36585614 -0.15396678
000160 cc 09 15 bb 9f c4 e8 3d d3 93 37 be 18 54 89 b9
       -0.0022741435 0.113656275 -0.17927484 -0.0002619333
000170 28 6f 12 bd 9c 34 46 bd 64 85 58 bb 04 78 fe bc
       -0.035750538 -0.048390016 -0.0033038491 -0.031063087
000180 8d 18 11 bc ad 68 0c 3d 2a 21 87 3d 6d c7 5c be
       -0.008855951 0.034279514 0.065981224 -0.2156045
000190 17 f1 5f be 20 73 cb b9 e6 8b bb 3b 8e ac ca bd
       -0.21869312 -0.00038804952 0.0057234643 -0.098961934
0001a0 c3 c4 8e bc e4 2f a7 bc ae 28 08 be f6 6a 9e bc
       -0.017427808 -0.020408578 -0.13296768 -0.019338112
0001b0 72 ac 05 be 3f af d2 bc 59 7a 15 be a7 f5 34 be
       -0.13054064 -0.02571833 -0.14597453 -0.17671834
0001c0 a6 21 27 bd b6 fe 07 bd c6 96 dc 3b 36 90 24 be
       -0.040803574 -0.033201896 0.006731841 -0.16070637
0001d0 80 c0 4c bd 27 0f 90 be e3 e9 94 be 79 90 d0 bb
       -0.04998827 -0.2813656 -0.2908469 -0.0063648787
0001e0 4f da 18 bd 89 ce 52 3c 44 b0 34 bc 57 23 07 be
       -0.03731757 0.012866625 -0.011028353 -0.13197075
0001f0 18 f1 80 bc 16 1e c1 bc b4 91 cb bd 09 3a b4 be
       -0.015739962 -0.023573916 -0.099399 -0.35200527

l2.weight f4 [10, 128]
000000 bd 32 8a bd f2 c8 c0 3d b0 d2 73 bb 5b ca 08 bc
       -0.06747959 0.09413327 -0.0037204437 -0.008349027
000010 cc 6c d2 3d b4 91 31 be cb e9 e3 3c 4d d3 89 be
       0.102746576 -0.17340738 0.027821442 -0.26919022
000020 2a 8a 8b bd d7 e9 27 bd 0f f1 e0 be 33 fd 70 bb
       -0.06813462 -0.04099449 -0.43933913 -0.0036772012
000030 37 0f 9b bd 5b 9f a0 3d f3 a8 45 3d 24 e2 95 bd
       -0.075712614 0.07842895 0.048256826 -0.073185235
000040 3f 78 6f 3d 2f 29 b6 be 9c 36 3e be 55 d9 65 3c
       0.058464285 -0.35578296 -0.1857552 0.014028867
000050 e6 a7 86 bd 45 e0 36 bd 42 6d d6 bd 0c a7 1b 3d
       -0.06574993 -0.044647474 -0.10470058 0.038001105
000060 68 08 16 3c 50 91 0f be ff c9 2d 3d 77 cb e5 3d
       0.009157278 -0.14020276 0.042428967 0.112204485
000070 8d 81 1a 3d 69 e4 56 be 53 c0 99 bd fc ed 83 3c
       0.037721206 -0.20985569 -0.07507386 0.01610469
000080 a8 2b 93 bb 6c 43 8c be ee ab 95 be 19 3d 64 be
       -0.004491288 -0.2739519 -0.29232734 -0.22288932
000090 c6 6f ca 3d 08 b2 64 3d 68 26 90 bc 90 bb c2 3c
       0.098846 0.055833846 -0.017596439 0.023771077
0000a0 aa 53 85 be 58 d6 d2 bc 15 27 8e bd 79 35 c5 3d
       -0.26040393 -0.025736973 -0.06941048 0.0962934
0000b0 03 d4 e1 bd 5d af 00 3d 22 0c 50 be 8f 86 16 be
       -0.11026766 0.03141724 -0.20317128 -0.14699768
0000c0 e4 1f a6 3d 3f 61 9e 3c 96 51 8d 3d 81 ef 42 be
       0.081115514 0.01933348 0.06900327 -0.19036676
0000d0 e8 22 78 bb fa 7a e1 3c fe 65 31 3d 03 ed 75 3c
       -0.0037862603 0.02752446 0.043310158 0.015010121
0000e0 0e 96 03 3e 4a 8e d8 bc b7 80 97 3c a3 ce 00 3e
       0.1285021 -0.026435036 0.018493993 0.12578826
0000f0 00 36 10 3e a0 3a 37 3d 2c a0 35 bd bd eb 60 bc
       0.140831 0.044733644 -0.044342205 -0.013728079
000100 91 b4 93 be 42 56 24 bd 3a e3 58 3d 0c 50 85 be
       -0.288487 -0.040121324 0.052951075 -0.26037633
000110 28 37 ac be 9b 94 a0 be 73 6f 1e be 01 3b da 3d
       -0.3363583 -0.31363377 -0.15472202 0.10655785
000120 ae fa c5 3e 18 8b 10 bd dc b2 44 3d 67 a1 01 3e
       0.38667816 -0.0352889 0.048022136 0.12659226
000130 fa 25 d0 be 70 c1 65 be 5e e5 80 bd 48 82 37 3d
       -0.40653974 -0.22437072 -0.06293748 0.04480198
000140 d1 99 70 3e 32 3f a7 3c 80 4d 00 3e e1 3c 38 be
       0.23496176 0.020415876 0.12529564 -0.17991973
000150 e7 b6 a5 bd 11 40 83 3d 10 b8 3b be e3 a2 6d 3e
       -0.080915265 0.06408704 -0.18331933 0.23206668
000160 16 0b 9b 3d 09 d8 b7 3d 0c ef 2a be d3 1a f5 be
       0.07570474 0.08976752 -0.16692752 -0.47872028
000170 ee 25 67 bd b0 d6 55 bd 37 16 bc 3d c3 bb fb 3c
       -0.056432657 -0.052206695 0.09183925 0.03072918
000180 aa 56 94 bd 52 b3 b4 be 8c d5 74 be 5a 9c a1 bc
       -0.07243092 -0.3529306 -0.23909587 -0.019727875
000190 2e 96 9a 3d a8 f3 3b 3d 17 9b d0 3d 0d 49 2e be
       0.07548176 0.045886666 0.10185831 -0.17020054
0001a0 29 16 35 be 2d 4f 73 bd d8 d3 0f be a4 70 26 3d
       -0.17684235 -0.05940168 -0.14045656 0.040634766
0001b0 a6 03 f8 3c 1f 1b 90 be ae a4 7a 3d 02 52 43 bd
       0.030275177 -0.28145692 0.061192207 -0.04768563
0001c0 a3 55 64 3d 6b e6 97 3d 02 53 e9 3c 01 2c f4 3c
       0.055745732 0.074169956 0.028481964 0.029806139
0001d0 55 86 8a be 61 8f 5f be 25 76 60 be 00 5c 92 3d
       -0.27055612 -0.21832038 -0.21920069 0.07146454
0001e0 e1 5f 23 3d 54 47 32 3d d2 52 90 bd 5e 84 16 bf
       0.03988636 0.043525055 -0.07047047 -0.58795726
0001f0 72 f3 5b 3b bb 89 8e bd c8 2f 66 bd 99 07 51 3d
       0.0033561853 -0.06959864 -0.05619791 0.051032636
000200 62 5d 53 3d 41 27 77 bd 76 c8 04 bd 3a 67 ba bc
       0.05160273 -0.06034017 -0.032417737 -0.0227543
000210 37 7e ad bd ad 3b 2c be 46 dc 92 3c e5 c1 30 be
       -0.08471339 -0.1681964 0.0179273 -0.17261465
000220 3d 33 08 be c5 bb f8 3c b8 88 81 be 51 40 22 bd
       -0.13300796 0.030362973 -0.2529962 -0.03961212
000230 a3 ea e2 3d 10 f5 37 3d 69 d6 b2 bd 50 47 f2 ba
       0.1107991 0.044911444 -0.08732302 -0.0018484388
000240 4e dc 20 3d 0b a0 2b 3b 6a ef f6 bd c1 08 87 3d
       0.0392726 0.0026187922 -0.12057383 0.065934666
000250 d4 3e 99 bd f0 1b bb bd 70 f0 88 3d 49 9b ab be
       -0.07482687 -0.09136188 0.06686485 -0.3351691
000260 49 e7 64 3d da f1 6d be d2 cc fe 3c a0 55 33 bd
       0.055884633 -0.2323679 0.031103525 -0.04378283
000270 be fd 01 bc 8c 0a 1d 3e 7c 87 9e 3d 41 51 a8 3c
       -0.007934032 0.15336055 0.07740685 0.020546557
000280 83 42 34 bd fb 1a ea bb 28 22 f7 3e 65 9e 9b be
       -0.044008743 -0.0071443296 0.48268247 -0.30394283
000290 ff 59 06 be ac 8a 56 bd 5e 23 78 3d 89 bd 11 bd
       -0.13120268 -0.05237834 0.060580604 -0.035581145
0002a0 7e 57 35 be 03 b1 66 bd 19 b3 a9 3c 64 6d 85 bd
       -0.17709157 -0.056321155 0.020715283 -0.06515005
0002b0 1b 03 53 3d de d5 b7 bd 1f 64 75 bc 05 3a 0b 3e
       0.051516633 -0.08976339 -0.014977484 0.13596351
0002c0 f4 ff 6e 3d 33 72 80 3e 8e 53 88 bd 96 29 0d be
       0.058349565 0.25087127 -0.06656562 -0.13785395
0002d0 75 45 56 3d 5c 2b 68 3d 65 cc 43 bd 6a ef 7d 3d
       0.052312333 0.056681976 -0.047802348 0.0619959
0002e0 62 92 a6 be 49 0d 4a bd 22 13 c5 3c 70 7a d1 bd
       -0.32533556 -0.049329076 0.024056975 -0.10228431
0002f0 18 1d 95 bd b6 3d 3c bd 75 fb 65 bd 1b 5d 4c be
       -0.0728094 -0.04595729 -0.05614801 -0.19957392
000300 66 98 d8 be 8d bc 21 be f0 2b c9 bd ec ca 7a bc
       -0.4230377 -0.15794583 -0.098228335 -0.015307169
000310 2f 25 c0 bd a9 40 84 3d 77 7a 44 be 6a 03 66 be
       -0.09382092 0.064576454 -0.19187342 -0.2246224
000320 4a eb e5 3d 72 f3 05 bd f0 41 29 3a 61 7c 33 be
       0.112265185 -0.03270287 0.0006456664 -0.17527916
000330 cc 49 8d be 2c d4 88 be 68 39 c4 3d 46 b9 5f bd
       -0.27595365 -0.26724374 0.09581262 -0.05462005
000340 d9 0d 64 3e 2e f4 1f bd 2f f2 71 be cf bf 9d be
       0.22270907 -0.039051227 -0.23627542 -0.308104
000350 6e 58 83 bd 85 e4 a7 3c 5d a9 c6 be 71 68 2c be
       -0.06413351 0.020494709 -0.3880109 -0.16836716
000360 ab c7 9c 3d c4 aa 1f 3e d0 90 5d 3c 61 52 1b 3d
       0.07655271 0.15592486 0.0135232955 0.03792036
000370 14 94 2d bd 79 1c 63 bd 43 dd 05 3d 1a 2c 45 3c
       -0.042377546 -0.055447076 0.032681715 0.01203444
000380 8c 6b 19 bd 16 d3 e3 bd 3b 70 9c 3e 41 9c 08 be
       -0.03745608 -0.11124246 0.30554375 -0.13340856
000390 2e 04 b4 bc 5c 3f 8d 3d 92 11 23 bc a7 58 bd bd
       -0.02197465 0.068968505 -0.00995292 -0.09245425
0003a0 d9 4d 35 3e 63 86 bc bd 53 72 c3 bd 14 8a 69 3d
       0.17705478 -0.0920532 -0.0954329 0.057016447
0003b0 b0 18 76 be ea a2 f0 3d ce 4d 42 be 0f 68 9f be
       -0.24032855 0.117498234 -0.18974993 -0.31134078
0003c0 f0 91 48 3b 4e 1c 52 bc e3 52 8f bd b2 76 5b be
       0.0030604564 -0.012824131 -0.06998231 -0.21431997
0003d0 55 ad 9b 3d 18 73 92 be 4f bd 2c be 6c 2a c6 bd
       0.0760142 -0.28603435 -0.1686909 -0.0967606
0003e0 e6 7d 4e 3d b8 7b e6 3b 94 d7 72 3d 50 2c 7a be
       0.050413035 0.0070337914 0.059287623 -0.24430966
0003f0 a4 c4 47 3b f5 c0 ee 39 a2 7f 80 be e2 67 98 be
       0.0030482197 0.00045538662 -0.25097376 -0.29766756

l2.bias f4 [10]
000000 03 e0 fd 3d af 28 9d 3e 39 b7 0f 3e 24 f0 ac 3e
       0.123962425 0.30695102 0.14034738 0.33776963
000010 17 5c c9 3d 84 29 3d 3e f6 80 00 3e 85 5c 5c 3e
       0.09832018 0.18472868 0.12549195 0.21519668
000020 7f a7 95 3d 6d ad 59 3e
       0.07307338 0.21257563

bn1.weight f4 [32]
000000 e6 f4 77 3f 26 b2 8b 3f 23 b1 0b 3f e3 63 65 3f
       0.9685806 1.0913742 0.54567164 0.8960554
000010 da a2 92 3f 65 12 9e 3f 28 a9 bf 3f 42 6b 8d 3f
       1.1455948 1.2349364 1.4973497 1.1048357
000020 f7 5c 8d 3f 34 75 92 3f 76 7d 87 3f c4 0a 8e 3f
       1.1043996 1.1442018 1.0585163 1.1097035
000030 ad fa 70 3f 20 30 ce 3e d8 5a 5c 3f 9a 88 75 3f
       0.941325 0.4027109 0.86076117 0.9591156
000040 6f e1 9c 3f 63 b2 64 3f fb 5e 6e 3f 32 5b b1 3f
       1.2256297 0.89334697 0.9311368 1.3855956
000050 6b 70 6c 3f 27 ec c1 3f 97 58 7c 3f 79 35 45 3f
       0.92359036 1.5150193 0.9857268 0.7703472
000060 b8 17 6d 3f fe 0d aa 3f 75 87 84 3f 69 89 e1 3e
       0.92614317 1.328552 1.0353838 0.44050148
000070 36 a4 72 3f 1c e8 82 3e bf 48 76 3f 16 6b fd 3e
       0.94781816 0.2556771 0.9620475 0.49495763

bn1.bias f4 [32]
000000 57 e5 e5 bd 40 bd ba bd 79 aa 18 bf 5b be 02 bf
       -0.11225384 -0.09118128 -0.5963512 -0.5107171
000010 32 d7 7b be 0b 16 1c be 7a cd 94 3d e2 b9 8c be
       -0.24593809 -0.15242784 0.07265754 -0.27485567
000020 27 95 87 be aa 92 bc 3d 3b 65 7d be 3d df 46 3c
       -0.26480982 0.092076614 -0.24745648 0.012138185
000030 5b 00 30 3d 02 e3 09 bf 07 29 77 be 51 66 2a be
       0.04296909 -0.5386201 -0.24136744 -0.16640593
000040 78 a7 3a be dd 84 d4 be ab 23 1a bd b8 1d 89 be
       -0.18227947 -0.41507617 -0.037631672 -0.26780486
000050 83 3c 27 be fb ca b1 bd 0d f4 6d be fc 9c 93 be
       -0.16331677 -0.086812936 -0.23237629 -0.28830707
000060 ed 62 2e bf c4 2a 3d be 48 c6 17 3c 8f 43 19 bf
       -0.681197 -0.18473345 0.0092635825 -0.5986871
000070 7d 54 07 be b6 61 18 bf 53 8e 03 bf 5a ae 35 bf
       -0.13215823 -0.59524095 -0.51389045 -0.70969164

bn1.running_mean f4 [32]
000000 80 23 50 3f 28 bb eb 3d 65 55 17 be ea 76 86 bd
       0.8130417 0.115103066 -0.14778669 -0.0656565
000010 32 b0 cb 3e 66 6f 10 3f 48 ff c8 3e ba 9e 14 3f
       0.39782864 0.5641998 0.39257264 0.580547
000020 e2 01 8a 3c c8 b8 1f 3e 31 87 55 be c9 d6 96 3e
       0.0168466 0.15597832 -0.20852353 0.29460743
000030 0f ae 05 3f ca 4b ee be 94 f4 1d 3f de 57 f6 3e
       0.5221872 -0.46542197 0.6170132 0.48113912
000040 49 6b 35 3f 4f 27 46 be df 8f b9 3c 25 ff 85 3e
       0.7086683 -0.19350933 0.02265161 0.26171222
000050 ac 8c 7e 3d 53 0b a5 3e 24 78 f0 3d 36 cd 9a 3e
       0.062145874 0.32235202 0.11741665 0.3023469
000060 45 07 7e be 41 b3 49 3e 09 b9 dd 3e 4c 65 59 bf
       -0.2480746 0.19697286 0.43305233 -0.8492019
000070 9f 2a e2 3e 78 6c 8d bf 37 54 3d be ed b8 a5 3d
       0.44173142 -1.1048727 -0.18489157 0.080919124

bn1.running_var f4 [32]
000000 01 ea 70 3e 14 be 61 3e ca fe 5d 3d b2 7e 12 3e
       0.23526765 0.22045165 0.054198064 0.14306143
000010 fc dd 45 3e 58 14 33 3e 75 16 ce 3d 52 20 65 3e
       0.19322962 0.1748823 0.10062877 0.2237561
000020 4a ad 0f 3e 9e a0 8e 3d d9 67 be 3d 1a 33 a7 3d
       0.14030948 0.06964229 0.09297151 0.08164044
000030 4b 0e f7 3d 83 f9 d0 3d 4e 23 33 3e 3e 92 ab 3e
       0.12063273 0.102038406 0.17493936 0.3351001
000040 59 16 c8 3d 6d 7e d5 3d 22 11 a4 3d d5 5c 73 3e
       0.097698875 0.104245044 0.0801108 0.23765881
000050 06 05 84 3d c6 40 fe 3d 99 77 23 3e 1e 91 cb 3d
       0.06446271 0.12414698 0.15963592 0.09939788
000060 73 57 1e 3d 90 f8 18 3d cd d5 b1 3e 4b 81 ab 3e
       0.038657617 0.037346423 0.3473343 0.3349708
000070 4e 75 12 3e b2 39 d5 3e 72 06 58 3d ac 66 07 3d
       0.1430256 0.4164558 0.05274052 0.0330569

bn2.weight f4 [64]
000000 28 7a 77 3f 04 44 88 3f df 66 9e 3f d8 44 83 3f
       0.9667077 1.0645757 1.2375144 1.0255384
000010 16 8e 90 3f 57 c7 7e 3f d0 7a 8c 3f 5c 14 6b 3f
       1.1293361 0.9952292 1.0974979 0.9182794
000020 0f 5a 88 3f 89 57 76 3f af 08 80 3f 54 61 8a 3f
       1.0652484 0.9622732 1.000265 1.0810952
000030 6e 65 98 3f f0 ec 84 3f a2 10 8b 3f 2f be 67 3f
       1.1905954 1.0384808 1.0864451 0.9052457
000040 67 d9 86 3f f6 c6 86 3f a9 c2 8f 3f ac c4 80 3f
       1.0535096 1.0529468 1.123128 1.006002
000050 17 26 8b 3f b8 e6 70 3f 07 c6 69 3f f3 0f 9f 3f
       1.0870999 0.9410205 0.9131779 1.2426742
000060 37 8a 94 3f eb a9 89 3f eb ed 72 3f 0c fa 85 3f
       1.160468 1.075498 0.94894284 1.0466933
000070 20 ce 80 3f f3 4c 6f 3f 66 10 94 3f 88 6d a0 3f
       1.0062904 0.9347679 1.1567504 1.2533426
000080 a2 4b 85 3f 6a 57 7a 3f e6 c5 5e 3f 11 2b 95 3f
       1.0413706 0.97789633 0.8702072 1.1653768
000090 1e 86 6b 3f b6 b2 8b 3f 75 81 74 3f 06 e8 73 3f
       0.9200152 1.0913913 0.95510036 0.95275915
0000a0 c2 96 7a 3f b0 5e 8b 3f b9 c8 7b 3f 25 7a 81 3f
       0.9788629 1.0888271 0.98353153 1.01154
0000b0 c3 ce 8c 3f 0e 77 77 3f 4c fd 8c 3f a3 db 61 3f
       1.1000599 0.9666604 1.10148 0.88225764
0000c0 83 c0 8b 3f 24 d7 96 3f b6 1e 4f 3f 88 6b 5d 3f
       1.0918125 1.1784406 0.80906236 0.86492205
0000d0 5d 09 83 3f 2e a2 7b 3f 9a 96 85 3f d0 95 6d 3f
       1.0237232 0.9829434 1.0436585 0.9280672
0000e0 fb f8 6f 3f 60 fc 80 3f 5b e4 84 3f 37 f8 78 3f
       0.9373929 1.0077019 1.0382189 0.97253746
0000f0 c0 89 5c 3f e9 36 63 3f 5e 7b 80 3f 10 6f 83 3f
       0.8614769 0.8875566 1.0037649 1.0268269

bn2.bias f4 [64]
000000 9d 33 12 bf 0c 34 f9 be 66 fb da be ed 1c 34 bf
       -0.57110006 -0.4867252 -0.42769927 -0.7035664
000010 75 78 21 bf ac 2a da be 00 9c f6 be b5 49 f4 be
       -0.6307443 -0.4261068 -0.48165894 -0.47712484
000020 b1 4f fb be 04 03 bb be e9 ac 0f bf 48 ec 18 bf
       -0.49084237 -0.36525738 -0.56123215 -0.59735537
000030 8f aa 05 bf 5b e8 24 bf df dd 10 bf 1c 65 f1 be
       -0.52213377 -0.64417046 -0.5658855 -0.47147453
000040 bd 8a fb be c0 f0 10 bf 78 b8 f5 be 33 87 f2 be
       -0.49129286 -0.56617355 -0.479923 -0.47368774
000050 2a d3 ba be e9 9a fa be 9c f5 18 bf 23 5e 07 bf
       -0.3648923 -0.48946312 -0.5974977 -0.52878016
000060 d7 30 c8 be 37 55 02 bf af c3 e0 be 15 95 fd be
       -0.39099762 -0.5091128 -0.43899295 -0.49527803
000070 98 5b 6d bf e7 c6 18 bf 5e 7d a7 be 5a 29 04 bf
       -0.92717886 -0.596785 -0.32712835 -0.516256
000080 82 8f eb be f7 e4 fa be 99 62 19 bf dc 80 dc be
       -0.46007925 -0.4900281 -0.59916073 -0.43067062
000090 8c ae ef be 8a 5c dd be 55 f1 14 bf 41 05 c2 be
       -0.46812856 -0.43234664 -0.58180743 -0.37894633
0000a0 52 b9 22 bf 29 78 fc be d2 c5 e3 be 07 72 f0 be
       -0.63564026 -0.49310425 -0.44486862 -0.46961996
0000b0 22 ef bf be 5f 9e b5 be e9 95 94 be 5f 83 07 bf
       -0.3748713 -0.3547239 -0.29020622 -0.5293483
0000c0 e0 6c d5 be 6f b0 07 bf f3 cf 05 bf 45 eb 07 bf
       -0.41684628 -0.5300359 -0.5227043 -0.5309337
0000d0 2b 43 20 bf a6 61 55 bf e0 2d 1a bf 94 9c 12 bf
       -0.6260249 -0.83352125 -0.6022625 -0.5727017
0000e0 58 be 16 bf b3 d2 df be 92 d2 9e be 48 83 0d bf
       -0.5888419 -0.43715438 -0.31020027 -0.55278444
0000f0 39 f8 03 bf 3a 1d 1b bf b4 09 c4 be 9f 75 df be
       -0.5155063 -0.6059147 -0.38288653 -0.43644425

bn2.running_mean f4 [64]
000000 ec 96 09 c0 2b df 40 3f ad e5 8b bf 3e 7e 32 bf
       -2.1498365 0.7534053 -1.0929466 -0.6972388
000010 b3 08 98 bf e8 4d 50 bf ec 33 9e 3f b3 45 77 bf
       -1.1877655 -0.81368876 1.2359595 -0.9659073
000020 3e d2 dd 3f ae f4 95 bf a4 e7 8f bf 29 56 95 bf
       1.7329786 -1.1715295 -1.1242566 -1.1666919
000030 35 b4 66 3e bf 17 f3 bf c5 fa 09 c0 f5 bd b0 3e
       0.22529681 -1.8991622 -2.1559308 0.34519926
000040 06 e4 a0 3e a0 96 3f 40 c9 bc e9 3f b2 2f 9c bf
       0.31423968 2.9935684 1.8260738 -1.2202055
000050 d8 c4 7e bf 1a 47 04 3f 4a 52 d3 3f 57 25 9a 3f
       -0.9951911 0.5167099 1.6509488 1.2042645
000060 d7 c1 17 40 46 d6 4f 3f 69 d0 02 c0 d4 45 29 be
       2.371206 0.8118633 -2.0439703 -0.16530544
000070 31 96 7c be b1 2c 50 c0 36 a6 e9 bf 33 af a0 3e
       -0.24666668 -3.2527277 -1.8253849 0.31383666
000080 9b 6b f4 be c5 f7 94 3d 02 e3 4a c0 a5 c2 38 3e
       -0.47738346 0.07273821 -3.1701055 0.18043001
000090 b0 b8 57 3f cb b0 61 3e 77 86 67 bf 8d ed 13 bf
       0.84266186 0.22040097 -0.9043955 -0.5778435
0000a0 89 4b 4b c0 e5 cd 9c be ee 94 f8 bf 98 4d a0 bf
       -3.1764853 -0.30625835 -1.942045 -1.252368
0000b0 a0 5f bd bf 5b 1b b8 3f 44 81 f0 bf c7 86 75 bd
       -1.4794807 1.4383348 -1.8789449 -0.059942987
0000c0 24 9f fc be aa 03 0a 40 81 8f de bf 0f 60 e0 3d
       -0.49340165 2.1564736 -1.7387544 0.10955822
0000d0 86 ac 00 c0 ca 6c ea 3d b8 68 ae 3f 3f 03 7c bf
       -2.01053 0.11446531 1.3625708 -0.98442453
0000e0 4e 1f 0d c0 e0 67 6d 3f c5 6d dd bf 59 e7 20 c0
       -2.2050357 0.92736626 -1.7299124 -2.5141203
0000f0 18 39 01 c0 d5 fb 2a bf b3 f8 3e 3f c7 61 65 3f
       -2.0191097 -0.66790515 0.74598235 0.8960232

bn2.running_var f4 [64]
000000 44 54 da 40 fb cb a5 40 fd ad 05 41 75 02 a6 40
       6.8227863 5.18115 8.354978 5.1878
000010 21 98 0c 41 d5 ad 1e 41 e6 c6 10 41 5f df 26 41
       8.787141 9.917439 9.048559 10.429534
000020 e1 d7 ec 40 0f a1 06 41 0a 7c 06 41 ba 00 ee 40
       7.4013524 8.414321 8.405283 7.4375887
000030 07 44 33 41 10 54 cf 40 b5 76 1f 41 63 6d f9 40
       11.204108 6.4790115 9.966481 7.794603
000040 f6 d7 0a 41 a8 2f ee 40 b2 e4 d7 40 bc 18 e3 40
       8.677725 7.4433174 6.746667 7.0967693
000050 c4 25 e8 40 84 6a 09 41 8c bd 2f 41 c0 9c ee 40
       7.25461 8.588505 10.983776 7.4566345
000060 a1 ac f9 40 84 19 cd 40 8c ea 3d 41 35 2a b3 40
       7.802323 6.4093647 11.869762 5.598902
000070 b4 ed 89 40 d7 aa bc 40 b0 6e e3 40 c6 b5 08 41
       4.3102665 5.8958545 7.1072617 8.544378
000080 34 9e ee 40 6a 51 45 41 a0 80 2b 41 e1 93 d5 40
       7.456812 12.3323765 10.718903 6.6743016
000090 1a ab ea 40 ea 64 01 41 c1 19 43 41 ec d4 ad 40
       7.3333864 8.087137 12.193788 5.4322414
0000a0 24 97 ee 40 97 6d 15 41 4e 43 2c 41 44 6a fc 40
       7.45595 9.339255 10.766432 7.887972
0000b0 00 ab 99 40 df 78 39 41 ac 17 02 41 b9 ad ef 40
       4.802124 11.59201 8.130779 7.4899564
0000c0 31 03 06 41 fd ca a9 40 3c bb 47 41 7c 48 d4 40
       8.375779 5.306029 12.4832115 6.633848
0000d0 7b a2 1f 41 eb dd 8d 40 40 72 95 40 3b 02 0d 41
       9.977168 4.4333396 4.6701965 8.813045
0000e0 e3 db f4 40 eb 83 04 41 0c 61 21 41 7b 54 3c 41
       7.6518416 8.282207 10.086193 11.770625
0000f0 82 09 09 41 f2 fc b5 40 87 ff bc 40 8b ed 27 41
       8.564821 5.687127 5.9061923 10.495494
