apps/classify/mnist/params/CNN_Model_41.pth (torch, 909267 bytes, 32 tensors)

conv1.weight f4 [32, 1, 3, 3]
-0.10271667 -0.063902 0.28466347 0.10307124 0.090095 0.100000925 0.13338268 -0.1995429
-0.29841876 -0.2575249 0.12874824 -0.1816712 -0.42552474 0.26297143 0.19768202 -0.31013557
0.02276196 0.052185476 -0.2291101 -0.080759495 0.24152747 -0.08742325 -0.17142943 -0.37552872
-0.08027982 0.08597403 0.24313305 -0.11183335 0.091571726 0.14537287 -0.16804111 -0.32108083
-0.05452948 0.1341966 0.08221404 -0.15831155 -0.0432626 -0.19199309 -0.22979559 -0.25939387
-0.12472279 0.1703495 0.35973564 0.1479774 -0.3449592 0.22118285 0.13726507 0.22667597
-0.18136308 0.11167907 -0.046771057 -0.21050979 -0.24840456 -0.3095707 -0.13720304 -0.28417468
-0.24618135 -0.105579264 0.24890226 0.11805232 0.19474468 0.06938564 0.07054441 -0.070870034
0.23162973 0.07905615 -0.34873414 0.014847953 0.058484856 -0.1357132 -0.30919874 -0.15964836
0.16530703 -0.009888578 0.26292065 -0.21270786 -0.12278009 -0.36532986 -0.35818908 -0.040066816
-0.077283934 0.09890285 0.19220278 -0.24149685 -0.031123217 -0.27217144 -0.11001484 -0.11123113
-0.037843652 0.2648642 0.13981628 0.13626635 -0.22642606 -0.3071108 0.13704798 0.2124029
-0.005194376 -0.2320204 0.05880573 -0.059707284 -0.36099812 -0.041129388 0.26512766 0.20554434
0.24984446 -0.2540074 0.06261749 -0.19615023 0.20929822 0.16797015 -0.21236964 0.05604386
-0.15396988 -0.25474927 -0.035819177 -0.21968363 -0.04128852 0.02317174 -0.08388528 -0.2103672
0.12343584 0.0734542 -0.31856132 -0.09034979 0.3113323 0.2474172 -0.046186484 0.2613539
0.004294934 0.2867074 5.8360165e-05 -0.26033875 -0.3168119 -0.27004936 -0.06922383 0.28634137
-0.24033847 -0.13321483 0.22568619 0.06928245 -0.2659304 0.013576016 0.22413701 -0.08594341
-0.16369988 -0.0047919704 0.19892646 -0.31567615 -0.2614336 0.31670567 0.007594466 -0.2303757
-0.07848318 -0.03667734 -0.24174194 -0.00839859 0.2824729 -0.34118554 0.25300768 0.048314486
-0.19645792 -0.089242436 -0.15147269 0.20109053 0.11358501 -0.33387133 -0.022647053 -0.32998452
0.117861986 0.26790768 -0.17408316 -0.1455873 0.22172968 -0.08149175 -0.13889492 0.28999567
-0.1662029 0.19712445 0.078818895 -0.28937235 0.21914439 0.090348594 0.11612093 -0.21467519
0.19127207 0.25206846 -0.44929972 -0.25213084 0.20218347 -0.41331825 0.0773894 0.11173017
-0.23158939 -0.11294976 0.32124785 0.09151791 0.042419873 0.1969263 0.20428297 -0.12921084
-0.11726837 0.08472182 -0.345049 0.067782864 -0.50795746 0.29600394 0.048103414 0.09635703
0.28628805 -0.20565882 -0.08325549 0.04808449 0.21948126 -0.21056643 -0.30465445 -0.43282005
0.33329 0.051099353 -0.20890652 -0.17384762 0.065083355 -0.3128802 -0.26962528 -0.2250761
-0.13422643 0.06026915 0.02074296 0.18390378 -0.04004472 0.16328543 0.39167607 0.39060032
0.24114628 -0.21516012 -0.053621843 -0.41452393 0.24390827 -0.18614826 -0.18969154 0.27070677
-0.4610118 -0.022387944 0.044425435 -0.41850996 0.05529437 0.09459686 -0.019237239 0.09915817
0.19161145 0.08007992 0.23350197 -0.43607813 -0.030579576 0.18622614 -0.30502376 0.32142377
00000000: 1e5d d2bd 0ddf 82bd 69bf 913e 0417 d33d
00000010: ba83 b83d 49cd cc3d 7895 083e f954 4cbe
00000020: 58ca 98be 4eda 83be 94d6 033e 0408 3abe
00000030: 61de d9be 31a4 863e 286d 4a3e 17ca 9ebe
00000040: 4a77 ba3c 70c0 553d d79b 6abe 3c65 a5bd
00000050: fa52 773e f60a b3bd 328b 2fbe 4d45 c0be
00000060: bf69 a4bd 2713 b03d dff7 783e e208 e5bd
00000070: f589 bb3d a0dc 143e f812 2cbe b564 a4be
00000080: 4e5a 5fbd d56a 093e d65f a83d 6c1c 22be
00000090: 2034 31bd d699 44be 894f 6bbe 46cf 84be
000000a0: aa6e ffbd 1970 2e3e 452f b83e 6387 173e
000000b0: 7e9e b0be c27d 623e 378f 0c3e bf1d 683e
000000c0: 3eb7 39be ffb7 e43d 0293 3fbd e18f 57be
000000d0: c45d 7ebe 0d80 9ebe f47e 0cbe 587f 91be
000000e0: f716 7cbe f139 d8bd 3ce0 7e3e 6ac5 f13d
000000f0: 266b 473e 0f1a 8e3d 9679 903d 4f24 91bd
00000100: 5830 6d3e 31e8 a13d 488d b2be d444 733c
00000110: d18d 6f3d 67f8 0abe 4c4f 9ebe dc7a 23be
00000120: 3f46 293e b403 22bc 899d 863e 17d0 59be
00000130: 2174 fbbd 840c bbbe 8f64 b7be 1a1d 24bd
00000140: 0a47 9ebd 948d ca3d ced0 443e f34a 77be
00000150: 1ef6 febc 0e5a 8bbe 764f e1bd 26cd e3bd
00000160: f201 1bbd 489c 873e 002c 0f3e 6889 0b3e
00000170: 3cdc 67be a03d 9dbe 4e56 0c3e 2580 593e
00000180: 9635 aabb c196 6dbe 47de 703d a08f 74bd
00000190: bfd4 b8be 4a77 28bd d0be 873e 377a 523e
000001a0: 3ad7 7f3e 420d 82be 993d 803d 9bdb 48be
000001b0: 4652 563e 5e00 2c3e 6d77 59be 3f8e 653d
000001c0: 48aa 1dbe 7f6e 82be 21b7 12bd bff4 60be
000001d0: 271e 29bd a9d2 bd3c 0ccc abbd 806a 57be
000001e0: eecb fc3d 286f 963d 781a a3be 5009 b9bd
000001f0: f266 9f3e ef5a 7d3e 0a2e 3dbd 2ed0 853e
00000200: 85bc 8c3b 50cb 923e c0c7 7438 1f4b 85be
00000210: 2b35 a2be e943 8abe 39c5 8dbd 569b 923e
00000220: 4a1b 76be 7869 08be 481a 673e f5e3 8d3d
00000230: 0828 88be f06d 5e3c 2c84 653e 1903 b0bd
00000240: f1a0 27be f605 9dbb 61b3 4b3e 4ea0 a1be
00000250: a0da 85be 3f27 a23e 00db f83b 9ce7 6bbe
00000260: cabb a0bd fa3a 16bd 338b 77be 3d9a 09bc
00000270: 4aa0 903e dfaf aebe 398a 813e 69e5 453d
00000280: 442c 49be bdc4 b6bd a81b 1bbe adea 4d3e
00000290: 429f e83d 2ff1 aabe 5086 b9bc bbf3 a8be
000002a0: a061 f13d 322b 893e db42 32be d614 15be
000002b0: 1b0d 633e 26e5 a6bd 783a 0ebe 507a 943e
000002c0: 1831 2abe feda 493e cd6b a13d 9d28 94be
000002d0: 6367 603e af08 b93d cfd0 ed3d d0d3 5bbe
000002e0: d3dc 433e 1e0f 813e 9d0a e6be 4b17 81be
000002f0: 2f09 4f3e 739e d3be 557e 9e3d cad2 e43d
00000300: c525 6dbe 3452 e7bd 997a a43e be6d bb3d
00000310: 76c0 2d3d 0ca7 493e 8e2f 513e d94f 04be
00000320: 662a f0bd a282 ad3d 43aa b0be bed1 8a3d
00000330: 8009 02bf d48d 973e 1608 453d d656 c53d
00000340: 5994 923e 3a98 52be db81 aabd 3ef4 443d
00000350: b2bf 603e ba9e 57be abfb 9bbe 979a ddbe
00000360: fda4 aa3e 8e4d 513d 97eb 55be 1c05 32be
00000370: 6c4a 853d d531 a0be 530c 8abe 597a 66be
00000380: a772 09be c9dc 763d 24ed a93c 4651 3c3e
00000390: ef05 24bd 4c34 273e c489 c83e c4fc c73e
000003a0: 0def 763e ef52 5cbe 94a2 5bbd 7b3c d4be
000003b0: 17c3 793e a69d 3ebe 803e 42be 149a 8a3e
000003c0: bd09 ecbe ec66 b7bc 72f7 353d f046 d6be
000003d0: 597c 623d 00bc c13d 6a97 9dbc 7013 cb3d
000003e0: cb35 443e f100 a43d 241b 6f3e a245 dfbe
000003f0: 0582 fabc 11b2 3e3e 132c 9cbe a891 a43e

conv1.bias f4 [32]
-0.046665385 0.053531993 0.09578917 0.29493812 -0.29806587 -0.03355415 0.2431751 0.23586158
0.30331078 -0.08581231 -0.27230263 0.27786246 -0.047985803 0.12433677 0.2752387 -0.13405368
-0.18646567 0.29215476 -0.17371833 0.10684595 0.21555735 0.23326392 -0.064945556 -0.16964391
0.09187561 0.110884115 -0.24843656 0.2865558 0.19919989 0.12996423 -0.13627762 -0.31660512
00000000: 3424 3fbd 5d44 5b3d 1d2d c43d 2102 973e
00000010: 179c 98be 1470 09bd e502 793e b385 713e
00000020: 8d4b 9b3e 5dbe afbd 406b 8bbe fd43 8e3e
00000030: c38c 44bd 47a4 fe3d 16ec 8c3e 5e45 09be
00000040: dbf0 3ebe 4f95 953e 38e3 31be 0dd2 da3d
00000050: 11bb 5c3e bddc 6e3e 2d02 85bd 22b7 2dbe
00000060: 4829 bc3d 3617 e33d 2766 7ebe 71b7 923e
00000070: 0efb 4b3e 5815 053e 5c8c 0bbe 111a a2be

conv2.weight f4 [64, 32, 3, 3]
0.083775036 0.12176763 -0.02381226 -0.05121077 0.03179412 -0.12333577 0.061344728 -0.010361824
-0.19499665 -0.29695162 0.0020398435 0.10760011 -0.002788125 0.068911426 0.08890187 -0.1359468
0.0018543107 0.123446696 -0.03013095 -0.12232563 0.22945203 -0.14090861 -0.016416065 -0.037245363
-0.020035604 0.1674641 0.077092916 0.020807615 -0.020154413 -0.13361362 0.33278608 -0.022213938
-0.24799913 -0.066589266 0.053787217 -0.11192575 0.0029022307 -0.06516 0.088032 0.3180012
0.05873037 -0.014167451 0.11928854 -0.06479796 -0.17432961 0.12917666 -0.003592701 0.026900075
0.014097353 -0.056719776 -0.077290565 -0.069608286 -0.07000983 -0.2151331 -0.09302457 -0.17952068
0.05879367 0.05353315 -0.109936245 -0.1336653 0.10240325 0.0857537 -0.1323948 0.21467136
0.09885441 -0.13446747 0.28016853 -0.08193211 -0.12217315 -0.042060945 -0.035841387 -0.0023802572
0.08388699 0.016416205 -0.021338468 0.030149011 0.008227561 -0.1610879 -0.010411206 -0.016651405
-0.023811655 0.012115737 -0.07886291 0.07176463 -0.1340593 -0.154837 -0.043903437 -0.17549232
-0.074734785 -0.21206051 0.029544769 -0.07953434 -0.18898232 0.15720384 0.030051151 0.04922874
-0.09847042 -0.009054911 0.046153344 0.0589761 -0.13730866 -0.08216523 -0.013246275 -0.07302968
0.03815124 0.03350538 -0.011260867 -0.010859913 -0.03167894 -0.005300329 -0.15871526 -0.12377074
-0.12365948 0.23243847 0.16586673 0.072889864 -0.016938293 0.03977638 -0.09843591 -0.042474642
0.040472295 -0.15255427 -0.0980711 0.070347406 0.037585635 -0.045291863 -0.022341343 0.122569546
0.053541344 -0.09372111 -0.14124486 -0.0975873 -0.03180306 -0.084175386 -0.16264212 0.039474137
-0.08877627 -0.10229378 0.15204029 0.010485078 0.11034988 0.21688925 0.0046390733 0.09515585
0.115159124 -0.035552412 0.14569981 0.054321177 0.13655463 0.20555347 -0.008316419 0.10730832
0.3472942 -0.07487981 -0.0759324 0.14570871 0.090770245 0.16212834 0.21784835 0.24861313
0.19294383 0.06769325 -0.19335155 -0.1328466 0.23255663 0.20668854 0.079722054 0.18205142
-0.03636279 0.06210655 -0.056577384 -0.12079663 -0.1961196 0.19683363 0.07131197 -0.060748965
0.21896064 0.12982805 -0.09691131 -0.03290806 0.043982618 0.02653239 0.048659988 0.081181236
0.09924269 0.21400234 -0.060999524 -0.030993018 0.179786 -0.21876638 0.08622563 0.13521053
-0.16385545 0.049682047 0.230426 -0.11995337 0.11511518 0.28269362 -0.13900903 -0.079771765
0.07314891 -0.15670313 -0.11126282 -0.055623878 -0.084018275 -0.16939813 -0.048610184 0.11282275
0.015547065 -0.2292797 0.12393024 -0.110092014 -0.23648927 0.036283635 -0.03616888 -0.11136915
0.084030055 0.052103505 0.009420734 -0.14221929 -0.025901005 -0.087808274 0.040336054 0.07535641
0.115667194 0.05069724 -0.041508015 0.06696746 -0.15565309 -0.110034294 -0.014063283 0.08706865
-0.032867733 -0.019074714 -0.011174144 -0.030887656 0.36092895 -0.06674503 0.07057175 0.2809476
-0.052136056 0.05022464 0.23828511 -0.32802793 -0.19688626 0.1318603 -0.09991724 -0.08190213
0.13900861 -0.061335955 -0.034336675 0.020210084 -0.025977734 -0.07325685 0.115996026 -0.17267966
00000000: 3f92 ab3d 4f61 f93d ee11 c3bc 62c2 51bd
00000010: 8d3a 023d 7797 fcbd 9c44 7b3d a4c4 29bc
00000020: 34ad 47be 0b0a 98be e5ae 053b 725d dc3d
00000030: fab8 36bb 6f21 8d3d 2f12 b63d a335 0bbe
00000040: 580c f33a 9fd1 fc3d 2fd5 f6bc dc85 fabd
00000050: 79f5 6a3e 594a 10be fc7a 86bc 988e 18bd
00000060: b521 a4bc b67b 2b3e e4e2 9d3d bb74 aa3c
00000070: de1a a5bc 02d2 08be f062 aa3e 01fa b5bc
00000080: 7cf3 7dbe f45f 88bd fc4f 5c3d 5439 e5bd
00000090: 5a33 3e3b 9b72 85bd 1f4a b43d 0ed1 a23e
000000a0: 428f 703d 991e 68bc 8d4d f43d cbb4 84bd
000000b0: 7683 32be e346 043e 8573 6bbb 8c5d dc3c
000000c0: 96f8 663c ff52 68bd 844a 9ebd ca8e 8ebd
000000d0: 5061 8fbd da4b 5cbe aa83 bebd 45d4 37be
000000e0: a2d1 703d 9445 5b3d 4126 e1bd 8edf 08be
000000f0: ccb8 d13d a39f af3d 8192 07be cfd2 5b3e
00000100: 2e74 ca3d d7b1 09be 4072 8f3e 06cc a7bd
00000110: eb35 fabd 1948 2cbd 6bce 12bd 17fe 1bbb
00000120: f1cc ab3d 477b 863c 03ce aebc 0ffb f63c
00000130: e4cc 063c 3af4 24be c393 2abc 8768 88bc
00000140: a910 c3bc 1681 463c e182 a1bd 56f9 923d
00000150: d746 09be 978d 1ebe 17d4 33bd 42b4 33be
00000160: 8d0e 99bd 6426 59be df07 f23c e6e2 a2bd
00000170: 9584 41be 0bfa 203e d52d f63c 13a4 493d
00000180: dcaa c9bd 0d5b 14bc 4a0b 3d3d ec90 713d
00000190: a49a 0cbe 3e46 a8bd e706 59bc 9690 95bd
000001a0: 7a44 1c3d f03c 093d 807f 38bc c7ed 31bc
000001b0: c7c1 01bd 62ae adbb 4186 22be 847b fdbd
000001c0: 2e41 fdbd 5a04 6e3e f8d8 293e 4847 953d
000001d0: 2dc2 8abc 8fec 223d c498 c9bd e4f9 2dbd
000001e0: 47c6 253d 3037 1cbe 80d9 c8bd 4d12 903d
000001f0: 65f3 193d f683 39bd 3105 b7bc be05 fb3d
00000200: 2b4e 5b3d daf0 bfbd 7ea2 10be dadb c7bd
00000210: ed43 02bd 2564 acbd a88b 26be a2af 213d
00000220: 55d0 b5bd 677f d1bd 73b0 1b3e 9bc9 2b3c
00000230: 1eff e13d 3718 5e3e 5e03 983b 12e1 c23d
00000240: 8cd8 eb3d 689f 11bd 5532 153e e27f 5e3d
00000250: fad4 0b3e 9c7c 523e 9741 08bc 77c4 db3d
00000260: 8cd0 b13e 965a 99bd 7282 9bbd aa34 153e
00000270: c0e5 b93d f904 263e a313 5f3e 7194 7e3e
00000280: 1193 453e c2a2 8a3d f3fd 45be f008 08be
00000290: 5323 6e3e 29a6 533e 5145 a33d b06b 3a3e
000002a0: 26f1 14bd 7063 7e3d b0bd 67bd 3964 f7bd
000002b0: 94d3 48be c18e 493e 030c 923d e8d3 78bd
000002c0: 3837 603e a5f1 043e 7079 c6bd 9aca 06bd
000002d0: 1e27 343d 745a d93c b24f 473d 5942 a63d
000002e0: c03f cb3d 6e23 5b3e a3da 79bd 12e5 fdbc
000002f0: d219 383e 4b04 60be 1097 b03d a174 0a3e
00000300: b9c9 27be 677f 4b3d cbf4 6b3e 1daa f5bd
00000310: 82c1 eb3d 38bd 903e 6258 0ebe 615f a3bd
00000320: 19cf 953d c976 20be c3dd e3bd ddd5 63bd
00000330: c611 acbd b476 2dbe 791b 47bd 9d0f e73d
00000340: 1eb9 7e3c 4cc8 6abe 23cf fd3d ec77 e1bd
00000350: 3e2a 72be 269e 143d d225 14bd 8215 e4bd
00000360: f317 ac3d 7c6a 553d 6c59 1a3c efa1 11be
00000370: 582e d4bc d3d4 b3bd 6b37 253d 7654 9a3d
00000380: ece2 ec3d e9a7 4f3d 4f04 2abd 3c26 893d
00000390: 8663 1fbe a959 e1bd af69 66bc 0c51 b23d
000003a0: 51a0 06bd 9342 9cbc c213 37bc 1c08 fdbc
000003b0: aecb b83e 9eb1 88bd ec87 903d 5dd8 8f3e
000003c0: 9e8c 55bd 5ab8 4d3d 0301 743e 47f3 a7be
000003d0: 8d9c 49be 6306 073e 69a1 ccbd 4ebc a7bd
000003e0: 4658 0e3e 693b 7bbd 9da4 0cbd 9e8f a53c
000003f0: 42cf d4bc b007 96bd 538f ed3d f0d2 30be

conv2.bias f4 [64]
0.027133556 -0.023712512 0.04181849 -0.019300172 -0.047667045 -0.037487976 0.021930264 -0.012933806
0.022620697 -0.019996978 -0.009377724 -0.023675185 0.006344264 0.034511056 0.015748527 -0.03782296
-0.025054922 0.0025978547 -0.040375713 0.0024199602 -0.0043479893 0.026380949 -0.04123962 0.04536041
0.011932857 0.019725038 0.04903825 -0.056943916 0.002023652 0.0267346 0.0327042 -0.007055687
-0.041703492 -0.037653346 -0.039667614 0.018866008 0.05132799 -0.0038216754 -0.023300678 0.038224254
-0.0010735493 -0.05176302 0.0111586945 -0.022049459 -0.05703972 0.012858492 -0.044443827 -0.009951186
0.040957283 0.0011288469 -0.022338845 0.045387447 -0.037511505 -0.013901337 0.048553057 -0.053980727
0.03151325 0.007267574 0.0019940794 0.030899351 -0.029152911 -0.059552338 0.00684914 -0.031367328
00000000: 3147 de3c be40 c2bc dd49 2b3d 651b 9ebc
00000010: 853e 43bd fe8c 19bd 19a7 b33c 50e8 53bc
00000020: 0a4f b93c b4d0 a3bc 06a5 19bc 76f2 c1bc
00000030: 8be3 cf3b 775b 0d3d 0e03 813c 40ec 1abd
00000040: fb3f cdbc c540 2a3b 0161 25bd 3298 1e3b
00000050: 9479 8ebb dc1c d83c e0ea 28bd d6cb 393d
00000060: 0882 433c 6796 a13c 55dc 483d 063e 69bd
00000070: 3f9f 043b 8502 db3c d7f4 053d 6433 e7bb
00000080: 48d1 2abd 653a 1abd 827a 22bd e38c 9a3c
00000090: 4c3d 523d 1375 7abb 10e1 bebc 0991 1c3d
000000a0: 56b6 8cba 7605 54bd f5d2 363c 11a1 b4bc
000000b0: 7ba2 69bd 6dac 523c bb0a 36bd 4d0a 23bc
000000c0: d3c2 273d d1f5 933a f4ff b6bc 30e8 393d
000000d0: aaa5 19bd 6fc2 63bc 92df 463d e51a 5dbd
000000e0: 0a14 013d d424 ee3b 1aaf 023b a320 fd3c
000000f0: 16d2 eebc 27ed 73bd c06e e03b 077b 00bd

l1.weight f4 [128, 1600]
0.14821692 0.19293904 0.29438823 0.06269683 -0.1352684 0.13322462 0.17713082 0.26690063
-0.08190758 -0.09120886 0.09087475 0.12565722 0.14982677 0.21210624 -0.10947678 0.030881066
-0.09428049 0.04630809 0.06279693 -0.04470675 -0.11579365 -0.06693484 0.059600122 0.15527324
0.017633716 0.01689821 -0.048012912 0.056940347 0.19445954 0.26348683 0.009480215 -0.20008312
-0.16567202 -0.005584543 0.045928292 0.05637757 0.1623609 0.1695637 0.16372882 0.09229552
-0.05525508 0.088058546 0.05029826 -0.013942591 0.04845371 -0.029190585 0.032568075 -0.060249444
-0.01346647 0.08431203 0.043095067 0.024868766 -0.0890236 -0.14277148 -0.11327483 0.22410096
0.27225018 0.108473696 0.055299502 0.06844958 0.09673715 0.06307697 -0.17517607 0.026079794
-0.025089378 -0.06904744 -0.0148917865 -0.11829157 -0.067039065 -0.29727304 -0.006233189 0.00056296465
0.16418466 0.025462355 -0.07973965 0.070719704 -0.09476031 -0.21927519 -0.27398607 0.06267557
-0.04078952 -0.031279724 0.06089431 0.07212015 -0.07479342 0.028816 0.07039939 -0.08333673
0.10705666 0.022327077 -0.026971791 -0.06302293 -0.12490911 -0.11319676 0.034762185 -0.07455606
-0.16812827 -0.10969006 0.06389451 0.13031708 0.002912097 -0.16627225 -0.1929327 -0.028219484
0.109083205 -0.06919473 -0.049432065 0.18611264 0.24086888 0.29756674 -0.10356436 -0.043290228
-0.08809912 0.13074039 0.0033508297 -0.16086507 -0.00932514 0.07989517 0.081630446 0.098363504
0.17541729 -0.13171856 -0.11833326 -0.13572703 0.15281342 -0.018811217 -0.20854841 -0.19072787
-0.17372446 -0.08179947 -0.032753866 -0.21066633 -0.040834863 0.1117504 0.024877606 0.018131478
0.102811895 -0.040360384 0.16421078 0.15492815 0.15724215 -0.10166798 -0.06844446 -0.0971226
-0.056529325 -0.10819522 -0.059000432 -0.13740903 -0.09429919 0.1246205 -0.020360924 -0.07776811
-0.314149 0.04052463 0.06392954 0.010723454 -0.045777507 0.111955725 0.1726611 0.26822937
-0.12768026 -0.058857426 -0.015976967 -0.10108427 -0.3060787 -0.04001925 0.018544558 0.01385269
0.008076454 0.030448122 0.07876901 -0.11445029 -0.12206766 -0.13089776 -0.09823612 -0.1718793
-0.31561628 -0.14676994 0.020451711 0.09698599 -0.07331152 -0.19262935 -0.2625697 -0.3343994
-0.1090132 0.13997371 0.04136415 -0.029132659 0.13847756 -0.1639269 -0.09520245 -0.020568501
-0.084830746 -0.03964375 -0.07049516 -0.12465871 -0.068642296 -0.046309058 0.014352634 0.024598189
0.1162216 -0.021652052 -0.12545958 -0.15025292 -0.017569574 0.18956581 0.13618338 0.14284503
0.115270026 0.1687511 0.17431536 -0.04700891 -0.11249241 -0.008971016 -0.0021759602 -0.23258659
-0.15127821 -0.15304907 -0.1500472 -0.09134099 -0.06711922 -0.1852947 -0.05368681 -0.061075464
0.1315788 0.1834432 0.23456344 0.14956386 -0.13304082 -0.05114758 0.11302862 0.12484344
0.09404544 -0.09295201 -0.25940183 -0.06706822 0.04235329 0.10086239 0.07856499 0.018911501
0.0008895614 -0.04951694 0.043673784 0.15158482 -0.14696465 -0.13255425 -0.1541928 -0.014782491
0.07242896 0.04702029 -0.066799805 -0.14751218 -0.14898393 0.056246106 0.2802545 -0.040161435
00000000: 2dc6 173e d091 453e 0eba 963e 3267 803d
00000010: cd83 0abe 096c 083e c861 353e 33a7 883e
00000020: 29bf a7bd b6cb babd 8a1c ba3d 49ac 003e
00000030: 306c 193e 6132 593e 5d35 e0bd 4afa fc3c
00000040: 2116 c1bd 8dad 3d3d ad9b 803d 6d1e 37bd
00000050: 3925 edbd 2215 89bd 421f 743d f3ff 1e3e
00000060: 9574 903c 1d6e 8a3c 30a9 44bd 483a 693d
00000070: 6720 473e bfe7 863e e752 1b3c 97e2 4cbe
00000080: eda5 29be 8bfe b6bb 4e1f 3c3d 2bec 663d
00000090: f041 263e 1ba2 2d3e 87a8 273e 6f05 bd3d
000000a0: 2753 62bd 0a58 b43d 8c05 4e3d 776f 64bc
000000b0: 6677 463d 1821 efbc 1a66 053d 1fc8 76bd
000000c0: 78a2 5cbc c9ab ac3d 7484 303d 95b9 cb3c
000000d0: 0152 b6bd b032 12be a2fc e7bd b97a 653e
000000e0: 6064 8b3e 7527 de3d bb81 623d 4b2f 8c3d
000000f0: 201e c63d 802e 813d 5b61 33be 4ba5 d53c
00000100: 3d88 cdbc bf68 8dbd aefc 73bc da42 f2bd
00000110: c74b 89bd 2c34 98be c73f ccbb eb93 133a
00000120: 0620 283e 6e96 d03c 8b4e a3bd 7ed5 903d
00000130: b211 c2bd ad89 60be e747 8cbe 0d5c 803d
00000140: e912 27bd 2b1f 00bd 506c 793d bbb3 933d
00000150: 4b2d 99bd 880f ec3c 8e2d 903d 73ac aabd
00000160: 8640 db3d 46e7 b63c f2f3 dcbc 2a12 81bd
00000170: 59d0 ffbd b4d3 e7bd cb62 0e3d d9b0 98bd
00000180: d129 2cbe 2fa5 e0bd 20db 823d d771 053e
00000190: e1d8 3e3b 4643 2abe 2690 45be 8c2c e7bc
000001a0: 0467 df3d f7b5 8dbd 4779 4abd 5094 3e3e
000001b0: 55a6 763e ab5a 983e 8d19 d4bd 1851 31bd
000001c0: 506d b4bd cfe0 053e 9899 5b3b d0b9 24be
000001d0: 79c8 18bc 14a0 a33d dd2d a73d ce72 c93d
000001e0: 97a0 333e 3be1 06be b558 f2bd 07fc 0abe
000001f0: 1f7b 1c3e fb19 9abc b78d 55be 2b4e 43be
00000200: d3e4 31be 7b86 a7bd eb28 06bd eab8 57be
00000210: 7542 27bd 65dd e43d 1fcc cb3c 7788 943c
00000220: 0b8f d23d ee50 25bd df26 283e 7ca5 1e3e
00000230: 1604 213e 4d37 d0bd 9c2c 8cbd 37e8 c6bd
00000240: 4b8b 67bd 7595 ddbd 70aa 71bd f4b4 0cbe
00000250: ef1f c1bd 0839 ff3d f4cb a6bc e344 9fbd
00000260: 23d8 a0be 28fd 253d 7eed 823d 6db1 2f3c
00000270: 3281 3bbd 0b49 e53d 12ce 303e 5c55 893e
00000280: 9dbe 02be 7c14 71bd 21e2 82bc 4505 cfbd
00000290: 59b6 9cbe 3aeb 23bd c2ea 973c 65f6 623c
000002a0: 1a53 043c 576e f93c a651 a13d ea64 eabd
000002b0: 9cfe f9bd 100a 06be 0530 c9bd 2101 30be
000002c0: 7598 a1be dc4a 16be 598a a73c 97a0 c63d
000002d0: 5a24 96bd a140 45be 896f 86be 6636 abbe
000002e0: 5042 dfbd 4555 0f3e 746d 293d 9da7 eebc
000002f0: 10cd 0d3e 74dc 27be 81f9 c2bd 467f a8bc
00000300: bebb adbd 7c61 22bd c45f 90bd 114d ffbd
00000310: 5594 8cbd 91ae 3dbd 4f27 6b3c 2482 c93c
00000320: 9705 ee3d a55f b1bc 7a78 00be e7db 19be
00000330: 11ee 8fbc 8a1d 423e a873 0b3e f845 123e
00000340: b112 ec3d 17cd 2c3e ba7f 323e 6a8c 40bd
00000350: 6c62 e6bd 2bfb 12bc 8e9a 0ebb 2e2b 6ebe
00000360: ade8 1abe e5b8 1cbe f9a5 19be fc10 bbbd
00000370: cd75 89bd e5bd 3dbe b3e6 5bbd 442a 7abd
00000380: 98bc 063e 89d8 3b3e 6631 703e 4527 193e
00000390: da3b 08be 2080 51bd 8d7b e73d ebad ff3d
000003a0: e59a c03d a05d bebd 51d0 84be 105b 89bd
000003b0: a57a 2d3d f190 ce3d aee6 a03d 4bec 9a3c
000003c0: 7431 693a 46d2 4abd 48e3 323d 0d39 1b3e
000003d0: e77d 16be 4dbc 07be b8e4 1dbe 4332 72bc
000003e0: a255 943d 5998 403d 56ce 88bd 6f0d 17be
000003f0: 3e8f 18be 5162 663d 857d 8f3e 5180 24bd

l1.bias f4 [128]
0.004572362 -0.08977634 0.09780199 0.045075994 -0.025436783 -0.015703557 -0.15399753 -0.022314044
0.0014651865 -0.13995534 0.020989917 -0.012551056 -0.253136 -0.0030134295 0.015043022 -0.008329827
-0.009626945 0.00036478695 -0.038805198 -0.1561305 0.06153294 -0.14638302 -0.17587118 -0.15309018
-0.17678173 -0.02575129 0.016818801 -0.049829528 0.0033939038 -0.11748314 -0.10340208 -0.16598934
0.043762553 -0.15459685 -0.2877903 -0.030160338 -0.058533844 -0.011096752 -0.2458347 -0.020552166
-0.031439602 0.16144992 -0.02069292 -0.006229452 -0.122875735 -0.1282241 0.008352891 -0.10490126
-0.0061576935 0.0040234914 -0.0036901152 -0.22747576 -0.009554244 -0.033825535 -0.298437 0.002847875
-0.031843692 -0.18968418 -0.18545051 -0.060403373 0.08152835 -0.00023993426 -0.085492104 -0.09368611
-0.23891751 -0.06756038 -0.033145323 -0.020906277 -0.11980604 -0.13641259 0.00049750507 -0.017243853
-0.12942716 -0.0022302913 -0.03858924 -0.36915523 -0.010485536 -0.033294566 0.13328256 -0.0038758172
-0.028690934 -0.13941321 0.012008306 -0.032042257 -0.15821977 0.0070991945 -0.013553912 -0.01175424
-0.03174052 -0.004183625 -0.007963705 -0.0088578295 -0.016683333 -0.06196824 -0.013192495 0.01839336
-0.0015873024 -0.07395389 0.011377446 -0.11110824 -0.011610878 -0.016156541 -0.071327776 -0.012173287
0.10968674 -0.01591252 -0.014305436 -0.07002072 -0.13316981 -0.03451129 -0.36548442 -0.0014354392
0.0028347215 -0.02236421 -0.008731267 -0.13336204 -0.065559044 -0.011688958 -0.029855758 -0.024689954
0.027166566 0.0047827917 -0.036905658 0.0011204239 -0.22915936 -0.23873381 0.016996643 -0.118410766
00000000: c1d3 953b a8dc b7bd 694c c83d 9ba1 383d
00000010: cd60 d0bc bfa4 80bc 87b1 1dbe f1cb b6bc
00000020: 800b c03a 7450 0fbe 0cf3 ab3c f2a2 4dbc
00000030: 0b9b 81be f57c 45bb 0277 763c d479 08bc
00000040: 55ba 1dbc e040 bf39 33f2 1ebd ace0 1fbe
00000050: f709 7c3d 6ee5 15be 9317 34be acc3 1cbe
00000060: 4506 35be 5ff4 d2bc 95c7 893c 0c1a 4cbd
00000070: 426c 5e3b 009b f0bd 78c4 d3bd 1cf9 29be
00000080: 5d40 333d a34e 1ebe 4059 93be d012 f7bc
00000090: 2fc1 6fbd 27cf 35bc 17bc 7bbe 045d a8bc
000000a0: d0c6 00bd 2153 253e 3384 a9bc 6e20 ccbb
000000b0: 46a6 fbbd 2e4d 03be 90da 083c 79d6 d6bd
000000c0: 7ac6 c9bb 7ed7 833b dcd5 71bb 68ef 68be
000000d0: 6789 1cbc a58c 0abd bccc 98be 6aa3 3a3b
000000e0: 886e 02bd 923c 42be bde6 3dbe 8769 77bd
000000f0: 56f8 a63d dd96 7bb9 7c16 afbd 81de bfbd
00000100: cba6 74be 195d 8abd 64c3 07bd a443 abbc
00000110: de5c f5bd beaf 0bbe 006b 023a fb42 8dbc
00000120: 8e88 04be 142a 12bb c00f 1ebd ea01 bdbe
00000130: 87cb 2bbc e25f 08bd 397b 083e 6c01 7ebb
00000140: 4009 ebbc 56c2 0ebe 7cbe 443c be3e 03bd
00000150: 5d04 22be 5ca0 e83b 3a11 5ebc db94 40bc
00000160: 5902 02bd ca16 89bb 337a 02bc 6e20 11bc
00000170: 7cab 88bc 69d2 7dbd 5625 58bc acad 963c
00000180: 080d d0ba 2375 97bd 7868 3a3c b88c e3bd
00000190: 8d3b 3ebc b95a 84bc 4c14 92bd 7772 47bc
000001a0: 71a3 e03d f95a 82bc 5961 6abc 0667 8fbd
000001b0: ab5d 08be b65b 0dbd c620 bbbe 5925 bcba
000001c0: bcc6 393b 2635 b7bc 970d 0fbc 0f90 08be
000001d0: d243 86bd 0b83 3fbc 1094 f4bc 9642 cabc
000001e0: 6b8c de3c f7b8 9c3b 632a 17bd 30db 923a
000001f0: c0a8 6abe a376 74be 8b3c 8b3c 5881 f2bd

l2.weight f4 [10, 128]
-0.2576959 -0.36314029 0.08537045 -0.43558252 -0.001812816 0.07573889 0.11719003 0.047158428
-0.0075627314 0.14938737 0.08443752 0.02030948 -0.14365056 0.19793431 0.0754621 0.026569579
0.03424095 0.06698031 0.05745998 -0.0766999 -0.1802608 0.008772693 -0.2972117 0.036597498
0.0045549595 0.020531055 -0.008950463 -0.31833896 0.041218862 0.07227271 0.09321283 0.07190391
-0.24868996 -0.22710212 -0.32209092 0.018242367 -0.17080174 -0.043537952 0.07202812 0.035125703
0.069113694 0.24973346 0.024922011 0.04246051 -0.0011034942 -0.2591545 0.042980626 -0.173725
-0.037335806 -0.03163348 -0.026802067 -0.2740416 0.022296764 -0.017615715 -0.13909405 0.044821836
0.028790398 -0.2668505 -0.16594447 -0.16661325 -0.16827747 -0.052962117 -0.27030793 -0.3243891
-0.19018233 -0.19601612 -0.21314523 0.012492255 -0.12157963 0.108773656 -0.019117478 0.058361154
0.07536123 0.064163215 0.061418355 -0.19590446 0.07438197 -0.03968727 -0.17526233 -0.0486956
-0.36713022 0.10018872 -0.06312382 0.014477277 -0.32245472 0.07859346 0.024284024 0.033044808
-0.049279235 -0.045027792 0.072950885 -0.044319306 -0.06586079 0.1462517 0.085980855 -0.16525866
0.082062475 0.1357646 0.074731596 0.09883072 0.013680215 -0.0428587 -0.14267613 -0.013383906
-0.34302577 0.029344216 -0.07597716 -0.10538182 0.17292245 0.020725898 -0.20434853 0.15169644
-0.097783245 -0.08077799 0.06324236 -0.27315092 -0.15469958 0.057158053 -0.071484536 0.05638388
0.2072898 -0.012086614 -0.06313328 0.08294143 -0.14917175 -0.20691319 0.022626419 0.042856503
0.10121384 -0.16360685 0.104277186 0.17659187 -0.041640304 -0.017224686 -0.47886398 -0.07466225
-0.0145191 -0.2761515 0.04324359 -0.047632787 -0.315564 0.19109024 0.076501764 -0.046394985
-0.036122575 0.039959703 0.010557182 -0.16712265 0.21317665 -0.2522695 0.00022000217 -0.21017538
-0.19414797 0.03428205 -0.004953943 0.081884846 -0.01070476 -0.08107189 -0.19954105 -0.27755243
0.22128348 0.076155886 -0.33699468 0.05227221 -0.27272332 0.03890193 -0.17455539 0.039286498
-0.0944092 0.27664283 -0.0846406 -0.09155754 -0.36637133 -0.40260252 0.019974122 -0.33371177
0.053659715 -0.06262125 -0.009950888 0.026883617 0.037519015 0.06573903 -0.30585164 -0.06275612
-0.020978004 0.012921057 -0.0057599903 0.047358133 0.16627261 0.026007071 -0.18163563 -0.16928974
-0.19499911 0.052795984 0.07947926 -0.024222363 0.16786785 -0.042752184 -0.0028931033 -0.00823437
0.017243179 0.06508642 0.073048905 -0.22259407 -0.051754937 -0.053837188 0.21947214 -0.039816637
-0.3550868 -0.19493909 0.033597715 -0.07643175 -0.2562025 -0.08745973 -0.025556304 -0.06486298
0.017545585 0.05408287 -0.041085634 0.056959704 -0.0173022 -0.4083232 0.0715403 0.10790737
0.021472326 -0.13608043 0.07487467 -0.10223781 0.01083594 0.048831772 -0.27314773 -0.014733438
0.10912988 -0.02839832 -0.0019060159 0.052002978 0.051419634 -0.08506694 -0.22968014 0.013731803
-0.06468377 0.035324022 0.060351986 -0.0048402008 -0.05777444 -0.090039074 0.019410538 0.050782666
0.21406509 0.03568154 0.060848236 -0.036814265 -0.21879052 -0.3122506 0.012399809 -0.0927699
00000000: b8f0 83be 86ed b9be b4d6 ae3d ac04 dfbe
00000010: 039c edba fe1c 9b3d 5401 f03d 3229 413d
00000020: cad0 f7bb 01f9 183e 94ed ac3d 1160 a63c
00000030: 2219 13be 4baf 4a3e e08b 9a3d 72a8 d93c
00000040: 3d40 0c3d f92c 893d 285b 6b3d d614 9dbd
00000050: 4a96 38be 57bb 0f3c 222c 98be 42e7 153d
00000060: c541 953b be30 a83c f6a4 12bc 53fd a2be
00000070: 1cd5 283d b703 943d 5ee6 be3d 5b42 933d
00000080: 95a8 7ebe 758d 68be 1ae9 a4be 0471 953c
00000090: a7e6 2ebe da54 32bd 7b83 933d f8df 0f3d
000000a0: 7b8b 8d3d 21ba 7f3e 3f29 cc3c 12eb 2d3d
000000b0: 1fa3 90ba e6af 84be 740c 303d f7e4 31be
000000c0: 6eed 18bd 1c92 01bd 0290 dbbc 2e4f 8cbe
000000d0: b4a7 b63c d54e 90bc ac6e 0ebe 1a97 373d
000000e0: d7d9 eb3c a1a0 88be 59ed 29be aa9c 2abe
000000f0: ee50 2cbe ceee 58bd cd65 8abe 5416 a6be
00000100: 28bf 42be 73b8 48be be42 5abe 51ac 4c3c
00000110: befe f8bd b9c4 de3d 429c 9cbc 1b0c 6f3d
00000120: fd56 9a3d 0168 833d d091 7b3d 2e9b 48be
00000130: 9355 983d 1e8f 22bd f877 33be 0a75 47bd
00000140: 7ef8 bbbe be2f cd3d 1047 81bd 1a32 6d3c
00000150: c918 a5be 9cf5 a03d 4aef c63c fe59 073d
00000160: 06d9 49bd 106f 38bd 4667 953d 2988 35bd
00000170: 06e2 86bd 01c3 153e bb16 b03d 9139 29be
00000180: 5f10 a83d e005 0b3e e10c 993d c367 ca3d
00000190: fb22 603c 9b8c 2fbd b119 12be 2c48 5bbc
000001a0: 13a1 afbe 4863 f03c ea99 9bbd 6cd2 d7bd
000001b0: 9512 313e 5cc9 a93c be40 51be 5056 1b3e
000001c0: 9542 c8bd ee6e a5bd 3685 813d 70da 8bbe
000001d0: 9169 1ebe 901e 6a3d 7c66 92bd c9f2 663d
000001e0: c743 543e ef06 46bc 054c 81bd 32dd a93d
000001f0: 7bc0 18be 0de1 53be 0a5b b93c 4d8a 2f3d
00000200: 3449 cf3d 8e88 27be 478f d53d 80d4 343e
00000210: 068f 2abd c91a 8dbc a92d f5be 86e8 98bd
00000220: 85e1 6dbc bb63 8dbe 3120 313d 991a 43bd
00000230: 9b91 a1be 29ad 433e f5ac 9c3d ab08 3ebd
00000240: 44f5 13bd c9ac 233d 08f8 2c3c 3322 2bbe
00000250: fb4a 5a3e 7829 81be 62b0 6639 3738 57be
00000260: bace 46be 566b 0c3d b054 a2bb 3eb3 a73d
00000270: 0563 2fbc 0509 a6bd 7d54 4cbe 5a1b 8ebe
00000280: 2398 623e 9ef7 9b3d 918a acbe 631b 563d
00000290: 64a2 8bbe a157 1f3d a6be 32be e1ea 203d
000002a0: 9c59 c1bd 21a4 8d3e 0d58 adbd 8582 bbbd
000002b0: 0695 bbbe eb21 cebe c5a0 a33c 45dc aabe
000002c0: 4aca 5b3d 923f 80bd 0d09 23bc 083b dc3c
000002d0: 8aad 193d 2fa2 863d 9698 9cbe 4886 80bd
000002e0: 10da abbc d7b2 533c 4dbe bcbb 9afa 413d
000002f0: 5e43 2a3e c80c d53c b1fe 39be 4a5a 2dbe
00000300: d9ad 47be 9a40 583d 06c6 a23d fa6d c6bc
00000310: 8de5 2b3e ea1c 2fbd 389a 3dbb 73e9 06bc
00000320: 9141 8d3c 074c 853d aa9a 953d b3ef 63be
00000330: fcfc 53bd 6284 5cbd 4ebd 603e c516 23bd
00000340: f0cd b5be 1d9e 47be c29d 093d 4088 9cbd
00000350: f92c 83be 161e b3bd 745b d1bc e2d6 84bd
00000360: c2bb 8f3c 0086 5d3d 6949 28bd 944e 693d
00000370: 58bd 8dbc bd0f d1be b983 923d 8afe dc3d
00000380: bbe6 af3c ab58 0bbe e457 993d 0f62 d1bd
00000390: 3a89 313c d303 483d 05da 8bbe 8564 71bc
000003a0: 7d7f df3d 98a3 e8bc 48d3 f9ba 1301 553d
000003b0: 659d 523d 9337 aebd 4531 6bbe 5bfb 603c
000003c0: ed78 84bd ecaf 103d a533 773d 8c9a 9ebb
000003d0: e4a4 6cbd 6866 b8bd d902 9f3c 7c01 503d
000003e0: e133 5b3e ce26 123d 003c 793d 8eca 16bd
000003f0: 9f0a 60be 50df 9fbe 9228 4b3c 25fe bdbd

l2.bias f4 [10]
0.20119399 0.25977397 0.2691984 0.31441712 0.119210966 0.12838529 0.13458957 0.21839322
0.11074401 0.08895962
00000000: cc05 4e3e 1801 853e 5fd4 893e 48fb a03e
00000010: e124 f43d 6f77 033e d9d1 093e 79a2 5f3e
00000020: c1cd e23d 7630 b63d

bn1.weight f4 [32]
0.79576135 0.9141763 1.0009954 1.3653857 0.9361883 1.1594195 1.0003519 1.0043517
0.9817702 1.571661 0.7424232 0.8795816 1.1333958 1.1724331 1.1917146 1.1121854
1.1529868 1.390947 1.1106102 0.9629172 0.7091021 0.93224895 1.3564821 0.81341004
1.112637 0.41565958 0.968368 0.90529096 1.2070626 0.61922085 0.41300458 0.6502787
00000000: 04b7 4b3f 7507 6a3f 9e20 803f f5c4 ae3f
00000010: 09aa 6f3f dc67 943f 880b 803f 998e 803f
00000020: 4b55 7b3f 302c c93f 720f 3e3f 422c 613f
00000030: 1d13 913f 4a12 963f 1b8a 983f 175c 8e3f
00000040: 1295 933f 8d0a b23f 7a28 8e3f be81 763f
00000050: b787 353f dea7 6e3f 35a1 ad3f a43b 503f
00000060: e46a 8e3f 55d1 d43e f7e6 773f 26c1 673f
00000070: 0781 9a3f 4285 1e3f 5675 d33e aa78 263f

bn1.bias f4 [32]
-0.44830346 -0.12365313 -0.21687928 -0.0417554 -0.106789365 -0.08605002 0.2016174 -0.101082295
-0.21640722 -0.08965104 -0.7692899 -0.5054555 -0.1391163 -0.37851614 -0.038962696 -0.28888175
-0.095861435 -0.10417379 -0.02426394 -0.40256152 -0.5232517 -0.29550672 -0.10899433 -0.082561664
-0.2594883 -0.7421564 -0.06384528 -0.6401551 -0.12568918 -0.3800859 -0.49803138 -0.5352612
00000000: 0888 e5be da3d fdbd 9a15 5ebe b607 2bbd
00000010: 62b4 dabd fe3a b0bd cb74 4e3e 3c04 cfbd
00000020: db99 5dbe f79a b7bd 2ff0 44bf 8865 01bf
00000030: 8174 0ebe decc c1be 5997 1fbd 4fe8 93be
00000040: 0053 c4bd 1159 d5bd 2cc5 c6bc 8b1c cebe
00000050: d3f3 05bf a84c 97be 6b38 dfbd 1716 a9bd
00000060: a7db 84be f6fd 3dbf 50c1 82bd 34e1 23bf
00000070: aab4 00be 9e9a c2be f8fd febe e106 09bf

bn1.running_mean f4 [32]
-0.08016694 0.40393552 0.4110554 0.5479069 0.059191298 0.16635671 0.29230347 0.6818561
0.8204632 0.08935031 -0.20704333 0.37082568 0.28974566 0.063329145 0.5599968 -0.20134662
0.19491683 0.5201679 0.03606274 0.13304403 0.10852239 0.1842781 0.21076466 0.23362085
0.7038176 -0.72135675 0.2866588 0.3702571 0.4660405 0.47610506 -0.14478022 -0.3971295
00000000: 912e a4bd a3d0 ce3e da75 d23e a043 0c3f
00000010: 9372 723d 6a59 2a3e cda8 953e 1f8e 2e3f
00000020: e009 523f 4cfd b63d 2b03 54be dddc bd3e
00000030: 8b59 943e b6b2 813d f35b 0f3f cf2d 4ebe
00000040: 4798 473e b929 053f 86b6 133d b23c 083e
00000050: fd40 de3d 66b3 3c3e b1d2 573e 4e3a 6f3e
00000060: 642d 343f d6aa 38bf f1c4 923e 5792 bd3e
00000070: dc9c ee3e 0bc4 f33e 4441 14be 8f54 cbbe

bn1.running_var f4 [32]
0.045978937 0.1644543 0.1119395 0.0596946 0.12609261 0.1573207 0.08493836 0.1854302
0.24837574 0.05716018 0.022468243 0.028689694 0.16545573 0.06215254 0.1354032 0.08620761
0.17666535 0.060621172 0.056220103 0.044637818 0.14649017 0.15803924 0.09820506 0.19558786
0.33377254 0.47610188 0.3294996 0.058089536 0.093821004 0.16987257 0.13585152 0.044385105
00000000: 6954 3c3d b566 283e 8940 e53d 5382 743d
00000010: 6c1e 013e ad18 213e 2af4 ad3d 6ae1 3d3e
00000020: 3656 7e3e cb20 6a3d 520f b83c a606 eb3c
00000030: 3a6d 293e a993 7e3d 23a7 0a3e 9e8d b03d
00000040: c3e7 343e e84d 783d 0d47 663d 25d6 363d
00000050: 8501 163e 0ad5 213e bc1f c93d 2f48 483e
00000060: 3ce4 aa3e a0c3 f33e 2cb4 a83e 4bef 6d3d
00000070: 3a25 c03d 13f3 2d3e a91c 0b3e 28cd 353d

bn2.weight f4 [64]
0.9693114 0.8816096 0.9030523 1.1396024 1.0288187 1.0167158 1.2262746 1.0251067
1.1548336 1.0675508 1.1685771 1.094027 1.199965 0.97295004 1.2160339 1.0011951
1.0375024 1.0507666 1.0267794 0.9684035 0.923783 1.087179 1.1124188 0.88545203
0.9382517 1.2062336 1.0749342 1.1194804 0.9561852 1.1347263 1.0874292 0.9665251
0.86394596 0.9942282 1.0633893 1.1437749 1.2009197 1.1631379 1.0203369 0.90820134
1.1745111 1.1529027 1.0767981 1.0441608 1.1840266 1.2902628 0.90503186 1.0177574
0.96610415 0.82627964 1.052479 0.9305272 0.87339425 0.9499796 1.1184242 0.987845
0.9509591 0.9867719 0.95514166 0.93582165 0.9954975 0.9847469 0.9541247 1.1009414
00000000: cb24 783f 2bb1 613f 6f2e 673f 7ede 913f
00000010: 55b0 833f be23 823f 91f6 9c3f b236 833f
00000020: 96d1 933f 81a5 883f ef93 953f 1409 8c3f
00000030: 7498 993f 4113 793f 00a7 9b3f 2927 803f
00000040: e1cc 843f 857f 863f 826d 833f 4be9 773f
00000050: 0b7d 6c3f ae28 8b3f bd63 8e3f fcac 623f
00000060: 4331 703f dd65 9a3f 7297 893f 224b 8f3f
00000070: 8ec8 743f b63e 913f e130 8b3f 306e 773f
00000080: 902b 5d3f bd85 7e3f 241d 883f 3767 923f
00000090: bdb7 993f b4e1 943f 669a 823f e27f 683f
000000a0: 6156 963f 5192 933f 85d4 893f 10a7 853f
000000b0: 2f8e 973f 5527 a53f 2bb0 673f e045 823f
000000c0: 9a52 773f 1087 533f a2b7 863f 0837 6e3f
000000d0: c496 5f3f dd31 733f 8628 8f3f 69e3 7c3f
000000e0: 0e72 733f 159d 7c3f 2a84 743f 0292 6f3f
000000f0: edd8 7e3f 5f18 7c3f 8441 743f a6eb 8c3f

bn2.bias f4 [64]
-0.5536722 -0.4687018 -0.40204126 -0.51266676 -0.61614656 -0.37075454 -0.58029354 -0.40173456
-0.3824488 -0.48064852 -0.43521178 -0.3998457 -0.41240466 -0.63207674 -0.5344927 -0.40601724
-0.43501055 -0.7358549 -0.44323438 -0.7165438 -0.4577839 -0.5398058 -0.47143582 -0.5397428
-0.47447604 -0.4549684 -0.4090107 -0.52532697 -0.4534119 -0.40687096 -0.38884288 -0.49656776
-0.479906 -0.68735385 -0.5541184 -0.381665 -0.33331412 -0.4590584 -0.55505365 -0.68868524
-0.42180052 -0.35573938 -0.38942662 -0.44007814 -0.37701523 -0.5316456 -0.48179084 -0.39813313
-0.35505956 -0.70617944 -0.41480535 -0.37000364 -0.5677833 -0.60252625 -0.49432877 -0.62083846
-0.7353777 -0.5234584 -0.4365912 -0.41253862 -0.40069258 -0.59154755 -0.48455378 -0.4299481
00000000: 76bd 0dbf aff9 efbe 5ad8 cdbe 213e 03bf
00000010: c8bb 1dbf 8ad3 bdbe 1e8e 14bf 27b0 cdbe
00000020: 54d0 c3be 9017 f6be 14d4 debe 93b8 ccbe
00000030: b426 d3be c8cf 21bf 83d4 08bf 7ee1 cfbe
00000040: b4b9 debe fd60 3cbf 9eef e2be 6a6f 37bf
00000050: a762 eabe b730 0abf 0960 f1be 962c 0abf
00000060: 86ee f2be 9ef1 e8be da69 d1be d47b 06bf
00000070: 9b25 e8be 6451 d0be 6a16 c7be 213e febe
00000080: 3db6 f5be 6cf6 2fbf b4da 0dbf 9869 c3be
00000090: 26a8 aabe b409 ebbe ff17 0ebf ad4d 30bf
000000a0: 3df6 d7be 7923 b6be ed62 c7be ec51 e1be
000000b0: 2408 c1be ed19 08bf 4aad f6be 1bd8 cbbe
000000c0: 5eca b5be 2dc8 34bf 5e61 d4be 1e71 bdbe
000000d0: 3f5a 11bf 293f 1abf a918 fdbe 45ef 1ebf
000000e0: b741 3cbf 5f01 06bf e288 dfbe 4338 d3be
000000f0: 9427 cdbe a96f 17bf 6f17 f8be 2822 dcbe

bn2.running_mean f4 [64]
-0.3299144 2.1494076 -7.033285 -0.073444664 -0.8373701 -1.7225375 0.3129987 1.9160148
-1.0686775 -1.5654211 1.1974971 -1.340708 -1.2596332 -0.60679924 -1.5041416 -0.18243958
-0.22590423 -3.2547977 -1.4159049 -1.9435457 -0.4808096 -1.9289039 2.0276382 -0.77268845
0.29534528 -1.5133348 -1.5095068 0.3092749 0.028678704 -2.2948492 2.4641752 -1.2983531
-0.9231857 0.6980912 0.74165916 -0.5945323 1.2734289 3.1148942 -4.6057105 -1.1822684
-0.50438267 0.004021114 -0.87148005 0.8148021 1.8488097 -2.1667285 -1.5361046 -0.5643685
-1.829187 0.65812033 -1.0104327 -2.5675309 1.3389478 -3.8494966 2.4603233 -3.2652304
-2.0726013 -2.9228675 -0.7639112 -1.7853254 -0.29552433 -1.4624448 1.3907044 -0.33124962
00000000: 8aea a8be e58f 0940 ac10 e1c0 286a 96bd
00000010: e35d 56bf 1c7c dcbf 5e41 a03e f93f f53f
00000020: 6dca 88bf b85f c8bf 9647 993f 529c abbf
00000030: a93b a1bf 3257 1bbf b687 c0bf 71d1 3abe
00000040: 7053 67be 9b4e 50c0 5f3c b5bf 1bc6 f8bf
00000050: ad2c f6be 53e6 f6bf d3c4 0140 e9ce 45bf
00000060: 7f37 973e f4b4 c1bf 8537 c1bf 4859 9e3e
00000070: 9aef ea3c cfde 12c0 0cb5 1d40 6f30 a6bf
00000080: e655 6cbf 1bb6 323f 60dd 3d3f 4533 18bf
00000090: b8ff a23f 6d5a 4740 fb61 93c0 9254 97bf
000000a0: 391f 01bf 8dc3 833b 5119 5fbf df96 503f
000000b0: cca5 ec3f aeab 0ac0 139f c4bf 747a 10bf
000000c0: cd22 eabf 937a 283f dc55 81bf 6d52 24c0
000000d0: a462 ab3f 275e 76c0 f075 1d40 89f9 50c0
000000e0: 80a5 04c0 4310 3bc0 af8f 43bf 8b85 e4bf
000000f0: f74e 97be 6431 bbbf 9a02 b23f 8d99 a9be

bn2.running_var f4 [64]
7.217954 8.577025 12.678258 6.5182686 8.780138 6.100144 5.998485 7.018071
6.9234357 9.272096 7.2194386 8.451917 8.169412 5.496573 5.5094357 11.096363
6.502764 5.0886083 7.0323324 4.033492 5.821145 9.38166 6.00668 9.716179
7.7827473 8.53717 8.25132 6.9187202 10.542169 7.847682 6.2745748 7.247672
6.867094 5.432618 8.14345 7.1187205 6.446646 5.03937 8.895258 4.619408
7.1647205 10.533786 7.55723 10.041229 7.3036137 6.1811905 7.960162 6.831037
6.0357304 3.7269695 9.071441 10.618983 8.349951 7.045052 5.584116 8.208514
5.1779203 11.361494 8.32206 6.999525 5.8644896 6.355096 7.14146 8.992756
00000000: 7bf9 e640 7f3b 0941 25da 4a41 a895 d040
00000010: 727b 0c41 6134 c340 97f3 bf40 0a94 e040
00000020: c98c dd40 815a 1441 a405 e740 0d3b 0741
00000030: e9b5 0241 ede3 af40 4c4d b040 b48a 3141
00000040: a516 d040 e1d5 a240 de08 e140 5e12 8140
00000050: d246 ba40 481b 1641 b936 c040 7875 1b41
00000060: 440c f940 4098 0841 6805 0441 2866 dd40
00000070: b9ac 2841 3620 fb40 51c9 c840 eeec e740
00000080: 3cbf db40 02d8 ad40 924b 0241 8fcc e340
00000090: ed4a ce40 8542 a140 fa52 0e41 31d2 9340
000000a0: 6445 e540 638a 2841 d4d4 f140 e0a8 2041
000000b0: 34b7 e940 50cc c540 a6b9 fe40 db97 da40
000000c0: b424 c140 ab86 6e40 9f24 1141 5be7 2941
000000d0: 6699 0541 1171 e140 14b1 b240 1356 0341
000000e0: 86b1 a540 aec8 3541 2827 0541 1cfc df40
000000f0: e6a9 bb40 f25c cb40 d786 e440 54e2 0f41

features.0.weight f4 [32, 1, 3, 3]
-0.10271667 -0.063902 0.28466347 0.10307124 0.090095 0.100000925 0.13338268 -0.1995429
-0.29841876 -0.2575249 0.12874824 -0.1816712 -0.42552474 0.26297143 0.19768202 -0.31013557
0.02276196 0.052185476 -0.2291101 -0.080759495 0.24152747 -0.08742325 -0.17142943 -0.37552872
-0.08027982 0.08597403 0.24313305 -0.11183335 0.091571726 0.14537287 -0.16804111 -0.32108083
-0.05452948 0.1341966 0.08221404 -0.15831155 -0.0432626 -0.19199309 -0.22979559 -0.25939387
-0.12472279 0.1703495 0.35973564 0.1479774 -0.3449592 0.22118285 0.13726507 0.22667597
-0.18136308 0.11167907 -0.046771057 -0.21050979 -0.24840456 -0.3095707 -0.13720304 -0.28417468
-0.24618135 -0.105579264 0.24890226 0.11805232 0.19474468 0.06938564 0.07054441 -0.070870034
0.23162973 0.07905615 -0.34873414 0.014847953 0.058484856 -0.1357132 -0.30919874 -0.15964836
0.16530703 -0.009888578 0.26292065 -0.21270786 -0.12278009 -0.36532986 -0.35818908 -0.040066816
-0.077283934 0.09890285 0.19220278 -0.24149685 -0.031123217 -0.27217144 -0.11001484 -0.11123113
-0.037843652 0.2648642 0.13981628 0.13626635 -0.22642606 -0.3071108 0.13704798 0.2124029
-0.005194376 -0.2320204 0.05880573 -0.059707284 -0.36099812 -0.041129388 0.26512766 0.20554434
0.24984446 -0.2540074 0.06261749 -0.19615023 0.20929822 0.16797015 -0.21236964 0.05604386
-0.15396988 -0.25474927 -0.035819177 -0.21968363 -0.04128852 0.02317174 -0.08388528 -0.2103672
0.12343584 0.0734542 -0.31856132 -0.09034979 0.3113323 0.2474172 -0.046186484 0.2613539
0.004294934 0.2867074 5.8360165e-05 -0.26033875 -0.3168119 -0.27004936 -0.06922383 0.28634137
-0.24033847 -0.13321483 0.22568619 0.06928245 -0.2659304 0.013576016 0.22413701 -0.08594341
-0.16369988 -0.0047919704 0.19892646 -0.31567615 -0.2614336 0.31670567 0.007594466 -0.2303757
-0.07848318 -0.03667734 -0.24174194 -0.00839859 0.2824729 -0.34118554 0.25300768 0.048314486
-0.19645792 -0.089242436 -0.15147269 0.20109053 0.11358501 -0.33387133 -0.022647053 -0.32998452
0.117861986 0.26790768 -0.17408316 -0.1455873 0.22172968 -0.08149175 -0.13889492 0.28999567
-0.1662029 0.19712445 0.078818895 -0.28937235 0.21914439 0.090348594 0.11612093 -0.21467519
0.19127207 0.25206846 -0.44929972 -0.25213084 0.20218347 -0.41331825 0.0773894 0.11173017
-0.23158939 -0.11294976 0.32124785 0.09151791 0.042419873 0.1969263 0.20428297 -0.12921084
-0.11726837 0.08472182 -0.345049 0.067782864 -0.50795746 0.29600394 0.048103414 0.09635703
0.28628805 -0.20565882 -0.08325549 0.04808449 0.21948126 -0.21056643 -0.30465445 -0.43282005
0.33329 0.051099353 -0.20890652 -0.17384762 0.065083355 -0.3128802 -0.26962528 -0.2250761
-0.13422643 0.06026915 0.02074296 0.18390378 -0.04004472 0.16328543 0.39167607 0.39060032
0.24114628 -0.21516012 -0.053621843 -0.41452393 0.24390827 -0.18614826 -0.18969154 0.27070677
-0.4610118 -0.022387944 0.044425435 -0.41850996 0.05529437 0.09459686 -0.019237239 0.09915817
0.19161145 0.08007992 0.23350197 -0.43607813 -0.030579576 0.18622614 -0.30502376 0.32142377
00000000: 1e5d d2bd 0ddf 82bd 69bf 913e 0417 d33d
00000010: ba83 b83d 49cd cc3d 7895 083e f954 4cbe
00000020: 58ca 98be 4eda 83be 94d6 033e 0408 3abe
00000030: 61de d9be 31a4 863e 286d 4a3e 17ca 9ebe
00000040: 4a77 ba3c 70c0 553d d79b 6abe 3c65 a5bd
00000050: fa52 773e f60a b3bd 328b 2fbe 4d45 c0be
00000060: bf69 a4bd 2713 b03d dff7 783e e208 e5bd
00000070: f589 bb3d a0dc 143e f812 2cbe b564 a4be
00000080: 4e5a 5fbd d56a 093e d65f a83d 6c1c 22be
00000090: 2034 31bd d699 44be 894f 6bbe 46cf 84be
000000a0: aa6e ffbd 1970 2e3e 452f b83e 6387 173e
000000b0: 7e9e b0be c27d 623e 378f 0c3e bf1d 683e
000000c0: 3eb7 39be ffb7 e43d 0293 3fbd e18f 57be
000000d0: c45d 7ebe 0d80 9ebe f47e 0cbe 587f 91be
000000e0: f716 7cbe f139 d8bd 3ce0 7e3e 6ac5 f13d
000000f0: 266b 473e 0f1a 8e3d 9679 903d 4f24 91bd
00000100: 5830 6d3e 31e8 a13d 488d b2be d444 733c
00000110: d18d 6f3d 67f8 0abe 4c4f 9ebe dc7a 23be
00000120: 3f46 293e b403 22bc 899d 863e 17d0 59be
00000130: 2174 fbbd 840c bbbe 8f64 b7be 1a1d 24bd
00000140: 0a47 9ebd 948d ca3d ced0 443e f34a 77be
00000150: 1ef6 febc 0e5a 8bbe 764f e1bd 26cd e3bd
00000160: f201 1bbd 489c 873e 002c 0f3e 6889 0b3e
00000170: 3cdc 67be a03d 9dbe 4e56 0c3e 2580 593e
00000180: 9635 aabb c196 6dbe 47de 703d a08f 74bd
00000190: bfd4 b8be 4a77 28bd d0be 873e 377a 523e
000001a0: 3ad7 7f3e 420d 82be 993d 803d 9bdb 48be
000001b0: 4652 563e 5e00 2c3e 6d77 59be 3f8e 653d
000001c0: 48aa 1dbe 7f6e 82be 21b7 12bd bff4 60be
000001d0: 271e 29bd a9d2 bd3c 0ccc abbd 806a 57be
000001e0: eecb fc3d 286f 963d 781a a3be 5009 b9bd
000001f0: f266 9f3e ef5a 7d3e 0a2e 3dbd 2ed0 853e
00000200: 85bc 8c3b 50cb 923e c0c7 7438 1f4b 85be
00000210: 2b35 a2be e943 8abe 39c5 8dbd 569b 923e
00000220: 4a1b 76be 7869 08be 481a 673e f5e3 8d3d
00000230: 0828 88be f06d 5e3c 2c84 653e 1903 b0bd
00000240: f1a0 27be f605 9dbb 61b3 4b3e 4ea0 a1be
00000250: a0da 85be 3f27 a23e 00db f83b 9ce7 6bbe
00000260: cabb a0bd fa3a 16bd 338b 77be 3d9a 09bc
00000270: 4aa0 903e dfaf aebe 398a 813e 69e5 453d
00000280: 442c 49be bdc4 b6bd a81b 1bbe adea 4d3e
00000290: 429f e83d 2ff1 aabe 5086 b9bc bbf3 a8be
000002a0: a061 f13d 322b 893e db42 32be d614 15be
000002b0: 1b0d 633e 26e5 a6bd 783a 0ebe 507a 943e
000002c0: 1831 2abe feda 493e cd6b a13d 9d28 94be
000002d0: 6367 603e af08 b93d cfd0 ed3d d0d3 5bbe
000002e0: d3dc 433e 1e0f 813e 9d0a e6be 4b17 81be
000002f0: 2f09 4f3e 739e d3be 557e 9e3d cad2 e43d
00000300: c525 6dbe 3452 e7bd 997a a43e be6d bb3d
00000310: 76c0 2d3d 0ca7 493e 8e2f 513e d94f 04be
00000320: 662a f0bd a282 ad3d 43aa b0be bed1 8a3d
00000330: 8009 02bf d48d 973e 1608 453d d656 c53d
00000340: 5994 923e 3a98 52be db81 aabd 3ef4 443d
00000350: b2bf 603e ba9e 57be abfb 9bbe 979a ddbe
00000360: fda4 aa3e 8e4d 513d 97eb 55be 1c05 32be
00000370: 6c4a 853d d531 a0be 530c 8abe 597a 66be
00000380: a772 09be c9dc 763d 24ed a93c 4651 3c3e
00000390: ef05 24bd 4c34 273e c489 c83e c4fc c73e
000003a0: 0def 763e ef52 5cbe 94a2 5bbd 7b3c d4be
000003b0: 17c3 793e a69d 3ebe 803e 42be 149a 8a3e
000003c0: bd09 ecbe ec66 b7bc 72f7 353d f046 d6be
000003d0: 597c 623d 00bc c13d 6a97 9dbc 7013 cb3d
000003e0: cb35 443e f100 a43d 241b 6f3e a245 dfbe
000003f0: 0582 fabc 11b2 3e3e 132c 9cbe a891 a43e

features.0.bias f4 [32]
-0.046665385 0.053531993 0.09578917 0.29493812 -0.29806587 -0.03355415 0.2431751 0.23586158
0.30331078 -0.08581231 -0.27230263 0.27786246 -0.047985803 0.12433677 0.2752387 -0.13405368
-0.18646567 0.29215476 -0.17371833 0.10684595 0.21555735 0.23326392 -0.064945556 -0.16964391
0.09187561 0.110884115 -0.24843656 0.2865558 0.19919989 0.12996423 -0.13627762 -0.31660512
00000000: 3424 3fbd 5d44 5b3d 1d2d c43d 2102 973e
00000010: 179c 98be 1470 09bd e502 793e b385 713e
00000020: 8d4b 9b3e 5dbe afbd 406b 8bbe fd43 8e3e
00000030: c38c 44bd 47a4 fe3d 16ec 8c3e 5e45 09be
00000040: dbf0 3ebe 4f95 953e 38e3 31be 0dd2 da3d
00000050: 11bb 5c3e bddc 6e3e 2d02 85bd 22b7 2dbe
00000060: 4829 bc3d 3617 e33d 2766 7ebe 71b7 923e
00000070: 0efb 4b3e 5815 053e 5c8c 0bbe 111a a2be

features.1.weight f4 [32]
0.79576135 0.9141763 1.0009954 1.3653857 0.9361883 1.1594195 1.0003519 1.0043517
0.9817702 1.571661 0.7424232 0.8795816 1.1333958 1.1724331 1.1917146 1.1121854
1.1529868 1.390947 1.1106102 0.9629172 0.7091021 0.93224895 1.3564821 0.81341004
1.112637 0.41565958 0.968368 0.90529096 1.2070626 0.61922085 0.41300458 0.6502787
00000000: 04b7 4b3f 7507 6a3f 9e20 803f f5c4 ae3f
00000010: 09aa 6f3f dc67 943f 880b 803f 998e 803f
00000020: 4b55 7b3f 302c c93f 720f 3e3f 422c 613f
00000030: 1d13 913f 4a12 963f 1b8a 983f 175c 8e3f
00000040: 1295 933f 8d0a b23f 7a28 8e3f be81 763f
00000050: b787 353f dea7 6e3f 35a1 ad3f a43b 503f
00000060: e46a 8e3f 55d1 d43e f7e6 773f 26c1 673f
00000070: 0781 9a3f 4285 1e3f 5675 d33e aa78 263f

features.1.bias f4 [32]
-0.44830346 -0.12365313 -0.21687928 -0.0417554 -0.106789365 -0.08605002 0.2016174 -0.101082295
-0.21640722 -0.08965104 -0.7692899 -0.5054555 -0.1391163 -0.37851614 -0.038962696 -0.28888175
-0.095861435 -0.10417379 -0.02426394 -0.40256152 -0.5232517 -0.29550672 -0.10899433 -0.082561664
-0.2594883 -0.7421564 -0.06384528 -0.6401551 -0.12568918 -0.3800859 -0.49803138 -0.5352612
00000000: 0888 e5be da3d fdbd 9a15 5ebe b607 2bbd
00000010: 62b4 dabd fe3a b0bd cb74 4e3e 3c04 cfbd
00000020: db99 5dbe f79a b7bd 2ff0 44bf 8865 01bf
00000030: 8174 0ebe decc c1be 5997 1fbd 4fe8 93be
00000040: 0053 c4bd 1159 d5bd 2cc5 c6bc 8b1c cebe
00000050: d3f3 05bf a84c 97be 6b38 dfbd 1716 a9bd
00000060: a7db 84be f6fd 3dbf 50c1 82bd 34e1 23bf
00000070: aab4 00be 9e9a c2be f8fd febe e106 09bf

features.1.running_mean f4 [32]
-0.08016694 0.40393552 0.4110554 0.5479069 0.059191298 0.16635671 0.29230347 0.6818561
0.8204632 0.08935031 -0.20704333 0.37082568 0.28974566 0.063329145 0.5599968 -0.20134662
0.19491683 0.5201679 0.03606274 0.13304403 0.10852239 0.1842781 0.21076466 0.23362085
0.7038176 -0.72135675 0.2866588 0.3702571 0.4660405 0.47610506 -0.14478022 -0.3971295
00000000: 912e a4bd a3d0 ce3e da75 d23e a043 0c3f
00000010: 9372 723d 6a59 2a3e cda8 953e 1f8e 2e3f
00000020: e009 523f 4cfd b63d 2b03 54be dddc bd3e
00000030: 8b59 943e b6b2 813d f35b 0f3f cf2d 4ebe
00000040: 4798 473e b929 053f 86b6 133d b23c 083e
00000050: fd40 de3d 66b3 3c3e b1d2 573e 4e3a 6f3e
00000060: 642d 343f d6aa 38bf f1c4 923e 5792 bd3e
00000070: dc9c ee3e 0bc4 f33e 4441 14be 8f54 cbbe

features.1.running_var f4 [32]
0.045978937 0.1644543 0.1119395 0.0596946 0.12609261 0.1573207 0.08493836 0.1854302
0.24837574 0.05716018 0.022468243 0.028689694 0.16545573 0.06215254 0.1354032 0.08620761
0.17666535 0.060621172 0.056220103 0.044637818 0.14649017 0.15803924 0.09820506 0.19558786
0.33377254 0.47610188 0.3294996 0.058089536 0.093821004 0.16987257 0.13585152 0.044385105
00000000: 6954 3c3d b566 283e 8940 e53d 5382 743d
00000010: 6c1e 013e ad18 213e 2af4 ad3d 6ae1 3d3e
00000020: 3656 7e3e cb20 6a3d 520f b83c a606 eb3c
00000030: 3a6d 293e a993 7e3d 23a7 0a3e 9e8d b03d
00000040: c3e7 343e e84d 783d 0d47 663d 25d6 363d
00000050: 8501 163e 0ad5 213e bc1f c93d 2f48 483e
00000060: 3ce4 aa3e a0c3 f33e 2cb4 a83e 4bef 6d3d
00000070: 3a25 c03d 13f3 2d3e a91c 0b3e 28cd 353d
