apps/classify/mnist/params/CNN_Model_49.pth (torch, 909267 bytes, 32 tensors)

conv1.weight f4 [32, 1, 3, 3]
0	0xbe43de22	-0.19127706
1	0x3de59988	0.112109244
2	0x3da17f03	0.07885554
3	0xbe93ebbb	-0.28890786
4	0x3de6c2ca	0.11267622
5	0x3d95c594	0.07313076
6	0xbe329b2a	-0.17442003
7	0x3ea39020	0.31945896
8	0xbe25356f	-0.16133665
9	0x3ce76d7b	0.028250447
10	0x3e0b3008	0.13592541
11	0x3ebbdf7e	0.36693949
12	0x3ea86e98	0.32896876
13	0x3dd7c4b9	0.10535569
14	0xbe0eb025	-0.13934381
15	0xbdddce7e	-0.10830401
16	0xbe0929e9	-0.13394894
17	0xbe77a597	-0.24184261
18	0x3e3770b0	0.1791408
19	0x3e5f1f88	0.21789372
20	0x3d3cb72e	0.04607313
21	0xbeafa3fc	-0.34304798
22	0x3e0120d1	0.12610175
23	0x3e842ade	0.25813955
24	0x3d9b256b	0.07575496
25	0xbf009ed3	-0.50242347
26	0xbe9a1ec3	-0.30101594
27	0x3e5f137d	0.21784778
28	0x3d3077b4	0.043082908
29	0xbe19c865	-0.1501785
30	0xbe0f7e44	-0.1401301
31	0xbe4a6485	-0.19764908
32	0xbe4dc22f	-0.20093606
33	0xbe4345a7	-0.19069539
34	0xbdcf8481	-0.10132695
35	0x3e83f569	0.2577317
36	0xbe7772f3	-0.24164943
37	0x3ce38e38	0.027777776
38	0x3e421783	0.18954282
39	0xbe694578	-0.22780406
40	0xbe776da4	-0.24162918
41	0x3ebc0ce4	0.36728585
42	0xbe658195	-0.22412713
43	0xbe7fdc71	-0.24986435
44	0xbcda0610	-0.026614219
45	0x3e18f476	0.14937004
46	0xbdd33de8	-0.10314542
47	0xbe85e63e	-0.26152223
48	0x3e2bb851	0.1676953
49	0x3e496c37	0.19670187
50	0xbe92d363	-0.286769
51	0x3e3c97f1	0.18417336
52	0xbe69a461	-0.22816612
53	0xbea449b8	-0.32087493
54	0x3d8a9dc7	0.06768375
55	0xbe8eec0d	-0.27914467
56	0xbe120c15	-0.14262421
57	0x3e452895	0.19253762
58	0xbd22da76	-0.03975912
59	0xbebaf99f	-0.3651857
60	0x3e85d5f8	0.26139808
61	0x3e889277	0.26674244
62	0xbd036c63	-0.032085788
63	0x3da4892e	0.080339774
64	0x3e723a91	0.23655154
65	0xbeabbabc	-0.33540905
66	0x3eb5af2b	0.35485205
67	0xbe17a1d6	-0.1480783
68	0xbea5175e	-0.3224439
69	0xbd890333	-0.06690063
70	0xbe9e3b25	-0.309045
71	0x3e4267dd	0.18984933
72	0xbbacbae2	-0.0052713016
73	0xbde718c4	-0.112840205
74	0x3ea95111	0.3306966
75	0xbdb65df8	-0.08904642
76	0xbeba01ec	-0.3632959
77	0x3d224ae8	0.039622217
78	0x3ec86dab	0.3914617
79	0xbe8b3ab7	-0.27193233
80	0xbd5e0b16	-0.05420979
81	0xbe763df1	-0.24047066
82	0xbe6149d5	-0.22000821
83	0x3e01b3f4	0.12666303
84	0x3ea8994c	0.32929456
85	0x3e9dcab6	0.3081872
86	0x3ea551f5	0.3228909
87	0xbd74be63	-0.05975188
88	0xbe5c5b54	-0.21519214
89	0xbead3ba3	-0.33834562
90	0x3cc61808	0.02418138
91	0xbdeefae6	-0.11668949
92	0xbdf22898	-0.11824149
93	0x3e743b90	0.23850846
94	0xbe455232	-0.19269636
95	0x3e0e0ddc	0.13872474
96	0x3e4dbbaf	0.20091127
97	0xbea9449f	-0.33060166
98	0xbe819cbb	-0.25314888
99	0xbde30013	-0.110839985
100	0xbed52b7c	-0.41634738
101	0xbac790cd	-0.0015225649
102	0xbe939940	-0.28827858
103	0x3e51279e	0.20425269
104	0x3deb4ea7	0.11489611
105	0x3e7b8fd7	0.2456659
106	0x3e2c4ebb	0.16826908
107	0xbda4a8f4	-0.08040038
108	0xbce0843e	-0.027406808
109	0x3dab8818	0.08375567
110	0xbe9012c4	-0.28139317
111	0x3e016ea4	0.12639862
112	0x3e2a0161	0.16602089
113	0xbe29da68	-0.16587222
114	0x3d916804	0.070999175
115	0x3d097a37	0.03356382
116	0xbeb74d9b	-0.35801396
117	0x3e8c97a5	0.27459446
118	0x3e935b8c	0.28780782
119	0xbd44b96b	-0.04802839
120	0xbc923f97	-0.017852588
121	0xbd90701d	-0.07052634
122	0xbe77b4fb	-0.24190132
123	0xbea66670	-0.3250003
124	0xbe5c793b	-0.21530621
125	0xbe598e78	-0.21245754
126	0xbce30c24	-0.02771575
127	0x3de53199	0.111911006
128	0x3ea48dd6	0.32139462
129	0xbebe193f	-0.37128636
130	0xbea08339	-0.31350115
131	0xbe28ac3e	-0.16471955
132	0x3e8a976d	0.27068654
133	0xbd90c614	-0.070690304
134	0xbdcab24d	-0.098972894
135	0xbea83a10	-0.32856798
136	0xbe607fdc	-0.21923774
137	0xbd02b6db	-0.031912666
138	0xbed37138	-0.41297317
139	0x3e713660	0.23555899
140	0xbe35a0bc	-0.17737097
141	0xbdbde223	-0.09271648
142	0x3d0993ae	0.033588104
143	0x3eb8affd	0.36071768
144	0xb8c91714	-9.5887255e-05
145	0x3e3292b5	0.17438777
146	0x3dfe5bf7	0.12419885
147	0xbee2cb2d	-0.44295636
148	0xbeb72b36	-0.35775155
149	0xbe5e3edf	-0.21703671
150	0x3e862edf	0.26207635
151	0x3e28bdcf	0.16478656
152	0xbdb0b3b2	-0.08628024
153	0xbda10df3	-0.07863989
154	0xbe0463a0	-0.12928629
155	0xbe31296e	-0.1730096
156	0x3ec80539	0.39066485
157	0x3dadbfef	0.08483874
158	0xbd234678	-0.039862126
159	0xbe38f539	-0.18062295
160	0x3e040233	0.12891464
161	0x3e891023	0.26770124
162	0xbe19d3e2	-0.15022233
163	0x3ea60567	0.32425997
164	0xbe2aee7c	-0.16692537
165	0x3e0b83b1	0.13624455
166	0x3e5f0056	0.21777472
167	0xbec59904	-0.38593304
168	0xbd5e9009	-0.05433658
169	0xbe9b4536	-0.3032624
170	0x3d550052	0.05200226
171	0xbe0fbf58	-0.14037836
172	0xbd325a13	-0.043542933
173	0x3e7b6e4b	0.24553792
174	0xbe2a808b	-0.16650598
175	0x3e57fee5	0.21093328
176	0x3ca8c45d	0.020601446
177	0x3ea4e5d3	0.32206592
178	0x3e620081	0.22070505
179	0xbebca37e	-0.36843485
180	0x3d94f78f	0.072737806
181	0x3d9aca52	0.07558121
182	0xbce3ac40	-0.027792096
183	0x3d5751b3	0.05256815
184	0x3c0ee1fd	0.008720872
185	0xbe72910c	-0.23688143
186	0xbd9c5ea1	-0.076352365
187	0x3ecbce0e	0.39805645
188	0xbe7a8fd1	-0.24468924
189	0x3e468d2d	0.19389792
190	0x3e43c883	0.19119458
191	0x3d954ddf	0.07290243
192	0xbe576806	-0.21035776
193	0x3e2215f9	0.15828694
194	0x3cd6934a	0.02619328
195	0xbeb7cf26	-0.3590023
196	0xbeab44fe	-0.33451074
197	0x3e1bc967	0.15213548
198	0x3d98f73a	0.0746903
199	0x3e274774	0.16335851
200	0xbebf7865	-0.3739654
201	0xbeacc62b	-0.3374494
202	0x3e381746	0.17977628
203	0x3e83178a	0.25603896
204	0x3e574d1e	0.21025512
205	0xbe37b7ce	-0.1794121
206	0x3da6b9d5	0.081409134
207	0xbe91be05	-0.28465286
208	0x3d530f7a	0.05152843
209	0x3e8a5a1c	0.27021873
210	0xbe8dccb2	-0.27695233
211	0x3cd852aa	0.026406605
212	0x3dad8b7e	0.08473872
213	0xbee283d6	-0.44241208
214	0xbe9aa31a	-0.30202562
215	0x3def4c51	0.11684478
216	0xbee75ff7	-0.45190403
217	0x3d56616d	0.052339006
218	0x3daa474b	0.08314379
219	0x3e23aed3	0.15984659
220	0x3e358ef8	0.1773032
221	0x3d0b51e4	0.034013644
222	0x3e19fe37	0.15038382
223	0xbe44f98c	-0.1923582
224	0xbe9bd471	-0.30435517
225	0x3e435573	0.19075565
226	0x3e4debef	0.20109533
227	0xbe667f52	-0.22509506
228	0xbd793981	-0.060845856
229	0xbdf9fd73	-0.12206545
230	0xbe552180	-0.2081356
231	0xbe1116a6	-0.14168796
232	0xbd475028	-0.048660427
233	0xbe237f11	-0.1596644
234	0x3c87ad21	0.016562046
235	0x3e2b97c5	0.16757114
236	0x3e3f80d0	0.18701482
237	0xbeadfb2e	-0.33980697
238	0x3e23dd19	0.16002311
239	0xbe770910	-0.24124551
240	0xbee268da	-0.4422062
241	0x3cdb791b	0.026791146
242	0xbd90e13d	-0.07074211
243	0x3e900195	0.28126207
244	0x3d868340	0.06568003
245	0x3e4c9e3f	0.19982241
246	0x3deea6e3	0.11652925
247	0xbd61ddfa	-0.055143334
248	0xbd997037	-0.074921064
249	0x3e8104fa	0.2519911
250	0x3e7e4963	0.24832682
251	0xbdf8bfbf	-0.12145948
252	0xbe80bded	-0.25144902
253	0xbe92208d	-0.2854046
254	0xbe8f5478	-0.27994132
255	0xbe200d6a	-0.15630117

conv1.bias f4 [32]
0	0xbd5bd63e	-0.053671114
1	0xbdb9547e	-0.09049319
2	0xbeb05a0b	-0.34443697
3	0x3b5b891e	0.0033498476
4	0x3ea98534	0.33109438
5	0x3e99a704	0.30010235
6	0x3db25d79	0.08709235
7	0xbe52a09f	-0.20569085
8	0xbe48ef3d	-0.19622512
9	0x3deec1d7	0.11658066
10	0x3e701157	0.23444115
11	0x3eb03fa1	0.34423545
12	0xbd2d3e34	-0.04229565
13	0x3ea169dc	0.31526077
14	0x3d9b7dd5	0.0759236
15	0xbd487592	-0.04894025
16	0x3d024dd5	0.031812508
17	0xbdb6c811	-0.089248784
18	0x3e801c47	0.25021574
19	0x3e22ccfa	0.15898505
20	0xbdd0d210	-0.10196316
21	0xbe0527e9	-0.13003506
22	0x3e959c24	0.29220688
23	0xbea81383	-0.32827386
24	0x3ea239ec	0.31684816
25	0x3d9e79f1	0.07738102
26	0x3e5d8539	0.21632852
27	0xbe8cb45d	-0.27481356
28	0xbc69d8b6	-0.014272859
29	0x3d7261da	0.05917535
30	0x3e1fd5c7	0.15608893
31	0xbe7e9cc9	-0.24864496

conv2.weight f4 [64, 32, 3, 3]
0	0xbcf59985	-0.02998043
1	0x3cfc7fa7	0.030822588
2	0x3d7cee94	0.061750963
3	0xbe55b306	-0.20869073
4	0xbe1d70ea	-0.15375105
5	0xbd07cc5a	-0.03315387
6	0xbd62c7a5	-0.055366177
7	0xbd9bb999	-0.07603759
8	0xbd990260	-0.07471156
9	0x3d534891	0.051582877
10	0xbc46a6e8	-0.0121247545
11	0x3d450dda	0.048108913
12	0xbd068364	-0.032840148
13	0xbd0513cf	-0.032489594
14	0x3d8e86a1	0.06959272
15	0xbdf42d30	-0.11922681
16	0xbd5f2fc1	-0.0544889
17	0xbd9fb61b	-0.07798406
18	0xbd0bf5f0	-0.03417009
19	0xbd25c6ad	-0.040472675
20	0x3d282006	0.041046165
21	0x3d5efa62	0.054438002
22	0x3e11a317	0.1422237
23	0x3d8bf1e1	0.06833244
24	0x3d330fa8	0.043716103
25	0x3e3c39db	0.18381445
26	0x3de1cc5d	0.11025307
27	0xbe064532	-0.13112333
28	0xbcbffa3a	-0.023434747
29	0x3ddd5a33	0.1080822
30	0xbd798f4c	-0.060927674
31	0xbccd774c	-0.0250813
32	0xbe303fdf	-0.17211865
33	0x3e1cfcd5	0.15330823
34	0xbe5f44e8	-0.2180363
35	0xbd80b95a	-0.06285353
36	0xbdf7c036	-0.12097208
37	0xbdc05482	-0.093911186
38	0x3e1ef05f	0.15521382
39	0xbde78002	-0.113037124
40	0xbdf30459	-0.118660636
41	0xbba9e157	-0.0051843333
42	0x3d4019a8	0.046899468
43	0x3dbaa7e9	0.091140576
44	0x3da868d0	0.082231164
45	0xbd867541	-0.06565333
46	0x3cd0cc39	0.025488006
47	0xbdae22b7	-0.08502715
48	0xbdc4d6bd	-0.096112706
49	0xbe1d5ee1	-0.15368225
50	0x3d8a7f6d	0.06762586
51	0xbcb3f19d	-0.021965796
52	0x3d971d06	0.07378583
53	0x3c9656fc	0.018352024
54	0xbeba7174	-0.36414683
55	0xbe2ffb83	-0.17185788
56	0xbdd30273	-0.103032015
57	0x3dd1550f	0.10221302
58	0xbe18a647	-0.1490718
59	0xbda3dc6c	-0.080010265
60	0x3e6683db	0.22511236
61	0x3eac024c	0.33595502
62	0xbdc06290	-0.09393799
63	0xbdb5ba96	-0.08873479
64	0x3e2237eb	0.15841644
65	0x3e205303	0.15656666
66	0x3c87a094	0.016556062
67	0xbe52a03e	-0.2056894
68	0x3c0fd3fc	0.008778568
69	0xbcc8ff77	-0.024535878
70	0xbd05f906	-0.03270819
71	0x3d05c4fe	0.03265857
72	0xbe4acff1	-0.19805886
73	0xbe2b72fe	-0.16743085
74	0x3dfcc4de	0.12342237
75	0x3eaa0f35	0.33214727
76	0x3c6ca5ca	0.014443824
77	0x3d3087b8	0.04309818
78	0xbe3fddc8	-0.18736947
79	0x3f0f5076	0.5598215
80	0x3d8e8b62	0.06960179
81	0xbcda1975	-0.026623467
82	0x3cc9832f	0.024598686
83	0xbe178918	-0.14798391
84	0xbe1626cc	-0.14663237
85	0x3d0b6709	0.03403381
86	0x3c7ceb62	0.015436979
87	0xbea1b8c0	-0.31586266
88	0xbdfb44be	-0.12268971
89	0xbeab6bb9	-0.33480623
90	0xbebfd937	-0.3747041
91	0xbdcee8a1	-0.10102964
92	0xbd3d7727	-0.04625621
93	0xbbad325c	-0.0052855443
94	0xbe9e3c2c	-0.30905282
95	0x3b090e61	0.0020913112
96	0x3d97468b	0.07386502
97	0x3e4faf28	0.2028166
98	0x3db951c6	0.090488
99	0xbd9912c5	-0.07474283
100	0xbc2915aa	-0.0103201065
101	0xbd514ddf	-0.051099654
102	0x3dfe28c9	0.12410123
103	0xbd14529c	-0.036211595
104	0xbe4e71c5	-0.20160587
105	0x3e017588	0.12642491
106	0x3d58fb03	0.05297376
107	0xbdda3bc0	-0.10655928
108	0x3c3bcdf5	0.011462678
109	0x3c06b0e9	0.00822089
110	0x3ce9d27b	0.028542748
111	0xbdb56ab3	-0.08858242
112	0xbe53e210	-0.20691705
113	0xbd0be404	-0.034153
114	0xbdaf2261	-0.08551479
115	0x3d227a4e	0.03966742
116	0xbd9a49ac	-0.07533583
117	0x3a1a8a1d	0.0005895214
118	0x3e26a87c	0.16275209
119	0x3d33a757	0.04386076
120	0x3de36383	0.11102965
121	0x3ddd38fd	0.10801885
122	0x3dc4d305	0.09610561
123	0x3b1f9ff3	0.0024356812
124	0xbde38f7c	-0.11111352
125	0x3d92a8ed	0.07161126
126	0xbe726e49	-0.23674883
127	0xbd4e22f6	-0.05032631
128	0x3c82623f	0.015915988
129	0x3ecfdf46	0.40600032
130	0x3de6a049	0.11261041
131	0x3de9f503	0.114236854
132	0x3d50ade5	0.05094709
133	0x3ebc087d	0.36725226
134	0x3e4759ec	0.19467896
135	0xbd554d41	-0.05207563
136	0x3d49663a	0.049169756
137	0x3ce88bb8	0.028386936
138	0xbe067227	-0.13129483
139	0xbe4cfb73	-0.20017795
140	0xbdb76f35	-0.08956758
141	0x3e27a8e8	0.16373026
142	0xbc66cb4e	-0.014086558
143	0xbdc23a47	-0.09483772
144	0xbe5a60b2	-0.21325949
145	0xbdf1d783	-0.11808684
146	0xbd123778	-0.03569743
147	0x3ed16d29	0.40903595
148	0x3de9ed55	0.114222206
149	0xbb8d3f1a	-0.004310501
150	0x3e899d39	0.26877764
151	0x3ee29994	0.44257796
152	0x3dad3884	0.08458045
153	0xbe0f1bd2	-0.13975456
154	0xbdf99ea7	-0.12188464
155	0xbdba521f	-0.090976946
156	0x3df8d341	0.121496685
157	0xbdda73a7	-0.1066659
158	0xbe060c13	-0.13090543
159	0x3e177840	0.14791965
160	0xbcda425a	-0.026642967
161	0xbe4c2243	-0.19934945
162	0x3e80a895	0.25128618
163	0x3e25acbc	0.16179174
164	0x3c51b7d0	0.012800172
165	0xbc499f84	-0.012306098
166	0xbe0f89a8	-0.14017355
167	0x3d446ca0	0.047955155
168	0xbe4641dc	-0.19361061
169	0xbe13b860	-0.14425802
170	0xbc0aeab8	-0.008478813
171	0xbd8bed43	-0.068323635
172	0x3c026177	0.007957808
173	0x3d5568e8	0.052102
174	0xbe0610e4	-0.13092381
175	0xbe1e8455	-0.15480168
176	0xbc96d402	-0.01841164
177	0xbd60bff0	-0.054870546
178	0x3bea6614	0.007153282
179	0xbddd7d6c	-0.10814938
180	0xbddec6b9	-0.10877747
181	0xbe2a3a4f	-0.16623805
182	0x3cfd26ff	0.030902384
183	0xbd6e5071	-0.058182184
184	0xbdefe16e	-0.11712919
185	0xbd34d025	-0.044143815
186	0x3dc37605	0.09543995
187	0x3e97e593	0.2966734
188	0xbe260db0	-0.16216159
189	0x3da60693	0.08106723
190	0xbdcc662a	-0.09980424
191	0xbd192afe	-0.037394516
192	0xbd1a1952	-0.037621804
193	0x3da19bd9	0.07891054
194	0x3d3b6e2c	0.045759365
195	0x3e020e3a	0.1270074
196	0xbd2f3e2a	-0.042783894
197	0x3d237cbc	0.039913878
198	0xbe114fd7	-0.14190613
199	0xbd1e1ccf	-0.038601693
200	0xbb5f0750	-0.0034031458
201	0x3d2b9028	0.041885525
202	0xbd763dc4	-0.060117498
203	0xbe83fea3	-0.2578021
204	0x3dc525b1	0.0962633
205	0xbe3d297a	-0.18472853
206	0xbe37d40b	-0.17951982
207	0xbd1f9d48	-0.038968354
208	0xbd3ffce3	-0.04687203
209	0x3dc5b9dd	0.09654591
210	0xbde953c8	-0.11392933
211	0xbd9c27c6	-0.07624774
212	0x3d861b7e	0.065482125
213	0x3cc811db	0.024422577
214	0x3ca25bf1	0.019819232
215	0x3c03797c	0.00802457
216	0xbcb99c1f	-0.022657452
217	0xbce20511	-0.027590306
218	0xbe4f64fc	-0.20253366
219	0x3cee3439	0.029077636
220	0x3d0f68f3	0.035012197
221	0xbd7fc631	-0.06244487
222	0xbdaa845e	-0.08326028
223	0x3e073c32	0.13206556
224	0xbda7d0b6	-0.08194105
225	0xbdda718d	-0.10666189
226	0x3dd1f378	0.10251516
227	0x3d071e7e	0.032988064
228	0xbd809ee8	-0.06280309
229	0x3df4b7cc	0.11949119
230	0x3d237353	0.039904904
231	0xbe05e879	-0.13076963
232	0xbbb15014	-0.0054111574
233	0x3db79de6	0.089656636
234	0xbddf9c7d	-0.1091852
235	0xbd078384	-0.033084407
236	0x3ce2a11e	0.027664717
237	0xbd5a2913	-0.053261828
238	0xbd1445c9	-0.036199365
239	0x3d9c48e2	0.07631089
240	0xbe014355	-0.12623341
241	0x3c9d9fc4	0.019241221
242	0x3d81b5ba	0.0633349
243	0x3d7260b6	0.059174262
244	0x3c8ba368	0.017045692
245	0x3dd17610	0.10227597
246	0xbd2cebd4	-0.04221709
247	0xbd7e3eee	-0.062071733
248	0x3c914672	0.017733786
249	0xbdbbbfd3	-0.09167447
250	0xbd509777	-0.050925698
251	0xbe94ea85	-0.29085174
252	0xbd0c52ca	-0.03425864
253	0x3d68162a	0.056661762
254	0x3db84158	0.08996838
255	0x3a7b4b26	0.0009586088

conv2.bias f4 [64]
0	0xbb56aa90	-0.0032755472
1	0xbbc636fb	-0.0060490347
2	0x3d031cbb	0.03200982
3	0xbc826a60	-0.015919864
4	0xbd398f4f	-0.045302685
5	0xbcba98cf	-0.022777943
6	0xbb3b4887	-0.0028577165
7	0x3c3d593d	0.011556921
8	0x3c2f0c8f	0.010684147
9	0xbd04965b	-0.032369953
10	0xbbd91646	-0.0066249697
11	0x3d433e4b	0.04766683
12	0xbceaae9b	-0.028647712
13	0x3d28ba07	0.041193034
14	0x3d060fd1	0.032729927
15	0x3d3d4b15	0.046214182
16	0xbc829865	-0.015941808
17	0xbd0e1224	-0.03468527
18	0xbbce13b5	-0.0062889704
19	0x3c9bf845	0.019039283
20	0xbd268b81	-0.040660385
21	0xbc0eb7ba	-0.008710796
22	0xbd077a73	-0.03307576
23	0x3b36b579	0.0027879162
24	0x3cae930a	0.021310348
25	0x3c6ffa4b	0.014647077
26	0xbd6f654c	-0.058446214
27	0x3c834102	0.01602221
28	0xbc824e56	-0.015906494
29	0xbbe0641f	-0.006847873
30	0xbd291cec	-0.041287348
31	0x3cc045bd	0.023470754
32	0x39cac7cb	0.000386773
33	0xbd513889	-0.051079307
34	0xbd2c6bbd	-0.042094935
35	0x3d0e3e41	0.03472734
36	0xbd5dbd93	-0.05413587
37	0xbb4f74f4	-0.0031655403
38	0x3ca9ac1c	0.020711951
39	0xbcfa55ba	-0.030558456
40	0xbd3749bd	-0.044748057
41	0xbca49a7a	-0.020093191
42	0x3d2a3aa0	0.041559815
43	0xbd7ed97b	-0.062219124
44	0xbc9a403b	-0.018829456
45	0x3d3dec34	0.04636784
46	0xbbe9eafa	-0.007138607
47	0x3d506ee8	0.05088702
48	0x3c944759	0.018100427
49	0xbcb08e45	-0.021552214
50	0xbd49ad66	-0.04923763
51	0xbd0a1dc5	-0.033719797
52	0x3d72690a	0.059182204
53	0xbd53d8bf	-0.051720377
54	0x3d2b8118	0.04187116
55	0x3d3e1bab	0.046413105
56	0x3d2732ed	0.04082005
57	0x3ccc60ff	0.024948595
58	0xbd4ba099	-0.049713705
59	0x3d4ef433	0.050525855
60	0x3c3fc7d2	0.011705356
61	0x3d5af8f2	0.05346007
62	0xb969d6a6	-0.00022300574
63	0xbc9167ba	-0.017749656

l1.weight f4 [128, 1600]
0	0x3d1bb1c4	0.038011327
1	0x3d30509d	0.04304563
2	0xbd7f18c6	-0.062279485
3	0xbe38fa6c	-0.18064278
4	0xbd5622f1	-0.052279416
5	0x3d618fdd	0.05506884
6	0x3d76980b	0.060203593
7	0xbd72d0bd	-0.0592811
8	0xbc4993f0	-0.012303337
9	0x3d14b371	0.03630394
10	0xbd8f496f	-0.06996428
11	0x3e437687	0.19088183
12	0xbcb8d3da	-0.022561956
13	0xbe36e091	-0.17859103
14	0xbe086bea	-0.13322416
15	0x3dee4d11	0.11635793
16	0x3e6ea2a6	0.23304233
17	0x3d9ce550	0.076609254
18	0x3e0b7f15	0.13622697
19	0x3df3f7bb	0.11912485
20	0x3e17cad9	0.14823474
21	0x3ca6c5ea	0.020358045
22	0xbd17c663	-0.03705443
23	0x3e1f137a	0.15534773
24	0xbd176f96	-0.03697165
25	0xbe9c933a	-0.30581075
26	0xbe583eeb	-0.21117751
27	0xbe1c05af	-0.15236543
28	0x3de1973d	0.110151745
29	0x3c91c0af	0.017792074
30	0xbea0e3c1	-0.31423762
31	0xbe9d4dfb	-0.30723557
32	0xbda280a2	-0.07934691
33	0x3d5440c5	0.05181958
34	0x3e432d4e	0.19060251
35	0xbc884dd2	-0.01663867
36	0x3ca27cd6	0.019834917
37	0x3c983e7c	0.018584482
38	0x3d662d59	0.05619559
39	0xbbc5305b	-0.0060177273
40	0x3bdfcc70	0.006829791
41	0xbd8f1b57	-0.069876365
42	0xbad8f9c0	-0.0016553923
43	0x3c91d33b	0.017800918
44	0xbd85409e	-0.065064654
45	0x3c93152d	0.017954433
46	0x3d50efb7	0.05100986
47	0xbd37b948	-0.044854432
48	0xbe00002e	-0.12500069
49	0x3d6eb763	0.05828036
50	0x3c6ec239	0.0145726735
51	0x3e0a3ffd	0.13500972
52	0x3d6d7f24	0.05798258
53	0x3df9e51c	0.12201902
54	0x3e997f8f	0.29980132
55	0xbc714c4a	-0.014727661
56	0xbb58c79d	-0.0033077963
57	0xbe2e4683	-0.17019086
58	0x3d9d11a8	0.07669383
59	0x3d4f860a	0.05066494
60	0x3b6f8867	0.0036549808
61	0xbd6cbf0d	-0.057799388
62	0xbe84dc9c	-0.25949562
63	0xbd903a5f	-0.070423834
64	0xbdf544f8	-0.11976045
65	0x3e08597a	0.13315383
66	0x3d7fbad7	0.062434044
67	0x3da7e03b	0.081970654
68	0x3d1eb619	0.03874788
69	0xbb839430	-0.004015468
70	0xbd34762d	-0.044058014
71	0x3d41f27e	0.0473504
72	0x3e48ba18	0.19602239
73	0x3d402da5	0.04691853
74	0x3d05ab84	0.032634273
75	0xbe632187	-0.22180758
76	0xbd11d756	-0.03560575
77	0xbd327ba8	-0.04357496
78	0x3cd3ee11	0.025870355
79	0xbcd3ad3a	-0.025839437
80	0xbe1a2b83	-0.15055661
81	0xbe2598c9	-0.16171564
82	0xbd50546d	-0.050861765
83	0x3e09d62d	0.13460608
84	0x3d8ccdb8	0.06875175
85	0x3d602ca7	0.054730084
86	0x3d4a15ac	0.049337074
87	0x3dced9ba	0.10100122
88	0x3e488fb4	0.19586068
89	0x3d8ae550	0.06782019
90	0xbdc12645	-0.094311275
91	0xbc7d7a69	-0.015471079
92	0x3ce5f32c	0.028070055
93	0x3caeecc4	0.021353133
94	0xbdc48a46	-0.09596686
95	0x3dc0049e	0.09375881
96	0x3de97d5b	0.11400863
97	0x3ea411e3	0.32044896
98	0x3dd9f963	0.1064327
99	0xbd8ad7f6	-0.067794725
100	0xbe0816d8	-0.13289964
101	0xbe05e558	-0.13075769
102	0x3dda1547	0.106485896
103	0x3dc879db	0.09788867
104	0xb9b74a06	-0.00034959632
105	0xbe2f442e	-0.17115852
106	0xbd109c50	-0.03530532
107	0x3e83a911	0.25714925
108	0x3e7514a1	0.2393365
109	0xbcf9ae47	-0.03047861
110	0xbdd2d0e9	-0.10293753
111	0x3e1c8c4f	0.15287898
112	0x3e1a9f06	0.15099725
113	0x3a1651f5	0.00057342584
114	0x3e14dfcd	0.14538498
115	0x3e15b51b	0.14619868
116	0x3cf5897b	0.029972782
117	0xbc942f89	-0.018089073
118	0x3c8dbf8a	0.017303247
119	0x3d01fda8	0.031736046
120	0x3e2acb70	0.16679168
121	0x3e189976	0.1490229
122	0x3d1e24e9	0.03860942
123	0x3d345673	0.044027757
124	0x3de82546	0.11335234
125	0xbdc3a629	-0.09553177
126	0x3db32d7a	0.08748908
127	0xbd6e398e	-0.058160357
128	0xbca40602	-0.020022396
129	0x3de968f6	0.11396973
130	0xbd55e8b5	-0.05222388
131	0xbc3f00dd	-0.011657921
132	0xbddbbb9c	-0.10729143
133	0x3d4ed208	0.05049327
134	0xbdb73ecb	-0.08947524
135	0x3d237009	0.039901767
136	0xbe10604c	-0.14099234
137	0xbe60bcb1	-0.2194698
138	0x3d90ff66	0.070799634
139	0xbe114380	-0.14185905
140	0xbdeab6ba	-0.114606336
141	0xbd0fb994	-0.03508909
142	0x3e07e4f5	0.13270934
143	0x3d80573f	0.06266641
144	0xbddaa157	-0.106753044
145	0xbdadd3cb	-0.08487662
146	0x3e26d86c	0.16293496
147	0x3d4bfbfe	0.049800865
148	0xbd8916a7	-0.06693774
149	0x3d1c76f3	0.038199376
150	0xbd932457	-0.07184666
151	0xbe38f3b2	-0.18061712
152	0xbd571ecb	-0.0525196
153	0x3e0cab54	0.13737231
154	0x3debe14e	0.11517583
155	0x3cff5ebb	0.0311731
156	0xbdac3876	-0.084092066
157	0x3e6a9845	0.22909649
158	0x3e3e9757	0.18612419
159	0x3df5ecec	0.1200808
160	0xbdab0d55	-0.08352152
161	0x3d1983f1	0.037479345
162	0x3e5a6949	0.21329226
163	0xbcab67e4	-0.020923562
164	0x3c9704a7	0.018434836
165	0x3e17769e	0.14791343
166	0xbd2a4f47	-0.04157951
167	0xbd69c78b	-0.057075065
168	0x3dde8db1	0.10866869
169	0x3db6b783	0.08921721
170	0x3e3dbd1a	0.18529168
171	0x3e6e052b	0.23244159
172	0x3e30747d	0.17231937
173	0xbc276836	-0.010217717
174	0xbd27eb3b	-0.040995818
175	0xbdb7aa7a	-0.08968063
176	0x3dd57ae4	0.1042383
177	0x3d6b4bbc	0.057445273
178	0x3d1e7c26	0.038692616
179	0xbdbc1138	-0.09182972
180	0xbdaee027	-0.085388474
181	0xbcbd2db8	-0.02309309
182	0xbb9bc59c	-0.0047537815
183	0x3d7da268	0.06192246
184	0x3dab337b	0.083594285
185	0xbd2b05b8	-0.0417535
186	0x3ab4055d	0.0013734509
187	0xbca1f052	-0.019767914
188	0xbda0c4b3	-0.078500174
189	0x3e01e113	0.12683515
190	0x3ca3151c	0.019907527
191	0x3d0faeca	0.0350788
192	0xbd3407b8	-0.043952674
193	0x3d3b71ae	0.04576271
194	0x3da973fe	0.08274077
195	0x3df9ed51	0.12203468
196	0x3da3a3b3	0.079902075
197	0xbcfa84ec	-0.03058096
198	0x3d958dd3	0.073024414
199	0x3c979249	0.018502371
200	0xbde30955	-0.11085764
201	0x3934bb83	0.00017235991
202	0xbb961d67	-0.0045811418
203	0xbc5259d2	-0.012838798
204	0xbd7a80b2	-0.06115789
205	0xbd02d52b	-0.031941574
206	0x3e03c2f5	0.12867339
207	0x3d2a7055	0.041611034
208	0x3cc5bc98	0.02413778
209	0x3d2c6756	0.042090736
210	0x3d866a1b	0.06563207
211	0xbd2f6d5d	-0.042828906
212	0xbc34c62d	-0.011033577
213	0x3dd1e450	0.10248625
214	0x3e1e5088	0.15460408
215	0x3dd6f3dd	0.10495732
216	0x3d2ca8e4	0.042153254
217	0x3d20334f	0.03911143
218	0x3cadb4a6	0.021204304
219	0xbdf26c0b	-0.11837014
220	0xbdbfeb1d	-0.09371016
221	0x3c76c06d	0.015060526
222	0xbbcab581	-0.0061861877
223	0x3bc11279	0.0058920947
224	0xbe160c41	-0.14653112
225	0x3c3bd420	0.011464149
226	0x3e1ab34a	0.15107456
227	0x3e20bdce	0.15697405
228	0x3dbb1bc9	0.09136159
229	0x3d52e63d	0.051489104
230	0xbe58e334	-0.21180421
231	0xbe402747	-0.18764983
232	0xbc99fb73	-0.018796658
233	0xbd610588	-0.054936916
234	0x3d0494c0	0.03236842
235	0xbe5837e7	-0.21115075
236	0xbcec4435	-0.028841117
237	0xbdf71b5a	-0.12065764
238	0xbd7850a6	-0.060623787
239	0xbd4e6166	-0.050385855
240	0xbe26993f	-0.16269396
241	0x3de33fa2	0.11096121
242	0x3d7868c4	0.060646787
243	0xbe3ddfbe	-0.18542382
244	0x3d7a3e93	0.06109483
245	0x3d051edc	0.032500133
246	0x3e156ab9	0.14591493
247	0x3e36b4b1	0.17842366
248	0x3a7123ea	0.0009198772
249	0x3e157c20	0.14598131
250	0x3cf07707	0.029353632
251	0x3e031750	0.12801862
252	0x3dcf5e85	0.1012545
253	0x3d98ae92	0.07455172
254	0xbe09c1b0	-0.13452792
255	0xbdd8ab00	-0.10579491

l1.bias f4 [128]
0	0xbd21ebb1	-0.039531413
1	0x3bad20bd	0.0052834437
2	0xbe1edbae	-0.15513489
3	0x3bc9ff56	0.0061644716
4	0x3d846a76	0.06465618
5	0xbc984670	-0.018588275
6	0xbe3f6541	-0.18690969
7	0x3bc004c2	0.005859942
8	0xbc9de880	-0.019275904
9	0xbd0cee33	-0.034406852
10	0xbe7c48b1	-0.24637105
11	0xbd83475f	-0.06410097
12	0xbe1a6497	-0.15077434
13	0x3d1d9494	0.038471773
14	0xba514530	-0.0007983027
15	0xbc57d933	-0.013174343
16	0xbb0a1f57	-0.002107581
17	0xbe36d47e	-0.17854497
18	0xbcaaa01d	-0.020828301
19	0xbe392b8d	-0.1808302
20	0xbb0e8d0c	-0.002175155
21	0xbca49751	-0.020091685
22	0xbdb2cdf0	-0.08730686
23	0x3c5e9384	0.013584975
24	0xbbb19d70	-0.0054203793
25	0xbe442961	-0.1915641
26	0xbda526ab	-0.08064016
27	0xbeada725	-0.33916584
28	0xbe63eff3	-0.22259502
29	0xbb04e6b9	-0.0020279123
30	0xbc36aced	-0.011149627
31	0xbdb8a215	-0.0901529
32	0x3b607fd0	0.003425587
33	0xbea9610e	-0.3308186
34	0x3b5fc324	0.0034143412
35	0xbd2e4807	-0.04254916
36	0xbdec880e	-0.11549388
37	0xbe8214df	-0.25406548
38	0x3bedf274	0.0072615687
39	0xbca78240	-0.02044785
40	0xbbedfcf2	-0.0072628194
41	0xbdd7ceba	-0.10537477
42	0xbc50ce20	-0.0127444565
43	0xbcd8fc72	-0.026487563
44	0xbc819821	-0.015819611
45	0xbeafd117	-0.3433921
46	0xbe2a7a9e	-0.16648337
47	0xbc13eabd	-0.009028134
48	0x3ba0f64a	0.0049121724
49	0xbe6af276	-0.22944054
50	0xbd885bd4	-0.0665814
51	0xbccd84ae	-0.02508768
52	0xbe274335	-0.16334231
53	0xbb97c8be	-0.0046320846
54	0x3c1e95ee	0.009679301
55	0xbc2651f9	-0.01015138
56	0xbe20b115	-0.15692551
57	0xbcd9f1e2	-0.026604597
58	0xbcfb6980	-0.030689955
59	0xbc1f8ecf	-0.009738638
60	0xbe05c376	-0.13062844
61	0xbe3eaee0	-0.18621397
62	0xbce58baa	-0.028020699
63	0xbe566233	-0.20935898
64	0xbb9a0a83	-0.00470096
65	0x3a621666	0.00086245534
66	0x3ce1e6f2	0.027575944
67	0xbe931526	-0.28727072
68	0xbb1f3d0e	-0.0024297866
69	0xbc8d7bd0	-0.017270952
70	0xbbbf059b	-0.0058295256
71	0xbc830628	-0.015994146
72	0xbe207613	-0.15670042
73	0x3e6b0c04	0.22953802
74	0x3daf8f79	0.08572287
75	0x3d9495e4	0.07255152
76	0x3bae0734	0.0053109173
77	0x3b2ddbe8	0.002652878
78	0xbe9abadb	-0.30220684
79	0x3d17b3c1	0.03703666
80	0xbe99fc5a	-0.3007534
81	0xbc5035a4	-0.012708101
82	0xbd515944	-0.05111052
83	0x3d9786f5	0.07398788
84	0xbe573136	-0.21014866
85	0xbecfb169	-0.4056504
86	0xbcc1e62c	-0.023669325
87	0xbcba40af	-0.022735922
88	0xbd0d2d1e	-0.034466855
89	0x3c637daf	0.013884946
90	0xba8ce3e0	-0.0010749064
91	0x3d39c12e	0.045350246
92	0xbab1e700	-0.0013572872
93	0xbef89927	-0.48554346
94	0x3c05bcea	0.008162716
95	0x3bd57550	0.006514229
96	0xbcf1229e	-0.029435452
97	0xbda748dc	-0.08168194
98	0x3b951526	0.00454964
99	0xbe5fab4f	-0.21842693
100	0xbd0b9950	-0.034081757
101	0xbcf5d980	-0.030010939
102	0xbdb08be2	-0.086204305
103	0xbea12182	-0.31470877
104	0x3c4bce27	0.012439287
105	0xbe59bd48	-0.21263611
106	0xbcc44fa7	-0.023963762
107	0xbc810f60	-0.015754402
108	0xbdc37596	-0.09543912
109	0xbc8b7bdc	-0.017026834
110	0xbc821b90	-0.015882283
111	0x3b5e0067	0.0033874752
112	0xbc644203	-0.013931754
113	0xbd3f7382	-0.046741016
114	0xbc91422a	-0.017731745
115	0xbd0ce3b7	-0.034396853
116	0x3c1a7301	0.009426833
117	0xbe3e300a	-0.18573013
118	0x3e23c76d	0.15994044
119	0x3be74f2a	0.0070589976
120	0x3d78a589	0.06070474
121	0xbcf2ef15	-0.029655019
122	0x3c48fd8e	0.012267483
123	0x3d8c6238	0.06854671
124	0xba0a1720	-0.0005267728
125	0xbcc4db6e	-0.024030413
126	0x3ceb57bc	0.028728358
127	0xbc92a6da	-0.017901827

l2.weight f4 [10, 128]
0	0xbe4e6203	-0.20154576
1	0xbdeb30a6	-0.11483888
2	0x3d99d216	0.07510774
3	0x3b99837e	0.0046848645
4	0xbe00fab6	-0.12595639
5	0x3c175f20	0.009238988
6	0x3d867502	0.06565286
7	0x3d0d8b55	0.034556706
8	0xbc8915ec	-0.016734086
9	0xbe9f4e3c	-0.31114376
10	0xbe2803aa	-0.16407648
11	0x3dc64342	0.09680797
12	0x3df221f0	0.11822879
13	0xbe3c06fd	-0.18362041
14	0xbd87360a	-0.06602104
15	0x3e7861fb	0.24256127
16	0xbe671eb7	-0.2257031
17	0xbca1ed95	-0.019766608
18	0xbd9a110d	-0.075227834
19	0xbe8f0c3f	-0.2793903
20	0xbd359343	-0.044329893
21	0x3d26cd59	0.04072318
22	0x3de7b4b4	0.11313763
23	0xbdafeba1	-0.085898645
24	0xbd758946	-0.059945367
25	0xbdc4d2ed	-0.096105434
26	0x3dc88bc8	0.09792286
27	0xbdea227e	-0.1143236
28	0xbdeb185d	-0.11479256
29	0xbd286696	-0.04111346
30	0x3e4cc791	0.19998004
31	0xbef4c564	-0.47806847
32	0x3bd70806	0.0065622358
33	0xbe340bba	-0.17582598
34	0x3d2bb42f	0.041919883
35	0xbd82b6d4	-0.06382528
36	0x3dc05445	0.09391073
37	0xbddc8d10	-0.10769093
38	0x3d58acba	0.0528991
39	0x3d0175c0	0.031606436
40	0xbd94c086	-0.072632834
41	0x3cacee7d	0.021109814
42	0xbd62e87a	-0.05539749
43	0x3cb2984a	0.021801133
44	0xbb75836d	-0.003746237
45	0xbed614ed	-0.4181284
46	0xbea13bf5	-0.31491056
47	0xbd36f25a	-0.04466472
48	0x3d14d6de	0.036337726
49	0x3da74b32	0.08168639
50	0x3e82abdc	0.25521743
51	0x3d84a193	0.0647613
52	0x3e57dd51	0.2108052
53	0x3d354824	0.04425825
54	0xbcfe7292	-0.03106049
55	0xbe8baf18	-0.27282023
56	0xbea433c4	-0.32070744
57	0xbd8d8e84	-0.06911948
58	0xbd51869e	-0.05115377
59	0xbbc03d78	-0.0058667026
60	0x3d78ad19	0.060711954
61	0xbe9886e7	-0.29790422
62	0xbd1cf4ca	-0.038319387
63	0xbeafa8fc	-0.34308612
64	0xbcbaedc6	-0.022818457
65	0x3cbcc6f7	0.023044093
66	0xbe4e3d79	-0.20140637
67	0x3d8200fb	0.06347843
68	0x3c3d5e31	0.0115581015
69	0x3e0d9dfc	0.13829798
70	0x3dbbdbfb	0.09172817
71	0xbd5777e6	-0.05260458
72	0xbe28d1c0	-0.16486263
73	0x3e2ce3a8	0.16883719
74	0x3d8b06b4	0.06788388
75	0xbc148dba	-0.009066993
76	0xbbd15594	-0.0063883755
77	0xbd106ddc	-0.03526102
78	0x3bcc4f63	0.0062350496
79	0xbe571049	-0.21002306
80	0xbe6b2d0a	-0.229664
81	0xbbbce522	-0.0057646194
82	0x3e23d164	0.15997845
83	0xbf0cc241	-0.5498391
84	0xbea1d80c	-0.31610143
85	0xbeaa0d6d	-0.33213368
86	0xbd316841	-0.043312315
87	0xbee95710	-0.45574236
88	0x3b70277c	0.0036644628
89	0xbd2529fe	-0.04032325
90	0x3d7b63b6	0.06137439
91	0xbec26ee2	-0.37975222
92	0xbd442258	-0.047884315
93	0xbd82fbff	-0.06395721
94	0x3caa372d	0.020778263
95	0x3db434ba	0.08799119
96	0x3cfb1e7f	0.03065419
97	0xbd1d04da	-0.038334705
98	0x3ccb6cad	0.024832094
99	0xbdda2359	-0.10651273
100	0x3c93d3ef	0.018045394
101	0xbc60df78	-0.013725154
102	0xbde5252e	-0.11188732
103	0x3c5b5410	0.013386741
104	0x3d928b47	0.07155471
105	0xbec6268a	-0.38701278
106	0xbd98aa8a	-0.07454403
107	0xbd1a8176	-0.03772112
108	0xbec277e8	-0.37982106
109	0xbbfc3070	-0.007696204
110	0xbcf4c1ec	-0.029877625
111	0x3e277708	0.16354
112	0xbc5dd325	-0.01353911
113	0x3dc37599	0.09543914
114	0x3d9cfb3d	0.076651074
115	0xbd859a04	-0.06523517
116	0xbd3cda26	-0.04610648
117	0x3dc11fed	0.094299175
118	0x3e657645	0.22408397
119	0x3d2a0d08	0.041516334
120	0xbe15af9d	-0.14617772
121	0xbd2177e6	-0.039420985
122	0xbd6f7f84	-0.058471218
123	0x3e464532	0.19362333
124	0x3dacab6f	0.08431136
125	0xbd27ec93	-0.0409971
126	0x3db89713	0.0901319
127	0xbcd4d72c	-0.025981508
128	0x3dac3c3c	0.08409926
129	0x3e82fb5f	0.25582406
130	0x3c09e2b9	0.008415871
131	0x3d6ff8ed	0.058587003
132	0x3d732e9e	0.05937063
133	0xbc57a42f	-0.013161703
134	0xbe7352fe	-0.23762128
135	0x3d1a817c	0.037721142
136	0xbb121774	-0.0022291811
137	0x3ce06760	0.027393043
138	0xbd15be92	-0.036558695
139	0x3ce7f9c2	0.028317336
140	0xbdd0f6d3	-0.10203328
141	0x3e81e6c7	0.25371382
142	0x3d3f11bb	0.04664777
143	0xbe4cce93	-0.20000677
144	0xbdff605c	-0.12469551
145	0xbd8f2538	-0.06989521
146	0xbb26929c	-0.0025416976
147	0xbc453710	-0.012037054
148	0xbd94d87e	-0.07267855
149	0x3e20dab0	0.15708423
150	0x3a1d703b	0.00060057984
151	0xbc71d1a2	-0.014759453
152	0x3cea924c	0.028634213
153	0xbe2e22ef	-0.17005514
154	0xbd5a2cf7	-0.053265538
155	0xbe9e6a84	-0.3094064
156	0xbdc200a9	-0.09472782
157	0xbdc53b79	-0.09630484
158	0x3ddcc34a	0.10779436
159	0x3dbfedd5	0.09371535
160	0xbcd82fae	-0.026389923
161	0xbeb9f693	-0.36320934
162	0x3ba2f67e	0.004973232
163	0x3d99c202	0.07507707
164	0xbce3b3a6	-0.027795624
165	0xbe57101d	-0.2100224
166	0xbda27966	-0.07933311
167	0xbcf5b788	-0.029994741
168	0xbcfd19fd	-0.030896181
169	0xbe1e1b42	-0.15440086
170	0x3c757feb	0.014984111
171	0x3d9d9532	0.076944724
172	0x3c68136e	0.014164789
173	0xbe0922d6	-0.13392195
174	0xbe1c02ca	-0.15235439
175	0xbcb6c8fe	-0.022312637
176	0xbdaae0d4	-0.08343664
177	0xbe4bcacd	-0.19901581
178	0xbeaf3c3d	-0.34225646
179	0x3cbd04e5	0.023073623
180	0xbd3c1418	-0.0459176
181	0xbb204868	-0.002445722
182	0xbbfdce06	-0.007745507
183	0x3da4f6e5	0.08054904
184	0xbea56e03	-0.32310495
185	0x3c7bfc4f	0.015379979
186	0xbd5385f7	-0.05164143
187	0xbdaa528a	-0.08316524
188	0xbeae3f66	-0.34032744
189	0xbe7e4043	-0.24829201
190	0x3c85fbdd	0.01635545
191	0xbe095c44	-0.13414103
192	0x3d232a3f	0.03983521
193	0x3c7b48bc	0.015337165
194	0x3e92b433	0.28653106
195	0xbe87639d	-0.26443186
196	0xbc60f75d	-0.013730851
197	0x3e33fe28	0.17577422
198	0x3d276ded	0.040876318
199	0xbb96e32e	-0.0046047186
200	0xbe887565	-0.26652065
201	0x3efacfb5	0.48986593
202	0x3e1331fb	0.14374535
203	0x3df12450	0.11774504
204	0xbd673d0f	-0.056454714
205	0x3d020444	0.03174235
206	0xbea77d93	-0.32712993
207	0x3e31202b	0.17297427
208	0xbe48cd19	-0.19609489
209	0xbcf305c6	-0.029665839
210	0xbe7188f1	-0.23587395
211	0x3e7b5adb	0.24546377
212	0x3d2759a3	0.04085697
213	0xbc84d889	-0.016216533
214	0x3cef5a34	0.029217817
215	0xbe5e8c2d	-0.2173316
216	0x3c5e1c06	0.013556486
217	0x3ca87cd6	0.020567339
218	0x3c6a6a87	0.014307625
219	0xbe8fb4d7	-0.28067657
220	0xbd52a0cd	-0.051422883
221	0xbe88d41d	-0.2672433
222	0xbc507211	-0.012722508
223	0x3cee33aa	0.02907737
224	0x3ca6b500	0.02034998
225	0xbe91a469	-0.28445747
226	0x3d5669d1	0.05234701
227	0xbea75c53	-0.32687625
228	0xbbcf06dd	-0.006317957
229	0xbd07f780	-0.03319502
230	0xbea0aa79	-0.3138006
231	0xbdec8529	-0.11548836
232	0x3b852088	0.004062716
233	0xbe23cc18	-0.15995824
234	0xbc125ab9	-0.008932763
235	0x3d6a61b8	0.057222098
236	0xbe45a10a	-0.19299713
237	0xbc5f0aa4	-0.013613377
238	0xbd5ae3c5	-0.053439874
239	0xbe6c080c	-0.23049945
240	0xbaaf6bbc	-0.0013383548
241	0xbe2b7b6a	-0.16746297
242	0x3c933d37	0.017973525
243	0x3cf8cb68	0.03037043
244	0xbd21bbf3	-0.039485883
245	0xbc07aeac	-0.008281391
246	0xbe04194e	-0.12900278
247	0xbdb15f84	-0.08660796
248	0x3db03386	0.08603577
249	0xbd9b7e90	-0.07592499
250	0x3d735b10	0.059413016
251	0x3e63a088	0.22229207
252	0x3d7fee25	0.06248297
253	0x3d1fcee2	0.03901566
254	0xbbe7d654	-0.0070751105
255	0xbd998df2	-0.07497777

l2.bias f4 [10]
0	0x3e05543b	0.13020413
1	0x3ec89093	0.391728
2	0x3e481335	0.19538577
3	0x3e4d2867	0.20034944
4	0x3e82ddde	0.25559896
5	0x3e5c896c	0.21536797
6	0x3db7d192	0.08975519
7	0x3e7d0053	0.24707155
8	0x3eafa936	0.34308785
9	0x3d820950	0.063494325

bn1.weight f4 [32]
0	0x3f63520a	0.88797057
1	0x3f479629	0.779635
2	0x3f587d95	0.8456662
3	0x3fda41b8	1.7051306
4	0x3f947997	1.1599606
5	0x3f8c0f40	1.0942154
6	0x3fa37a90	1.2771778
7	0x3f98e5c9	1.1945125
8	0x3fb861a7	1.4404801
9	0x3f60a3d1	0.87749964
10	0x3f85d161	1.0454522
11	0x3f8f35f7	1.1188344
12	0x3f2f4d2c	0.6847713
13	0x3f951955	1.1648356
14	0x3fb45786	1.408921
15	0x3f8ba3fa	1.0909417
16	0x3fac7d82	1.3475802
17	0x3f076f15	0.5290387
18	0x3f9b4b04	1.2132268
19	0x3f135599	0.57552487
20	0x3f687bab	0.908137
21	0x3f50a904	0.815079
22	0x3f32bb0b	0.69816655
23	0x3f751df5	0.95748836
24	0x3f6a3c24	0.9149802
25	0x3f91b4ad	1.1383263
26	0x3f4606fb	0.773544
27	0x3ea2915b	0.31751522
28	0x3f9131a2	1.1343272
29	0x3f8629fd	1.0481564
30	0x3f6b0c2b	0.9181544
31	0x3f884319	1.0645477

bn1.bias f4 [32]
0	0xbedea31b	-0.43483815
1	0xbe8f66a7	-0.28008005
2	0xbe9c509e	-0.30530256
3	0xbdd2830e	-0.10278903
4	0xbe1b7bc2	-0.15183929
5	0xbe38b825	-0.18038996
6	0x3e2e967b	0.17049591
7	0xbe3ac87d	-0.18240543
8	0x3a0f202c	0.0005459811
9	0x3dd54656	0.10413806
10	0xbe538df2	-0.20659617
11	0xbe8d9831	-0.27655175
12	0xbe8dffc3	-0.27734193
13	0xbdf557c6	-0.11979632
14	0xbd96076b	-0.073256336
15	0xbe9b80bc	-0.30371654
16	0xba0b234d	-0.00053076894
17	0xbefb58d6	-0.49091214
18	0xbdc53860	-0.09629893
19	0xbf121ae3	-0.57072276
20	0xbea6ce78	-0.32579398
21	0xbf209ab5	-0.62736064
22	0xbf055d9c	-0.5209596
23	0xbe240f1f	-0.16021393
24	0x3e06b4a7	0.13154851
25	0xbe589317	-0.2114986
26	0xbea253b7	-0.31704494
27	0xbf34d313	-0.70634574
28	0xbe9479c7	-0.2899916
29	0xbed84d91	-0.42246678
30	0x3dab81e5	0.08374385
31	0xbd1454a3	-0.03621353

bn1.running_mean f4 [32]
0	0x3cbebb83	0.023282772
1	0xbeafb84a	-0.3432029
2	0xbe311737	-0.17294012
3	0x3ea8f350	0.32998133
4	0x3f47245c	0.77789855
5	0x3f29844c	0.66217494
6	0x3e103f14	0.14086562
7	0x3cb481a2	0.02203447
8	0xbddc378c	-0.10752782
9	0x3db6ffe5	0.08935527
10	0x3f077489	0.52912194
11	0x3ee32ceb	0.44370207
12	0x3e5e58ee	0.21713611
13	0x3f353a92	0.70792496
14	0x3ea16c12	0.31527764
15	0x3ec2ea0e	0.38069195
16	0x3e98f33a	0.29873067
17	0xbe8b3dc7	-0.2719557
18	0x3ef40ba4	0.4766513
19	0xbd581136	-0.05275079
20	0xbde1b68d	-0.11021147
21	0xbd5804d6	-0.052738987
22	0x3e76b58f	0.24092697
23	0x3e555017	0.20831333
24	0x3f029d15	0.5102094
25	0x3ef1ccc8	0.47226548
26	0x3f17e687	0.5933613
27	0xbf67e041	-0.9057656
28	0x3ef46ec4	0.47740757
29	0x3e89b878	0.2689855
30	0x3ebe1bb0	0.371305
31	0x3e2f0389	0.17091192

bn1.running_var f4 [32]
0	0x3d5f73f1	0.05455393
1	0x3e1e3d60	0.154531
2	0x3e06055d	0.13087983
3	0x3dfc1ac6	0.12309794
4	0x3e805ae0	0.25069332
5	0x3e6b3a9c	0.22971576
6	0x3e0453d4	0.12922603
7	0x3e151aa9	0.14560951
8	0x3d442e20	0.04789555
9	0x3d867792	0.06565775
10	0x3de93f7e	0.11389063
11	0x3dbea310	0.093084455
12	0x3de3e254	0.11127153
13	0x3e857b92	0.2607084
14	0x3db61c46	0.088921115
15	0x3e88b1a6	0.26698035
16	0x3dc08c71	0.09401787
17	0x3d800ba0	0.06252217
18	0x3da0e2dd	0.07855771
19	0x3dba053c	0.0908303
20	0x3d148745	0.036261816
21	0x3de07d22	0.10961367
22	0x3ca8d617	0.020609898
23	0x3eaefb22	0.34175974
24	0x3d62b55e	0.055348746
25	0x3e2649d8	0.16239107
26	0x3e25072e	0.1611602
27	0x3e885984	0.26630795
28	0x3e8caa40	0.2747364
29	0x3de94f24	0.11392048
30	0x3e157f65	0.14599378
31	0x3e4fe689	0.20302786

bn2.weight f4 [64]
0	0x3f9bb014	1.216311
1	0x3f9108b4	1.1330781
2	0x3f5f8d9e	0.87325466
3	0x3f732199	0.9497314
4	0x3f91421e	1.1348302
5	0x3f795887	0.97400707
6	0x3f8b6a50	1.0891819
7	0x3f5f1168	0.87135935
8	0x3f834869	1.0256473
9	0x3f8ec320	1.1153297
10	0x3f9260df	1.1435813
11	0x3f91ceee	1.1391275
12	0x3f7613e2	0.9612409
13	0x3f9f3896	1.2439144
14	0x3f8c5b94	1.0965447
15	0x3f5f39a3	0.8719732
16	0x3f66da5f	0.9017696
17	0x3f8583e2	1.0430872
18	0x3f8494ab	1.035787
19	0x3f8749b9	1.0569373
20	0x3f897d5e	1.0741384
21	0x3f7d2a12	0.9889232
22	0x3f8c839f	1.0977668
23	0x3f9b17b2	1.2116606
24	0x3f85af34	1.0444093
25	0x3f8e0c5e	1.1097524
26	0x3f8ccd62	1.1000178
27	0x3f7b951c	0.982744
28	0x3f9b7ab6	1.2146823
29	0x3f833357	1.0250043
30	0x3f6c216e	0.9223851
31	0x3f7e036f	0.9922399
32	0x3f886935	1.0657107
33	0x3f90473e	1.1271741
34	0x3f81b860	1.0134392
35	0x3f781658	0.96909094
36	0x3f96dc82	1.1786044
37	0x3f895567	1.0729188
38	0x3f719df4	0.9438164
39	0x3f94f9b4	1.1638703
40	0x3f7ed11b	0.9953782
41	0x3f9c3116	1.220248
42	0x3f776027	0.9663109
43	0x3f899c0b	1.0750746
44	0x3f80ccdd	1.0062519
45	0x3f7e010c	0.9922035
46	0x3f7ecd8d	0.99532396
47	0x3f93297a	1.1497033
48	0x3f59682d	0.84924585
49	0x3f82f9d3	1.023249
50	0x3fa213f7	1.2662343
51	0x3f894d60	1.0726738
52	0x3f7f2db5	0.9967912
53	0x3f9a289c	1.2043643
54	0x3f7e2420	0.9927387
55	0x3f8b663f	1.0890578
56	0x3f6e0558	0.92976904
57	0x3f89c827	1.0764207
58	0x3f88852a	1.0665638
59	0x3f7dc7c4	0.99132943
60	0x3f80b901	1.0056459
61	0x3f981257	1.1880597
62	0x3f947844	1.1599202
63	0x3f94bdf3	1.1620468

bn2.bias f4 [64]
0	0xbefc3d6a	-0.49265605
1	0xbf177bba	-0.59173167
2	0xbef46d62	-0.47739702
3	0xbf04d826	-0.51892316
4	0xbf15c320	-0.5850086
5	0xbebe02fb	-0.3711165
6	0xbec455cb	-0.38346705
7	0xbf0c5e32	-0.5483123
8	0xbef0478f	-0.46929595
9	0xbf0050a5	-0.50123054
10	0xbf07d08f	-0.5305261
11	0xbf0a057e	-0.5391463
12	0xbee777ee	-0.45208687
13	0xbeca10eb	-0.39466032
14	0xbee160c4	-0.4401914
15	0xbedf1d02	-0.4357682
16	0xbf2a4e4a	-0.6652571
17	0xbeb40563	-0.3516036
18	0xbf07ef90	-0.5309992
19	0xbea9b17a	-0.33143216
20	0xbf0a4e7a	-0.54025996
21	0xbecb128f	-0.39662597
22	0xbf312a8d	-0.6920555
23	0xbef42b24	-0.47689164
24	0xbf12ca37	-0.57339805
25	0xbedfad88	-0.4368708
26	0xbf13a7c8	-0.5767789
27	0xbf124375	-0.5713418
28	0xbf12b2d5	-0.57304126
29	0xbeb8222a	-0.35963565
30	0xbeeaf1f7	-0.4588773
31	0xbf2a2409	-0.66461235
32	0xbeea4d34	-0.45762026
33	0xbefcd948	-0.49384522
34	0xbef7722f	-0.48329303
35	0xbf102df9	-0.5632015
36	0xbea864e9	-0.32889488
37	0xbee55adc	-0.44795883
38	0xbf14bb28	-0.5809808
39	0xbeedbb2a	-0.46431857
40	0xbea9c1cc	-0.33155668
41	0xbf0f051a	-0.5586716
42	0xbed7e233	-0.42164764
43	0xbf03e37c	-0.5151899
44	0xbee533c0	-0.44766045
45	0xbf74bfba	-0.9560505
46	0xbf338767	-0.7012848
47	0xbf02bbad	-0.5106762
48	0xbec727b9	-0.38897493
49	0xbebf6011	-0.3737798
50	0xbeae7c6a	-0.34079295
51	0xbf01aecf	-0.5065736
52	0xbee8d5e8	-0.45475698
53	0xbf2cd7ec	-0.6751697
54	0xbf72105e	-0.94556224
55	0xbee16a12	-0.44026238
56	0xbe9cf271	-0.30653718
57	0xbf1409c4	-0.578274
58	0xbf03811d	-0.51368886
59	0xbefda58e	-0.4954037
60	0xbf19e674	-0.6011727
61	0xbedcecb1	-0.4314933
62	0xbf027fda	-0.50976336
63	0xbec8bee7	-0.39208147

bn2.running_mean f4 [64]
0	0xbf117b53	-0.568288
1	0xc06dd012	-3.7158246
2	0xc00be246	-2.1856856
3	0xbff76860	-1.9328728
4	0xbfc93a7f	-1.5720977
5	0xbf7c6fe6	-0.98608243
6	0xc005b916	-2.0894217
7	0xc00447f7	-2.0668924
8	0xbffe1121	-1.9848977
9	0xbff34304	-1.9004827
10	0x3ec3a68e	0.3821301
11	0xbf87c00f	-1.0605487
12	0xbede15dc	-0.43376052
13	0xbf8e3fa8	-1.1113176
14	0x402b699f	2.6783216
15	0x405556f7	3.333433
16	0xbfe6eac1	-1.8040391
17	0x3f84c25b	1.0371813
18	0xc003ae33	-2.0575073
19	0xc03f5c74	-2.990018
20	0x3f323bbe	0.6962241
21	0x3f3946c6	0.72373617
22	0xbfff852b	-1.9962515
23	0x3fed7cb7	1.8553685
24	0xbfa8f333	-1.3199219
25	0xbf8ca6f3	-1.0988449
26	0xc02a2a5a	-2.658835
27	0xbe59ec2b	-0.21281497
28	0xbf382c0f	-0.7194223
29	0xbf5c8d97	-0.8615355
30	0xc0304946	-2.7544723
31	0xc07532b3	-3.8312194
32	0x3f98be99	1.1933166
33	0xbfd80860	-1.6877556
34	0x3fa624ba	1.2979958
35	0x400497f5	2.0717747
36	0xc007636a	-2.1154428
37	0xbf3752f0	-0.7161093
38	0x401fbac3	2.495774
39	0x3f881210	1.0630512
40	0xbdcd8cbf	-0.10036611
41	0x3eda2c87	0.42612097
42	0x3d2c6a13	0.042093348
43	0xbf9607d0	-1.1721134
44	0xc00d7ee8	-2.2108707
45	0xbe06451e	-0.13112304
46	0xbfc1970a	-1.5124218
47	0x3e819e48	0.25316072
48	0xc0247a17	-2.5699518
49	0xbfd7f6ca	-1.6872189
50	0x3fa37a79	1.2771751
51	0xbf0ec67e	-0.55771625
52	0xbebfc2e2	-0.3745337
53	0xbf7b77b6	-0.9822954
54	0xc001672b	-2.0219219
55	0x3fc53379	1.5406333
56	0xbf6bb31d	-0.9207018
57	0xbe68c12a	-0.22729936
58	0xbfe5a467	-1.7940797
59	0x3f46cecc	0.77659297
60	0xbfc2d1c7	-1.5220269
61	0xbf27f68f	-0.65610594
62	0x3f66af17	0.90110916
63	0xbfaf43ed	-1.3692604

bn2.running_var f4 [64]
0	0x4132dc07	11.178718
1	0x41442971	12.260118
2	0x412e15fb	10.880366
3	0x40f59c3f	7.675323
4	0x41397487	11.590949
5	0x4171332b	15.074992
6	0x411aa898	9.666161
7	0x411849e3	9.518039
8	0x41024182	8.140993
9	0x412a3c92	10.639788
10	0x40f4e3b2	7.652795
11	0x40e844a1	7.2583776
12	0x413f061b	11.938991
13	0x40f7d6c7	7.744968
14	0x41149ab9	9.287774
15	0x416299e6	14.162573
16	0x41322834	11.134815
17	0x413fe174	11.992542
18	0x410a3e88	8.640266
19	0x4144da41	12.303285
20	0x412f37ef	10.951156
21	0x414de728	12.868935
22	0x40b672f5	5.701533
23	0x40c2226d	6.0667024
24	0x4107360a	8.450693
25	0x410f8653	8.970294
26	0x41376041	11.4609995
27	0x414358e7	12.209205
28	0x412d0e19	10.815942
29	0x4193b9f2	18.465794
30	0x414b45f3	12.704577
31	0x4143744c	12.215893
32	0x40fa1432	7.8149652
33	0x41013050	8.074295
34	0x412c50f6	10.769766
35	0x4121ee6c	10.120708
36	0x4163b562	14.231783
37	0x41393a2d	11.576703
38	0x412a1da7	10.632239
39	0x4132cb7f	11.174682
40	0x41490a7e	12.565062
41	0x40f7d0b2	7.7442255
42	0x413c7439	11.778375
43	0x413193ea	11.098612
44	0x41269885	10.412236
45	0x40d3383e	6.6006155
46	0x410f8cbe	8.971861
47	0x41233782	10.201052
48	0x41872b97	16.896284
49	0x4118d30b	9.551524
50	0x40dd11f7	6.908443
51	0x41383338	11.512505
52	0x413b0147	11.687812
53	0x40cb9cc3	6.362886
54	0x40a804f4	5.2506046
55	0x417a32ad	15.637372
56	0x4181a4bd	16.205439
57	0x41055dea	8.335428
58	0x4131cbe6	11.11228
59	0x413d02e0	11.813202
60	0x40dc57f4	6.8857365
61	0x4120184d	10.005933
62	0x4120dacc	10.053417
63	0x4143e196	12.242575

features.0.weight f4 [32, 1, 3, 3]
0	0xbe43de22	-0.19127706
1	0x3de59988	0.112109244
2	0x3da17f03	0.07885554
3	0xbe93ebbb	-0.28890786
4	0x3de6c2ca	0.11267622
5	0x3d95c594	0.07313076
6	0xbe329b2a	-0.17442003
7	0x3ea39020	0.31945896
8	0xbe25356f	-0.16133665
9	0x3ce76d7b	0.028250447
10	0x3e0b3008	0.13592541
11	0x3ebbdf7e	0.36693949
12	0x3ea86e98	0.32896876
13	0x3dd7c4b9	0.10535569
14	0xbe0eb025	-0.13934381
15	0xbdddce7e	-0.10830401
16	0xbe0929e9	-0.13394894
17	0xbe77a597	-0.24184261
18	0x3e3770b0	0.1791408
19	0x3e5f1f88	0.21789372
20	0x3d3cb72e	0.04607313
21	0xbeafa3fc	-0.34304798
22	0x3e0120d1	0.12610175
23	0x3e842ade	0.25813955
24	0x3d9b256b	0.07575496
25	0xbf009ed3	-0.50242347
26	0xbe9a1ec3	-0.30101594
27	0x3e5f137d	0.21784778
28	0x3d3077b4	0.043082908
29	0xbe19c865	-0.1501785
30	0xbe0f7e44	-0.1401301
31	0xbe4a6485	-0.19764908
32	0xbe4dc22f	-0.20093606
33	0xbe4345a7	-0.19069539
34	0xbdcf8481	-0.10132695
35	0x3e83f569	0.2577317
36	0xbe7772f3	-0.24164943
37	0x3ce38e38	0.027777776
38	0x3e421783	0.18954282
39	0xbe694578	-0.22780406
40	0xbe776da4	-0.24162918
41	0x3ebc0ce4	0.36728585
42	0xbe658195	-0.22412713
43	0xbe7fdc71	-0.24986435
44	0xbcda0610	-0.026614219
45	0x3e18f476	0.14937004
46	0xbdd33de8	-0.10314542
47	0xbe85e63e	-0.26152223
48	0x3e2bb851	0.1676953
49	0x3e496c37	0.19670187
50	0xbe92d363	-0.286769
51	0x3e3c97f1	0.18417336
52	0xbe69a461	-0.22816612
53	0xbea449b8	-0.32087493
54	0x3d8a9dc7	0.06768375
55	0xbe8eec0d	-0.27914467
56	0xbe120c15	-0.14262421
57	0x3e452895	0.19253762
58	0xbd22da76	-0.03975912
59	0xbebaf99f	-0.3651857
60	0x3e85d5f8	0.26139808
61	0x3e889277	0.26674244
62	0xbd036c63	-0.032085788
63	0x3da4892e	0.080339774
64	0x3e723a91	0.23655154
65	0xbeabbabc	-0.33540905
66	0x3eb5af2b	0.35485205
67	0xbe17a1d6	-0.1480783
68	0xbea5175e	-0.3224439
69	0xbd890333	-0.06690063
70	0xbe9e3b25	-0.309045
71	0x3e4267dd	0.18984933
72	0xbbacbae2	-0.0052713016
73	0xbde718c4	-0.112840205
74	0x3ea95111	0.3306966
75	0xbdb65df8	-0.08904642
76	0xbeba01ec	-0.3632959
77	0x3d224ae8	0.039622217
78	0x3ec86dab	0.3914617
79	0xbe8b3ab7	-0.27193233
80	0xbd5e0b16	-0.05420979
81	0xbe763df1	-0.24047066
82	0xbe6149d5	-0.22000821
83	0x3e01b3f4	0.12666303
84	0x3ea8994c	0.32929456
85	0x3e9dcab6	0.3081872
86	0x3ea551f5	0.3228909
87	0xbd74be63	-0.05975188
88	0xbe5c5b54	-0.21519214
89	0xbead3ba3	-0.33834562
90	0x3cc61808	0.02418138
91	0xbdeefae6	-0.11668949
92	0xbdf22898	-0.11824149
93	0x3e743b90	0.23850846
94	0xbe455232	-0.19269636
95	0x3e0e0ddc	0.13872474
96	0x3e4dbbaf	0.20091127
97	0xbea9449f	-0.33060166
98	0xbe819cbb	-0.25314888
99	0xbde30013	-0.110839985
100	0xbed52b7c	-0.41634738
101	0xbac790cd	-0.0015225649
102	0xbe939940	-0.28827858
103	0x3e51279e	0.20425269
104	0x3deb4ea7	0.11489611
105	0x3e7b8fd7	0.2456659
106	0x3e2c4ebb	0.16826908
107	0xbda4a8f4	-0.08040038
108	0xbce0843e	-0.027406808
109	0x3dab8818	0.08375567
110	0xbe9012c4	-0.28139317
111	0x3e016ea4	0.12639862
112	0x3e2a0161	0.16602089
113	0xbe29da68	-0.16587222
114	0x3d916804	0.070999175
115	0x3d097a37	0.03356382
116	0xbeb74d9b	-0.35801396
117	0x3e8c97a5	0.27459446
118	0x3e935b8c	0.28780782
119	0xbd44b96b	-0.04802839
120	0xbc923f97	-0.017852588
121	0xbd90701d	-0.07052634
122	0xbe77b4fb	-0.24190132
123	0xbea66670	-0.3250003
124	0xbe5c793b	-0.21530621
125	0xbe598e78	-0.21245754
126	0xbce30c24	-0.02771575
127	0x3de53199	0.111911006
128	0x3ea48dd6	0.32139462
129	0xbebe193f	-0.37128636
130	0xbea08339	-0.31350115
131	0xbe28ac3e	-0.16471955
132	0x3e8a976d	0.27068654
133	0xbd90c614	-0.070690304
134	0xbdcab24d	-0.098972894
135	0xbea83a10	-0.32856798
136	0xbe607fdc	-0.21923774
137	0xbd02b6db	-0.031912666
138	0xbed37138	-0.41297317
139	0x3e713660	0.23555899
140	0xbe35a0bc	-0.17737097
141	0xbdbde223	-0.09271648
142	0x3d0993ae	0.033588104
143	0x3eb8affd	0.36071768
144	0xb8c91714	-9.5887255e-05
145	0x3e3292b5	0.17438777
146	0x3dfe5bf7	0.12419885
147	0xbee2cb2d	-0.44295636
148	0xbeb72b36	-0.35775155
149	0xbe5e3edf	-0.21703671
150	0x3e862edf	0.26207635
151	0x3e28bdcf	0.16478656
152	0xbdb0b3b2	-0.08628024
153	0xbda10df3	-0.07863989
154	0xbe0463a0	-0.12928629
155	0xbe31296e	-0.1730096
156	0x3ec80539	0.39066485
157	0x3dadbfef	0.08483874
158	0xbd234678	-0.039862126
159	0xbe38f539	-0.18062295
160	0x3e040233	0.12891464
161	0x3e891023	0.26770124
162	0xbe19d3e2	-0.15022233
163	0x3ea60567	0.32425997
164	0xbe2aee7c	-0.16692537
165	0x3e0b83b1	0.13624455
166	0x3e5f0056	0.21777472
167	0xbec59904	-0.38593304
168	0xbd5e9009	-0.05433658
169	0xbe9b4536	-0.3032624
170	0x3d550052	0.05200226
171	0xbe0fbf58	-0.14037836
172	0xbd325a13	-0.043542933
173	0x3e7b6e4b	0.24553792
174	0xbe2a808b	-0.16650598
175	0x3e57fee5	0.21093328
176	0x3ca8c45d	0.020601446
177	0x3ea4e5d3	0.32206592
178	0x3e620081	0.22070505
179	0xbebca37e	-0.36843485
180	0x3d94f78f	0.072737806
181	0x3d9aca52	0.07558121
182	0xbce3ac40	-0.027792096
183	0x3d5751b3	0.05256815
184	0x3c0ee1fd	0.008720872
185	0xbe72910c	-0.23688143
186	0xbd9c5ea1	-0.076352365
187	0x3ecbce0e	0.39805645
188	0xbe7a8fd1	-0.24468924
189	0x3e468d2d	0.19389792
190	0x3e43c883	0.19119458
191	0x3d954ddf	0.07290243
192	0xbe576806	-0.21035776
193	0x3e2215f9	0.15828694
194	0x3cd6934a	0.02619328
195	0xbeb7cf26	-0.3590023
196	0xbeab44fe	-0.33451074
197	0x3e1bc967	0.15213548
198	0x3d98f73a	0.0746903
199	0x3e274774	0.16335851
200	0xbebf7865	-0.3739654
201	0xbeacc62b	-0.3374494
202	0x3e381746	0.17977628
203	0x3e83178a	0.25603896
204	0x3e574d1e	0.21025512
205	0xbe37b7ce	-0.1794121
206	0x3da6b9d5	0.081409134
207	0xbe91be05	-0.28465286
208	0x3d530f7a	0.05152843
209	0x3e8a5a1c	0.27021873
210	0xbe8dccb2	-0.27695233
211	0x3cd852aa	0.026406605
212	0x3dad8b7e	0.08473872
213	0xbee283d6	-0.44241208
214	0xbe9aa31a	-0.30202562
215	0x3def4c51	0.11684478
216	0xbee75ff7	-0.45190403
217	0x3d56616d	0.052339006
218	0x3daa474b	0.08314379
219	0x3e23aed3	0.15984659
220	0x3e358ef8	0.1773032
221	0x3d0b51e4	0.034013644
222	0x3e19fe37	0.15038382
223	0xbe44f98c	-0.1923582
224	0xbe9bd471	-0.30435517
225	0x3e435573	0.19075565
226	0x3e4debef	0.20109533
227	0xbe667f52	-0.22509506
228	0xbd793981	-0.060845856
229	0xbdf9fd73	-0.12206545
230	0xbe552180	-0.2081356
231	0xbe1116a6	-0.14168796
232	0xbd475028	-0.048660427
233	0xbe237f11	-0.1596644
234	0x3c87ad21	0.016562046
235	0x3e2b97c5	0.16757114
236	0x3e3f80d0	0.18701482
237	0xbeadfb2e	-0.33980697
238	0x3e23dd19	0.16002311
239	0xbe770910	-0.24124551
240	0xbee268da	-0.4422062
241	0x3cdb791b	0.026791146
242	0xbd90e13d	-0.07074211
243	0x3e900195	0.28126207
244	0x3d868340	0.06568003
245	0x3e4c9e3f	0.19982241
246	0x3deea6e3	0.11652925
247	0xbd61ddfa	-0.055143334
248	0xbd997037	-0.074921064
249	0x3e8104fa	0.2519911
250	0x3e7e4963	0.24832682
251	0xbdf8bfbf	-0.12145948
252	0xbe80bded	-0.25144902
253	0xbe92208d	-0.2854046
254	0xbe8f5478	-0.27994132
255	0xbe200d6a	-0.15630117
